DeepModels/ckpts_precomputed/dkvmn/ASSIST2015/model.ckpt (torch, 112786 bytes, 11 tensors)

Mk f4 [20, 50]
000000 2b df d8 3d 6c f4 c6 bd 19 0f 51 3e d3 78 4f 3e
       0.10589441 -0.097145885 0.20415916 0.20260935
000010 df f3 20 3e d0 1b ef 3d 21 4f 73 3d 68 e7 a3 bd
       0.1571803 0.11675227 0.059401635 -0.080031216
000020 7f de 0b 3e 6f ec 72 3d 85 9a ab 3e 8f 4d c7 3e
       0.13659094 0.059307512 0.33516327 0.3892636
000030 4d 3f 58 3e 73 57 b3 3e 86 6c 17 be bb 05 6b 3d
       0.21117897 0.35027656 -0.14787492 0.057378512
000040 a8 74 26 3e 1f 3b b4 bd 8c 35 b6 be 31 57 ab bd
       0.16255438 -0.08800339 -0.35587728 -0.0836624
000050 ae 44 b8 be 8a 7e 3f 3e 6c 87 62 be 40 66 d4 b9
       -0.35989898 0.18700615 -0.22121972 -0.00040511973
000060 17 a1 96 bc 92 06 06 3e a4 7f b0 3d f3 ec d2 3c
       -0.01838736 0.13088444 0.086180955 0.025747752
000070 fd 79 fb bd 82 cc 52 3e ba 4c ae 3c da ac 16 bd
       -0.12279127 0.20585826 0.02127682 -0.036785938
000080 61 82 b7 3e b4 e4 e4 3e 74 53 10 3e c0 c2 07 bc
       0.3584166 0.44705737 0.14094335 -0.008286178
000090 87 ff aa 3d ea 1f 9b 3d 68 0f 3c be d0 09 1b 3e
       0.08349519 0.075744465 -0.18365252 0.15140462
0000a0 e2 c5 a7 be d1 8e 64 3e 67 1c 08 3e 24 29 88 3d
       -0.3276816 0.22320105 0.13292085 0.06648472
0000b0 8b 6a 76 bd 3d 1b 6a be 3c 4a 06 be 2b 70 12 be
       -0.0601602 -0.22861953 -0.13114256 -0.14300601
0000c0 bb 26 4c 3e dd 7f 50 3e 20 a5 30 3e 4c ce 01 3f
       0.1993665 0.20361276 0.1725049 0.5070541
0000d0 db 35 8d be ad 5c 9f be b0 3b 73 be 92 bd b2 be
       -0.2758015 -0.31125394 -0.23753238 -0.34910256
0000e0 e1 97 7d 3d 89 48 48 bc ea 0e 57 be 4c eb 92 bd
       0.06191242 -0.012224325 -0.21001783 -0.071737856
0000f0 cc cb 89 3e d0 21 86 3d b3 98 b0 bd 20 b3 93 3d
       0.26913297 0.06549418 -0.08622875 0.072119
000100 c1 ba c6 bd bd f7 9d 3e 07 76 8d bd 06 96 84 bd
       -0.09703589 0.30853072 -0.069072776 -0.06473927
000110 53 dd c4 3e 6e 13 6a 3c a0 3b 94 bd c6 ff ac bd
       0.38450107 0.014286859 -0.07237935 -0.084472224
000120 0c 52 b3 bc dd 0e 49 3e 86 bc ef 3e 67 fe b2 3d
       -0.021889709 0.19634576 0.4682352 0.0873993
000130 17 6f f9 3d ba 73 1f bb 82 80 3e 3e 96 7c 57 be
       0.12179392 -0.0024330453 0.1860371 -0.2104362
000140 4a ba 1a bd 77 c2 ef bc cb d2 ad 3e 8f ec 4d bd
       -0.037775315 -0.029267533 0.33949885 -0.050274428
000150 d9 37 74 3d 9b 8f 03 3e 68 b8 ea 3c f4 b4 80 3e
       0.059623573 0.1284775 0.028652385 0.25138056
000160 ad f6 c5 be c3 33 5a bd 08 0f 16 be 20 b6 a2 be
       -0.3866476 -0.05327202 -0.14654171 -0.31779575
000170 19 2d 91 3e ea 65 96 3d ca 11 6b 3e 5d 6b 03 3e
       0.2835472 0.07343657 0.22956005 0.12833925
000180 cc 3b a1 3d 3a fc dd 3c d6 8b 2c bc 22 6a 81 be
       0.078727335 0.02709781 -0.010531386 -0.25276285
000190 96 2d 4e 3c c7 98 85 3e 48 4c 1e 3d 52 3a fb be
       0.012584111 0.26093122 0.038646966 -0.49067932
0001a0 fa 77 3e be 11 e8 a5 3e 8d 17 88 bc 48 26 e7 3e
       -0.18600455 0.32403615 -0.016612792 0.45146394
0001b0 09 ac 89 be 5c 93 f7 bd bf a0 75 be ef 13 71 3e
       -0.26889065 -0.120886534 -0.23987101 0.2354276
0001c0 eb 65 fa bd bc 70 82 be 66 ca 08 3e af 42 45 bd
       -0.122264706 -0.25476635 0.13358459 -0.048159298
0001d0 c1 a8 5e 3c 1e cf 29 be 97 9d 0b be e7 5e 59 be
       0.013590039 -0.16582915 -0.13634335 -0.21227609
0001e0 67 df ad 3e 65 24 d5 bd cc 6e 8f 3d 8d 72 fe 3e
       0.33959505 -0.10407332 0.07003555 0.4969677
0001f0 b5 76 9a 3c a8 14 18 bf a2 12 6d bd 15 50 06 bd
       0.018855432 -0.5940652 -0.057879098 -0.032791216
000200 e7 c5 e2 be 0c ad 49 3e d7 b6 6b be fd 2d 90 be
       -0.44291613 0.19694918 -0.23018967 -0.28160086
000210 2e db f0 ba 0a b1 29 be cd b0 a1 3e f6 df 3b 3e
       -0.0018375868 -0.16571441 0.315802 0.18347153
000220 d0 42 db 3c 36 ff 0c 3e fe 20 82 3c 57 b5 1d bd
       0.026765257 0.1376923 0.015884873 -0.038503017
000230 e3 c2 c9 3e cf b2 c3 bc 74 d9 86 3e 31 93 95 be
       0.394065 -0.023888974 0.2633778 -0.2921386
000240 24 db 31 be a3 82 da 3e 80 1f a3 3e 9b 57 4a 3d
       -0.17368752 0.42677793 0.3185997 0.049399953
000250 e8 18 f4 3d 48 1b 94 3e 05 97 a1 3c 73 96 b5 be
       0.11918813 0.28927064 0.019725332 -0.35466346
000260 dc 55 eb bd c8 26 80 3d ba 61 7d 3e 30 6c e1 be
       -0.11490986 0.06257397 0.24744311 -0.44027853
000270 cc c6 3c bd 4b b5 bd 3d 17 62 5e 3d b0 8f 84 be
       -0.046088025 0.092630945 0.054292765 -0.25890875
000280 53 fe 82 3e 35 4d d4 3d ed 4d 66 be 89 3b ed bd
       0.2558466 0.103662886 -0.22490664 -0.11583621
000290 3d 10 7c be 4f 00 f4 bd b1 ed 02 be 63 22 48 be
       -0.2461557 -0.11914121 -0.12785985 -0.19544367
0002a0 13 ca f9 ba 23 ce f2 3d c2 07 9f 3e 45 ac b3 bd
       -0.0019057415 0.11855724 0.31060606 -0.08773092
0002b0 8c 58 9d bd 19 8f 9f 3d b5 b4 6c 3d fa 7f 8a 3e
       -0.076829046 0.077909656 0.057789523 0.27050763
0002c0 5f 8f 97 bd 98 e4 3e 3e 70 62 5e 3d de a7 a7 3d
       -0.07400393 0.18641889 0.054293096 0.08186315
0002d0 34 ce 36 be 1d 45 6f be a7 f6 17 be 0f d5 a1 bc
       -0.17852098 -0.23366208 -0.14840184 -0.019754915
0002e0 42 c7 96 be 74 f8 d0 3d 1f 04 71 3d 8a 52 1d 3f
       -0.29448897 0.10203639 0.05884182 0.6145407
0002f0 9f 6f fd bd 81 24 2c be 4c 01 b0 bd 0f 0f de 3d
       -0.12374806 -0.168108 -0.08593997 0.10842716
000300 b3 48 0a 3e a0 4a 0d be 8e af 4d 3e dd ac 78 be
       0.13504295 -0.13797998 0.200865 -0.24284692
000310 17 99 10 3e 87 81 ce bd 69 8e 5d bd e3 d3 76 3d
       0.14120899 -0.10083299 -0.05409089 0.060260665
000320 03 ff 48 be 29 cf e2 be c8 a0 97 3e 2c 00 06 be
       -0.19628529 -0.44298676 0.29614854 -0.13086003
000330 a2 42 51 3e 2f ed a6 be 8c b5 36 be 38 53 0b 3e
       0.20435575 -0.32602832 -0.17842692 0.13605964
000340 28 4f 83 3d bc aa 88 be 50 8a b3 3b 9d 85 18 be
       0.06411582 -0.2669276 0.0054791346 -0.1489472
000350 a3 0a a6 bd 9a f8 aa be 1b 2f b9 be dd 86 3d be
       -0.081074975 -0.33392793 -0.3616875 -0.18508478
000360 4b 50 b6 3e 6e 17 c1 3d a7 29 47 3e fe ff 45 bd
       0.35608134 0.09428297 0.19449483 -0.048339836
000370 be f6 28 be 33 e2 6c 3e 08 85 7e bd 0e 01 95 3e
       -0.16500375 0.23133163 -0.062138587 0.29102367
000380 ef 90 89 3e 71 6a e1 be ee ee 69 bd bb 09 57 3d
       0.26868388 -0.4402652 -0.057112627 0.052499514
000390 d1 4a a0 bd 4c 67 fb bc 47 59 06 be dd 08 8e 3d
       -0.0782677 -0.030688904 -0.13119994 0.06935284
0003a0 35 db e7 3e 79 05 05 3f a3 e5 3f 3d fc 98 a1 3e
       0.4528443 0.51961476 0.046849858 0.3156203
0003b0 31 f2 da 3d 61 55 54 3e 5e b9 95 3e e3 60 bc 3c
       0.106907256 0.20735694 0.29242986 0.022995418
0003c0 a0 3c 67 be 9e 83 88 3e 9f 5a ad 3e df 13 e6 bd
       -0.2258172 0.26662916 0.338582 -0.11234259
0003d0 1f 2a a2 bd 6f e9 e3 3d 85 e1 51 be dc a9 89 be
       -0.0791819 0.11128508 -0.20496185 -0.26887405
0003e0 78 d1 3e be fb 1a 9a be fa 5b 1e bc 6b aa 4a be
       -0.18634593 -0.3009871 -0.009665484 -0.19791572
0003f0 77 50 ed be 17 51 33 3e 28 76 e4 be ef a0 1a 3e
       -0.46350452 0.17511402 -0.44621396 0.15100454

Mv0 f4 [20, 50]
000000 a4 c3 42 be b5 40 e6 bd f7 95 25 bd d7 e3 0d bd
       -0.19019943 -0.11242811 -0.04042622 -0.034641113
000010 aa 6b 3c bd 68 f8 dd 3c 73 45 1f 3e 1a 3d d8 3d
       -0.046001114 0.027095988 0.15553837 0.10558529
000020 32 7d 97 be a5 cf ed bd 1b 73 51 be 2d 49 50 3e
       -0.29587704 -0.11611871 -0.20454066 0.20340414
000030 d3 ff af 3e e1 4b 72 3e f8 c9 ee bd 57 6d 69 bd
       0.34374866 0.23661758 -0.11659616 -0.05698904
000040 cc b8 a5 3d 14 2e 2d 3f c9 43 55 3e 28 a7 1a 3e
       0.08091888 0.67648435 0.20826639 0.15102828
000050 81 9b 8a 3d 84 07 b4 39 0d 67 36 be 23 98 a4 be
       0.06767941 0.00034337875 -0.17812748 -0.3214732
000060 23 92 fd 3d 13 ba 9c ba ec 81 e7 3e 9a d3 fe bd
       0.12381389 -0.001195731 0.4521631 -0.124427035
000070 2d 14 8e 3e fe 31 0f 3e b0 05 7b 3d d2 6a d9 bc
       0.27749768 0.13983914 0.06128472 -0.026540194
000080 0e 67 37 bd f7 0a 14 be 31 be ac 3e ee 4c 89 bd
       -0.044776015 -0.14457308 0.33738855 -0.06704126
000090 61 bb 1f be d5 6a d7 bc bd 7e 94 3e 54 30 4f 3e
       -0.15598823 -0.026296059 0.29002944 0.2023328
0000a0 22 21 4c 3e 9f 12 53 be fb 2f 1a bf 27 f5 f8 3d
       0.19934514 -0.20612572 -0.6022946 0.12156134
0000b0 6e 1d 8d bd d0 75 34 3e 0e 3a b8 be 90 c5 e0 3d
       -0.06890379 0.17623067 -0.35981792 0.10975182
0000c0 e8 72 2f be ad ab fc 3c 21 96 12 be c6 db 03 3d
       -0.17133677 0.03084358 -0.14315082 0.032192014
0000d0 ba 53 13 bd db cc b0 3d 6c 76 ab be 2e 5e 52 be
       -0.03596852 0.08632823 -0.33488786 -0.20543739
0000e0 ef 00 a4 be 70 f5 5b 3e cd 50 52 be f8 00 98 3d
       -0.32031962 0.21480346 -0.20538636 0.0742206
0000f0 ed 5d 18 be 97 5c b9 3e a1 62 87 be b8 c1 53 be
       -0.1487958 0.36203453 -0.26442435 -0.20679367
000100 58 c3 25 be 1d 1b 21 bd 1e e3 91 bd 5a 4d 0d be
       -0.16187799 -0.039332498 -0.07123397 -0.13799039
000110 0f b2 05 be 1a 93 9b bb 3f 41 fb be 86 67 c8 be
       -0.13056205 -0.0047477605 -0.49073216 -0.39141482
000120 e3 0c 18 be 89 76 81 bd 8a 12 c5 bd 1a b2 ce 3e
       -0.14848666 -0.06321437 -0.09622677 0.40370256
000130 02 d9 e8 bd f8 e2 b1 bc b0 43 8f 3e b7 18 48 be
       -0.11369516 -0.021714672 0.2798133 -0.19540678
000140 bc ac 13 3e 6a 96 1d 3e d8 3d c5 3e b6 c4 88 3e
       0.14421362 0.1538941 0.38523746 0.2671258
000150 46 44 34 bc b6 d2 28 3e 17 2b c6 3c f4 d7 77 be
       -0.011002606 0.1648663 0.024190469 -0.24203473
000160 e6 31 4f be df 24 7e 3e 86 ec 83 bd eb 76 e7 be
       -0.20233878 0.24818753 -0.06441598 -0.45207915
000170 a9 67 1c be 88 83 16 3d 56 1e c1 3d 2b a5 36 bd
       -0.15273918 0.03674653 0.09429614 -0.04459111
000180 af c6 fe 3d 44 eb 0d be 3d ea df be 72 5d 9f 3e
       0.1244024 -0.13859278 -0.43733397 0.3112598
000190 36 e2 9c bd 18 09 5e be 88 b8 05 be bf 19 9c bd
       -0.07660334 -0.21683156 -0.13058674 -0.07622098
0001a0 da f3 b0 be 30 4c 9b 3d 7d a0 4e 3d 79 fd 20 be
       -0.34561044 0.07582891 0.050446022 -0.15721692
0001b0 09 39 c3 3e 78 85 53 3e db 37 91 3d 95 6e 56 be
       0.38129452 0.20656383 0.07090732 -0.20940621
0001c0 2d 55 45 be ee d7 b3 3e ca 83 ec bc b2 1c a7 3e
       -0.19270773 0.3512568 -0.028871436 0.3263908
0001d0 42 3d d3 3e b2 41 37 bd 54 53 b5 bd 82 f8 11 3e
       0.41257674 -0.044740386 -0.08853784 0.14254954
0001e0 12 18 87 3e f2 aa e3 3e ec eb cb 3e ce e4 52 be
       0.26385552 0.44466358 0.39828432 -0.20595095
0001f0 8f 3d 99 3e 57 3c df 3d e4 c0 16 3c 8d 09 2c 3e
       0.29929778 0.10900181 0.009201262 0.16800518
000200 e2 5b c3 be 3e 18 0c bd 42 16 a5 3e 0a 90 1a be
       -0.3815604 -0.034202807 0.32243544 -0.15094009
000210 35 0c b2 bd cc 33 2c bd d3 bd 9b be 0d 8a ef bd
       -0.086937346 -0.042041585 -0.30418262 -0.11696253
000220 2c 6c 3d be e2 6d 35 3d e3 25 2c 3b 39 d0 a5 be
       -0.18498296 0.044294246 0.00262677 -0.32385424
000230 2c 88 9f bb 93 17 3d be bd b0 de bd bb 38 ad 3d
       -0.004868528 -0.18466024 -0.10873554 0.08458086
000240 12 83 e6 3d b0 a5 41 3d 1d 76 61 bc a8 12 02 3f
       0.112554684 0.047277153 -0.013761071 0.5080972
000250 d5 f2 ac bd 1f 28 b6 3c a7 a4 96 be aa 68 a5 3d
       -0.08444754 0.022235928 -0.29422495 0.08076604
000260 af 1a f8 3d 06 8c b4 3e f3 ef bb bd 1c 78 2c be
       0.121144645 0.3526308 -0.09176626 -0.16842693
000270 f3 e2 5e be d5 b9 75 3e a7 67 80 3e b8 d3 f0 bd
       -0.21766262 0.2399667 0.2507908 -0.11759132
000280 e5 9c 87 3e 8c e2 71 be c9 87 2c 3b da 4f 03 3e
       0.2648689 -0.23621577 0.0026326051 0.1282343
000290 6f a2 17 3f f2 5a bd 3e 48 83 84 be 6d 7d 2b 3e
       0.5923223 0.36983448 -0.2588141 0.16747065
0002a0 f3 00 52 3d 63 67 00 3f c7 bf f6 3d 44 eb 47 3d
       0.051270436 0.50157756 0.120482974 0.04880835
0002b0 58 8b f0 bd 08 c5 ad be 0b e5 bd 3e 6c 70 b8 bd
       -0.11745328 -0.33939385 0.37088808 -0.09005818
0002c0 e4 c3 35 3e e5 ac 1a bf be 26 b1 3a 9e ae 86 3d
       0.17750508 -0.60420066 0.0013515574 0.06576274
0002d0 07 be 7a 3e a8 39 37 3d a0 66 3c be 0b ac 8b be
       0.24486552 0.04473272 -0.18398523 -0.27279696
0002e0 0d 20 95 3e 87 86 43 be f2 15 e0 3e 0c 15 a5 be
       0.29126015 -0.19094287 0.43766743 -0.3224262
0002f0 8e ac 88 3d 4f 7a 17 be 19 88 a7 3e 3c 6f 8f bd
       0.06673537 -0.14792751 0.32721022 -0.07003638
000300 9e 0d 69 3e 66 f0 8f 3d 89 14 0a 3f 1d cd 4d 3e
       0.22759101 0.07028274 0.53937584 0.20097776
000310 97 d9 b7 bd 89 f9 10 be a2 ad c8 be d3 c8 f0 bd
       -0.08977049 -0.1415769 -0.3919497 -0.11757054
000320 cb 26 93 bd 72 cf 82 be ed 22 a3 3e 90 34 fb bd
       -0.071851335 -0.25548893 0.31862584 -0.12265885
000330 6d c4 82 3e fd 06 0d 3d 7e c3 8d be f5 36 2c 3e
       0.25540486 0.034430493 -0.2768821 0.1681784
000340 e4 3c b7 3e 61 fe 9e 3e 40 73 05 be 7a 52 20 3d
       0.35788643 0.3105345 -0.13032246 0.039141156
000350 b1 34 f9 bd e2 23 12 3d ed 53 85 be 5b 7e a8 3d
       -0.12168253 0.03567875 -0.26040593 0.082272254
000360 64 3d 11 3e fd 1d 85 be fb 80 31 be af ef af be
       0.14183575 -0.25999442 -0.17334358 -0.34362552
000370 c9 c1 9b 3d 47 e6 c8 3e 04 bc c5 bd 01 9e ac 3c
       0.07605321 0.39238188 -0.09655002 0.021071436
000380 df 47 7d be c1 01 81 3e be 8d da bd 75 68 c5 3d
       -0.24734448 0.2519665 -0.106715664 0.09639064
000390 bb 02 27 3e 52 46 b5 3d aa 5b 29 be fc 57 61 3e
       0.16309635 0.08851303 -0.16538873 0.2200622
0003a0 ed d0 0d bf 65 aa b3 3d 25 4c 48 3c 1f cd a0 be
       -0.5539692 0.087727346 0.0122251855 -0.31406495
0003b0 e0 d9 90 3e cf 99 57 3e 9e 4e 12 3d 2a 40 5b be
       0.28291225 0.21054767 0.035719506 -0.21411195
0003c0 00 85 5a be 7b 28 88 be 62 9b 20 3e 9b 3c b3 bc
       -0.21339798 -0.26593384 0.15684274 -0.021879485
0003d0 3f d4 05 3e c6 ec 7b bc 4b d5 e7 3d 8d c1 00 3e
       0.13069247 -0.015376275 0.11319979 0.12573834
0003e0 c7 97 b2 bd 41 33 a1 3c 5b 05 ce 3e dd 82 91 be
       -0.087203555 0.01967776 0.4023846 -0.28420153
0003f0 04 b0 04 3e 6f f6 bd 3d fa 9d 2a bd 88 ef 2b 3e
       0.1295777 0.09275519 -0.041654564 0.16790593

k_emb_layer.weight f4 [100, 50]
000000 af 74 88 be 34 96 97 3e bd c6 76 be 8a 02 ee be
       -0.26651523 0.29606783 -0.2409925 -0.46486312
000010 aa de 0c 3e 3d 49 74 3e 90 a0 0b bf ea e2 7c bf
       0.13756815 0.23856063 -0.54541874 -0.98783743
000020 06 cb 1a be 25 91 8f bf 58 07 43 c0 56 e3 9c 3f
       -0.1511651 -1.121617 -3.0473232 1.2256877
000030 e8 06 90 bf 41 c0 27 bf b0 c4 88 3f 50 e7 82 3f
       -1.1252108 -0.6552773 1.0685024 1.0226841
000040 d2 e6 66 bf b2 c1 a4 be 2d f2 72 3f dc 1d 82 3f
       -0.90195954 -0.32179028 0.9490078 1.0165362
000050 19 84 44 bf ea 70 2d 3f 30 01 e7 be 2a 85 b1 be
       -0.76764065 0.6775042 -0.45118093 -0.3467191
000060 bd cb 0a 3f 76 76 0a 3f 83 9c 88 3f a1 b7 9c bf
       0.5421713 0.5408701 1.0672764 -1.2243539
000070 96 3b 87 3e da 27 bf 3f a0 af 52 bf 58 a9 68 be
       0.26412648 1.4934037 -0.8229923 -0.2272085
000080 d7 b1 31 3f dd 4c 6a 3d 34 e6 54 3f a6 b2 cb 3e
       0.6941199 0.05720221 0.8316376 0.39784735
000090 8c aa 01 bf e8 a8 70 3f 19 8d 64 3e af ff 97 3d
       -0.5065086 0.9400773 0.2231945 0.07421815
0000a0 bc 1e ee be 92 f2 21 3f af f9 08 3f d0 e1 a5 be
       -0.46507823 0.6326076 0.53505987 -0.32398844
0000b0 c2 e5 8c be c4 e9 a5 be 2d 81 79 3f 6b 04 04 3f
       -0.2751904 -0.32404912 0.9746273 0.5156924
0000c0 f5 a8 22 3f 1e d1 e0 bf 77 f5 b4 bf 3d 24 66 bd
       0.6353906 -1.7563818 -1.413741 -0.056186903
0000d0 b4 79 8d 3f 66 15 83 bf f8 63 97 3e 65 38 30 40
       1.1052766 -1.0240905 0.29568458 2.753442
0000e0 8a 90 13 bf f7 90 86 bf 15 a0 33 3f 49 ec 7e 3f
       -0.57642424 -1.051299 0.7016614 0.9957929
0000f0 34 14 94 bd 7b ea 26 3f 49 91 92 3f f8 ac a8 bf
       -0.07230416 0.6520154 1.1450588 -1.3177786
000100 bb 14 7a 3e 05 ec 52 3f 5c a4 b1 3f f5 bd 5d bf
       0.2442197 0.8239139 1.3878284 -0.86617976
000110 b5 b4 5d bf 6e 7a 98 be 8c e3 83 3f e6 a2 de bf
       -0.8660386 -0.29780906 1.0303817 -1.7393463
000120 56 af f8 bf 3e 1a 4b 3f af b3 da 3f 3c b2 ab bf
       -1.9428508 0.7933692 1.7086085 -1.3413768
000130 20 fb ac 3f 1a 91 a9 bf 59 ff 7b be d4 ad 83 3f
       1.3514137 -1.3247406 -0.24609126 1.0287423
000140 4c a3 3b 3f 0d b7 7a bf 3c 25 62 3e 0a 24 cc 3d
       0.73296046 -0.97935563 0.22084516 0.099678114
000150 af 3e 6d bc 1b ba ee bf 2b 24 95 3f 97 61 86 3f
       -0.014480277 -1.8650545 1.1651663 1.0498532
000160 e7 a0 82 3f 95 59 bc be 75 21 1f 3e ff 3e 0d 40
       1.0205353 -0.36787096 0.15540107 2.20697
000170 1f 5a f0 3e 03 46 89 bf d2 7d c3 bf b0 b7 09 c0
       0.46943757 -1.0724491 -1.5272772 -2.1518364
000180 4f 02 b5 bf 94 b7 d7 bd 4a 07 b9 3f 08 21 71 be
       -1.414133 -0.105330616 1.445535 -0.23547757
000190 94 78 71 3f d5 5c c6 3e dd 4a 21 be 04 d8 03 bf
       0.9432461 0.387427 -0.15751214 -0.5150149
0001a0 55 ed 44 bf b0 f7 78 3f 72 54 ce 3e c9 5b 60 bf
       -0.7692464 0.9725294 0.40298802 -0.87640053
0001b0 ef 0b 9e be 24 e3 49 3e aa 6c 82 be 2c cf eb be
       -0.3086848 0.19715554 -0.2547353 -0.46056497
0001c0 85 30 08 bf 3a a7 c3 3e 29 e1 d7 3d ca 6c a3 bf
       -0.53199035 0.3821352 0.10540993 -1.2767575
0001d0 3e 18 08 40 d9 9a 37 bf 18 fe ee 3f 1f 64 b5 3f
       2.1264796 -0.71720654 1.8671293 1.417118
0001e0 d5 df ec 3e 40 e1 ff be f7 94 40 3f 2a 51 32 3f
       0.4626452 -0.4997654 0.752273 0.69655097
0001f0 8a a1 90 be 9b fe ca 3e 4d 90 01 3f 23 1e e9 bf
       -0.28248245 0.39647374 0.5061081 -1.8212322
000200 54 37 02 3f 97 e7 60 3f 17 89 ef 3f 79 66 14 3f
       0.50865674 0.8785338 1.8713712 0.5796886
000210 87 dd a4 3e 30 a4 95 3e 1b 24 79 3f 57 5f 80 3e
       0.32200262 0.29226828 0.9732072 0.2507274
000220 33 79 2f 40 6f c4 ef bf 4b 66 5e 3f 28 32 34 3f
       2.7417724 -1.8731822 0.86874837 0.7038903
000230 87 ae 82 3e 0b bb 8d 3f 6e f7 fe be ac 0a da be
       0.2552378 1.1072706 -0.4979815 -0.42586267
000240 79 7d 82 3f 17 48 13 bf 15 75 e6 bf 68 16 e1 3e
       1.0194541 -0.57531875 -1.8004481 0.43962407
000250 62 d8 82 3f 5e 0a f2 3b b8 65 ff be f0 07 90 3f
       1.0222285 0.00738649 -0.49882293 1.1252422
000260 46 02 a0 bf 63 81 9c 3f e0 3e b6 bf 69 67 53 3e
       -1.2500694 1.2226986 -1.4237938 0.20644917
000270 fa d5 54 3f 85 3c 94 3f 02 3d 13 bf 1c 6d a7 bf
       0.83139 1.1580969 -0.57514966 -1.3080173
000280 de 41 88 bf f2 4f 02 40 0f 5d a2 bf fe a3 90 bf
       -1.0645101 2.0361295 -1.2684649 -1.1300046
000290 9d a3 c3 3e 73 00 b0 bf 44 cf 1a bf a5 24 3c be
       0.38210765 -1.3750137 -0.6047251 -0.18373354
0002a0 ab 3c d5 bf e6 2e d4 be 66 25 e1 3f 86 74 09 3f
       -1.6659139 -0.4144203 1.7589538 0.53693426
0002b0 3e cc b6 3f 9c fa b8 3e 3a 0d 37 3f 92 57 cb 3e
       1.428108 0.361287 0.7150456 0.39715248
0002c0 94 ab 5b 3f ed 40 4e bf 42 5d a3 3f d4 4c 32 3f
       0.8580868 -0.8056782 1.2762835 0.6964848
0002d0 8f 5e 94 bf d3 f4 aa be 5b 73 15 3e e2 cc 59 bf
       -1.1591357 -0.3338991 0.14594786 -0.8507825
0002e0 56 89 16 3f 19 a8 72 3e 7e 6c de 3f 10 d5 93 3d
       0.5880331 0.23696937 1.7376859 0.07218373
0002f0 35 ae 07 bf 93 6d 97 3f 5b ab 5a be ae 2c 2f bf
       -0.53000194 1.1830314 -0.2135443 -0.6842755
000300 f5 c0 6f 3f 41 af 9b 3e 93 87 01 bf fd f3 9d 3f
       0.93653804 0.30407146 -0.50597495 1.2340084
000310 48 32 39 3e 70 74 72 bf 00 22 a1 be 32 50 70 3f
       0.18085587 -0.9470892 -0.31471252 0.9387237
000320 bb 7c 51 bf 7e b9 69 3f a2 d3 28 bf bf 17 59 be
       -0.8183095 0.91298664 -0.65947926 -0.21200465
000330 ea f4 90 3f da 83 5d be 87 79 22 3f f4 63 cb 3e
       1.1324742 -0.21632329 0.63466686 0.39724696
000340 b4 ed e0 bf 31 27 02 3f 7a 32 08 bf a8 60 60 3f
       -1.7572541 0.5084105 -0.5320202 0.87647486
000350 d8 12 f9 be 80 b1 5f 3f c8 55 48 bf 5a b8 e2 bf
       -0.4864719 0.8738022 -0.7825589 -1.771251
000360 a8 9c ff 3e a1 0d d5 bd cd 50 89 bf 32 4c cb bf
       0.49924207 -0.1040299 -1.0727783 -1.5882628
000370 3b 24 11 3f ca 6a 54 bf 25 6c d3 bf 6d 4f 0a 3f
       0.5669591 -0.8297545 -1.6517378 0.54027444
000380 a2 da 03 3f 2f eb 01 bf e2 ea d8 be 87 e3 53 bf
       0.5150548 -0.50749487 -0.423667 -0.82769054
000390 0c 32 93 3f 92 7c a7 3b f5 c3 c9 bf 45 2d 6b bf
       1.1499648 0.0051112855 -1.5762926 -0.9186595
0003a0 c7 6b d9 bf 86 08 2e 3f 41 bd d8 bc 26 74 61 3f
       -1.6986016 0.67981756 -0.02645743 0.88067853
0003b0 1a 3e cf bf 83 2a ec 3e 37 46 ab bf c9 d7 33 bf
       -1.6190827 0.46126184 -1.3380803 -0.70251137
0003c0 f8 60 e9 be 48 08 93 bf 37 29 ab bf 4b 48 b5 be
       -0.45581794 -1.1486902 -1.3371953 -0.35406718
0003d0 d6 36 82 3f b2 99 a4 3d 69 10 0e bf 51 2f f6 bf
       1.0172985 0.080371276 -0.5549379 -1.923319
0003e0 4d 40 b7 3f 10 47 e5 be e4 e7 5f 3f 39 8f a9 3f
       1.4316498 -0.4478078 0.8746321 1.3246833
0003f0 19 5e 07 40 19 45 b0 3e 46 96 a4 3f bf bf a2 bf
       2.1151183 0.34427717 1.285836 -1.2714766

v_emb_layer.weight f4 [200, 50]
000000 0b f1 c2 be a3 87 c4 3f 00 83 c6 bf ae ee c6 3f
       -0.38074526 1.5353893 -1.5508728 1.5541589
000010 28 77 8b 3f 53 22 ad 3d b3 8f 79 3f 32 f1 cc 3e
       1.0895739 0.084538125 0.9748489 0.40027767
000020 f9 df e7 be 70 fa a7 bf db 4f c5 bf 08 54 60 bf
       -0.45288065 -1.3123302 -1.5414995 -0.8762822
000030 61 fa 1b 3f a3 7e 1f 3f b0 b1 18 3f 99 3b 9d 3e
       0.6092892 0.6230261 0.5964613 0.30709532
000040 e2 37 d6 bf 7e c5 71 3f da 63 38 3f 0c 5e fa bf
       -1.6735804 0.94441974 0.7202736 -1.9559951
000050 db 39 2d 3f 28 5d 12 bc e4 37 19 bf bd 0d 5e be
       0.67666405 -0.008933343 -0.5985091 -0.21684928
000060 e8 f8 97 3e 35 68 dd 3d e3 b4 14 3f aa 38 21 3f
       0.29682088 0.108108915 0.5808851 0.6297709
000070 8c 48 a8 3f a1 3b 10 40 ad bf 44 3f 1e 0f 6b bf
       1.314714 2.2536395 0.76854974 -0.9181994
000080 9e 01 74 bf 6a dc 90 3f 65 01 85 bf c0 20 ce bf
       -0.9531497 1.1317265 -1.039105 -1.6103745
000090 68 a0 2f 3f d8 a4 f8 be 43 96 30 3f 83 29 79 3f
       0.68604136 -0.48563266 0.6897928 0.97328967
0000a0 28 a5 12 c0 5f 9f e8 bd 3f 5e 98 3e 10 4b d1 be
       -2.2913303 -0.113585226 0.29759404 -0.4087758
0000b0 48 4d ea 3e e4 8e 1a 3e 9a c3 07 be 1b 4f 2c be
       0.45762086 0.15093571 -0.1325821 -0.16827051
0000c0 33 f6 ac 3d 63 f9 1b 3f 90 2d 14 bf 2b be 09 bf
       0.08445396 0.6092741 -0.5788202 -0.538058
0000d0 87 9d 4a bf a2 f1 d1 3e eb 4c 62 be 3f 4e ca bd
       -0.7914662 0.41004664 -0.22099654 -0.098782055
0000e0 11 a8 38 3f 35 91 63 3d 20 72 dd bd ae d3 30 bf
       0.7213145 0.055558402 -0.10812783 -0.69073
0000f0 ce 49 4f bf 80 71 46 3f 7c 7f be 3d 73 11 c5 bf
       -0.8097199 0.7751694 0.093016595 -1.539595
000100 25 0b e2 bf ee f5 a3 bf 6a 7c 8c 3e 6d 36 52 3f
       -1.7659651 -1.2809427 0.2743867 0.821143
000110 4c 23 43 3f 7e a0 45 3f 5f f7 89 bf 76 49 5c 3f
       0.76225734 0.77198017 -1.0778617 0.8604959
000120 b8 6c e7 bf 52 8a fb be 77 dd 3e 3f ed 93 af bf
       -1.8080053 -0.49128968 0.7455668 -1.3717018
000130 98 f0 6a 3f 2a 5c c4 3e f0 65 f9 3f c5 de a2 bc
       0.91773367 0.38351566 1.9484234 -0.019881615
000140 53 f3 d8 3f e9 d5 c6 bf fb 96 5f 3f d7 c4 f1 be
       1.6949257 -1.553403 0.8733975 -0.4722049
000150 90 65 9e bf 97 6a 80 bf dd 09 99 3e 35 2c 3f bf
       -1.2374744 -1.0032529 0.29890338 -0.7467683
000160 83 3c 7b 3f 38 e5 ae bf 1e 4a c1 bf a2 e6 6e 3f
       0.9813921 -1.3663702 -1.5100744 0.9332067
000170 e8 56 77 be e0 10 66 3e 6a c7 0e bf 2d 43 e1 3e
       -0.24154246 0.22467375 -0.5577303 0.43996564
000180 26 58 ac bf 21 23 e0 be 90 0f 8e 3f 73 1f 29 3f
       -1.3464401 -0.437768 1.1098499 0.6606361
000190 07 9f 98 3e 86 5d 6e bf ae d1 1e 40 a0 0c 05 be
       0.29808828 -0.93111455 2.4815478 -0.12993097
0001a0 3b 2e 85 bf ca 81 d2 3d 43 84 4f 3f 11 18 92 3f
       -1.0404733 0.102786615 0.8106119 1.1413594
0001b0 f1 31 46 3d ed d2 7d 3f 8a 13 23 c0 29 5d 22 3f
       0.04838747 0.9914997 -2.5480676 0.634234
0001c0 41 65 4b 3f b0 79 8d 3d 70 95 62 3f 73 d1 f1 be
       0.79451376 0.06907976 0.88509274 -0.4723011
0001d0 c3 e0 c3 bf 5a f6 ac bf a1 56 11 3f f9 53 99 bf
       -1.5302967 -1.351268 0.5677281 -1.1978751
0001e0 d6 6e b5 3d 42 4f 72 be 23 e5 b5 bf 84 56 64 3f
       0.08859031 -0.23663047 -1.4210552 0.8919451
0001f0 60 75 67 3e d7 a8 92 3f cb 0f 0f 3f f6 27 cb bf
       0.22603369 1.1457776 0.55883473 -1.587157
000200 fe 68 03 3e f7 bb b6 be 19 fd d3 bd ab c0 16 bf
       0.1283302 -0.3569028 -0.10351009 -0.5888774
000210 38 d1 aa 3f 34 de 6e 3e c7 85 34 3f 49 48 17 bf
       1.3345098 0.23326951 0.7051663 -0.59094673
000220 f0 09 38 40 64 c9 f5 3e 03 01 a6 bf c9 ce 22 bf
       2.8756065 0.4800521 -1.2969059 -0.6359678
000230 3f ab 02 3f 4d 58 92 be a6 4a a6 3d ca 64 01 c0
       0.5104255 -0.28582993 0.08119707 -2.0217767
000240 29 e7 b7 3f 3a d3 e4 bb f7 1d 49 3e d2 f1 c5 bd
       1.436742 -0.006983188 0.19640337 -0.09665264
000250 53 7d 3c be 1f 6e 9f 3e 43 14 6b be 06 76 97 bf
       -0.18407182 0.31138703 -0.22956948 -1.1832893
000260 f9 19 02 c0 5c df 31 3f 2a f9 3f bf fe 6c 79 3d
       -2.0328352 0.69481444 -0.7498957 0.06089496
000270 0a dd 4a 3d d6 92 5f bf 85 70 3f 3f e5 e1 55 bf
       0.049527206 -0.8733343 0.74781066 -0.8354781
000280 3b 75 d9 bf cc 46 9c bf 8a 67 f5 be cf e1 db bd
       -1.6988901 -1.2209105 -0.47930557 -0.10736429
000290 f1 cb 4c 3f 7b 82 3d bd 56 2a 00 3e 63 83 f4 3d
       0.7999869 -0.046267014 0.1251615 0.119391225
0002a0 1c 53 39 3f 05 28 1c 3f 02 44 6a bf 77 ea 3a 3f
       0.7239244 0.60998565 -0.9151002 0.73014015
0002b0 6a 1f 6a bf b3 95 9b 3b b8 50 83 bc 2e d4 2d 3b
       -0.91454184 0.00474807 -0.0160297 0.0026524174
0002c0 86 96 97 be f9 a0 9c 3f 9d c7 1a bf a3 2b ab 3f
       -0.29607028 1.2236625 -0.60460836 1.3372692
0002d0 4a 36 3d be 43 89 b7 3e b6 de 50 3d b1 8b 48 3f
       -0.18477741 0.3584691 0.050993644 0.7833815
0002e0 6d 3d c3 3f 8f 49 05 be 14 c9 88 bf cf d5 b6 3c
       1.5253121 -0.13016342 -1.0686364 0.022318749
0002f0 85 9b 21 3f a7 56 cf 3f 23 3b 58 bf 75 9b c8 3e
       0.6312793 1.6198319 -0.84465235 0.39181104
000300 55 08 80 3f fa 5d f6 3e 99 0e cc be f1 52 41 3f
       1.0002543 0.48118573 -0.39854887 0.75517184
000310 1d dd ad 3f f6 ca ef 3f 99 b8 cf 3f 7e 5a 31 be
       1.3583103 1.8733814 1.622821 -0.17319676
000320 62 a8 81 be 1d 87 de be dc ad a7 3e 96 c5 ee 3e
       -0.25323778 -0.43462458 0.32749832 0.4663512
000330 6d 78 16 bf 98 77 03 bf ec 03 79 3d 19 1c 46 3f
       -0.58777505 -0.5135436 0.060794756 0.77386624
000340 87 86 ba bf 4d c7 34 40 10 66 a6 3e 73 59 94 be
       -1.4572304 2.8246644 0.32499743 -0.28974494
000350 98 9c ca bf 50 70 92 3e 1c 90 19 3f 8c 06 00 c0
       -1.5829039 0.28601313 0.5998552 -2.0003996
000360 a4 8e f3 be ea ab a8 bf ae 9d 83 3f ca b6 d5 3f
       -0.47569764 -1.3177464 1.0282495 1.6696408
000370 5b 89 46 3f 05 2f a6 bf b4 e4 08 bf 4f f6 7f bf
       0.7755334 -1.2983099 -0.53473973 -0.9998521
000380 d3 77 f8 be e1 d7 b1 3e cb 9d 27 3d c7 f0 a2 3e
       -0.4852892 0.34735015 0.040921967 0.31824324
000390 41 bb 88 3f 22 e4 a2 3f 8a 36 ad 3f bc 3b 31 bf
       1.0682145 1.2725871 1.3532269 -0.6923177
0003a0 e6 6d c6 3e 04 f3 7c 3f b8 be a9 bd 72 55 d3 3f
       0.3875572 0.9880831 -0.0828833 1.6510451
0003b0 08 bb a2 be 61 f7 d4 3f 58 31 ac bf 0c 86 ff bd
       -0.3178332 1.6637994 -1.3452559 -0.12476739
0003c0 09 d1 e8 3f f6 68 e1 3f 05 b1 31 be c4 8e bb 3e
       1.8188792 1.7610157 -0.17352684 0.3663236
0003d0 ce db be 3e 09 17 ae bf d7 e4 84 bf e6 f4 df bf
       0.37277073 -1.360078 -1.0382336 -1.7496612
0003e0 3f 1b 45 3d 8e 82 ad 3f 7a d3 1a 3f 46 e0 c1 be
       0.048121687 1.3555467 0.6047894 -0.3786642
0003f0 aa 28 0c bf a6 4c a0 3f b7 2f 19 bc 0f 0d 7a bf
       -0.5474955 1.2523391 -0.009349755 -0.97676176

f_layer.weight f4 [50, 100]
000000 6c 46 55 3d df e2 35 bd 41 4c 0a 3c 9b 95 71 3d
       0.052069113 -0.044405814 0.008441032 0.058980566
000010 26 45 94 bd 01 63 f8 bc c8 e1 aa 3d 5d a3 d3 bc
       -0.072397515 -0.030320646 0.083438456 -0.025834734
000020 9b bf a4 bc b1 3b 56 be 8d 03 3e be 96 eb 28 3d
       -0.020110896 -0.20921208 -0.18556042 0.041240297
000030 18 f8 23 be f9 13 da bb f5 06 80 3d f0 b9 9d 3c
       -0.16012609 -0.006655213 0.06251327 0.019253701
000040 8a f7 f7 bb 8c 0f e8 bd 2d ac 14 3e 07 ca 96 3d
       -0.0075673508 -0.1133109 0.14518805 0.073627524
000050 ed b3 22 bd ef 20 23 be 43 f5 33 be 34 a9 33 bd
       -0.03972237 -0.15930532 -0.17574029 -0.043862537
000060 39 68 34 be c0 c0 da 3d 0d 98 a9 bd 56 84 50 3d
       -0.17617883 0.106812954 -0.082809545 0.050907455
000070 5b 1b 47 3d 6a 8d dd 3d ea 24 aa bd d8 23 a7 3d
       0.048610073 0.10817988 -0.08307822 0.081611335
000080 fe 36 a6 bb f1 ce 49 bd dd f7 f7 bd cc d6 9f 3d
       -0.0050724735 -0.04926962 -0.12107823 0.07804641
000090 36 40 4b 3c 36 bb de bd ee e9 20 3e d7 b0 63 3c
       0.012405446 -0.108755514 0.15714237 0.013897142
0000a0 7c 04 85 bd 16 0e b0 3d 3f a3 63 3e 23 34 9f bd
       -0.06494996 0.08596437 0.22230242 -0.07773616
0000b0 93 eb ca 3c 06 88 88 bd 7a 95 2a be d5 2d df bd
       0.024770534 -0.066665694 -0.16658583 -0.10897414
0000c0 c9 62 49 3e 40 87 11 3e 0e 73 6d bd aa b0 90 bd
       0.1966659 0.1421175 -0.057971053 -0.07064946
0000d0 ea 51 c4 3d a3 72 a0 b9 48 70 b3 3d 20 c2 4f 3d
       0.09585936 -0.0003060299 0.0876165 0.05072224
0000e0 a3 1c d6 bd a1 53 30 bd 89 f6 2f bd 10 74 ce bd
       -0.10454681 -0.043048505 -0.042959724 -0.10080731
0000f0 16 6d e9 3d 7d 00 7c bc b6 c5 54 3d b0 98 7d 3c
       0.113977596 -0.015380976 0.051946364 0.015478298
000100 8a 3b fb 3c bf 01 9c bd 4b 25 80 3d 32 30 a2 bd
       0.030668039 -0.076175205 0.06257113 -0.07919349
000110 d1 24 d3 bd 33 6b b1 bd 72 58 7b 3d 98 66 09 bd
       -0.103097565 -0.08663025 0.061363645 -0.033545107
000120 c9 31 e5 3d 6b 93 21 3d 01 73 ea 3c ac 69 f2 3c
       0.111911364 0.03944723 0.028619291 0.029591404
000130 9d b7 ef bc 63 62 f0 bd c4 59 3a bd 88 4d 96 bd
       -0.029262358 -0.11737516 -0.045495763 -0.07339007
000140 19 33 04 be a8 cf bb 3c ce 8c 38 be 6c 3f 9a 3d
       -0.12910117 0.022926167 -0.18022463 0.07531628
000150 01 3b c3 bd cd 52 6d bd 52 3e 1c 3e c4 18 12 3e
       -0.095327385 -0.057940293 0.15258148 0.1426726
000160 b0 8f f9 bc 8c 87 e2 bd c3 c8 12 3e 1d 57 3f bd
       -0.030464023 -0.1106101 0.14334397 -0.046713937
000170 8e f8 5f 3c 68 14 c7 bd 33 d2 17 bd 21 26 dc bc
       0.0136701 -0.09720689 -0.037065696 -0.02687365
000180 7a 1b 77 3d 34 b6 5a 3d 01 6d 9e bd 95 e7 7a bc
       0.060328938 0.05339642 -0.077356346 -0.0153140025
000190 52 90 3b bd bf d2 95 3d dc 08 91 bd ca 59 cb bd
       -0.04579193 0.07315587 -0.07081768 -0.09929235
0001a0 b7 96 01 3e 65 bb f5 3c 40 5e e6 bd 81 15 49 bd
       0.1265515 0.029996583 -0.112484455 -0.049092773
0001b0 53 06 3e bb e9 9c bf 3c bd 1d dd 3c e6 0f 31 3b
       -0.0028995469 0.02339025 0.02699172 0.0027017533
0001c0 30 32 b6 bd 8f 68 67 3d 41 eb 27 3d 1d 72 9d 3c
       -0.08896291 0.0564962 0.04099584 0.019219453
0001d0 81 b9 5c bd 0b bd ba bd 52 e5 3d 3c 43 2b 04 3d
       -0.053887848 -0.09118088 0.011590319 0.03226782
0001e0 e8 3d a0 bd 18 98 ac bd c0 8d c9 3d 23 7f 0c 3e
       -0.07824308 -0.08427447 0.0984149 0.13720374
0001f0 81 17 88 3d 03 67 6e 3d 89 ba b7 3c d4 5f e7 3c
       0.06645108 0.05820371 0.022427814 0.028243937
000200 5b 3e a8 bc b0 88 e2 bc 95 c2 bc bd 28 94 f1 bd
       -0.020537546 -0.027653068 -0.09216801 -0.11795837
000210 09 f1 87 bd 2f 0f 5f bd a3 a1 56 3c b3 23 a8 3d
       -0.06637771 -0.05445784 0.013100061 0.08209934
000220 bc 44 f8 bc 42 47 71 bd 8d be f8 3b 24 61 93 bd
       -0.030306213 -0.058905847 0.007591075 -0.071962625
000230 fc e7 0f bd 59 74 92 bd 9c 55 b3 bd e6 26 26 3d
       -0.035133347 -0.07151098 -0.08756563 0.04056444
000240 99 09 cc bd d5 62 41 3d 01 eb 48 3d b0 55 c6 bd
       -0.09962768 0.047213394 0.049052242 -0.09684312
000250 7f cf cc bd 56 1e 1e be 8a 0f 5c 3a 6c f8 7f bc
       -0.10000514 -0.1544126 0.00083946495 -0.015623193
000260 16 d2 79 3d 63 9d 97 3d 1f 95 84 3c cb df 7a bd
       0.06099137 0.07403066 0.016184388 -0.06124858
000270 5c 68 95 3d 30 b5 a5 bc f6 a2 cc bc 24 48 ae 3d
       0.072952956 -0.020227998 -0.02498005 0.085098535
000280 2c 47 91 bc 5e 1f 8e bd 7d 65 c7 3c 72 2a 9c 3d
       -0.017734133 -0.069395766 0.024340386 0.07625283
000290 de 9e 61 bd d5 a0 95 3d 1e 64 56 bd 8a a9 c5 bc
       -0.05508315 0.07306067 -0.052341573 -0.024128694
0002a0 f2 1b b9 bd 44 38 00 be 76 50 26 3d e0 93 09 3e
       -0.09038533 -0.12521464 0.040604077 0.13435316
0002b0 7c b9 01 3e 2f 9b 81 3d 13 58 1b 3d 55 18 16 bc
       0.12668413 0.06328427 0.03792579 -0.009161075
0002c0 13 04 d8 bd 6c b3 e7 3d aa 24 93 3a e7 9c f0 3c
       -0.10547652 0.11313519 0.0011226137 0.029371692
0002d0 88 b8 95 bd d9 54 4d 3c 2c 68 9d 3d 5e 7a 85 bc
       -0.07310587 0.012532436 0.07685885 -0.0162937
0002e0 63 c6 0f bd d3 e4 d7 bd 33 ed c0 bd da a7 ab 3d
       -0.035101306 -0.10541692 -0.09420242 0.083816245
0002f0 31 cd 31 3d d5 6c c2 3d 2d 73 81 3d c5 44 93 bd
       0.043408576 0.09493414 0.06320796 -0.07190851
000300 dc fe 86 3d aa d4 01 bd e0 07 aa 3d 76 da c4 bd
       0.06591579 -0.031696953 0.08302283 -0.096119806
000310 88 86 0d bd b1 3e 7b bd 7a a9 dd 3c b7 99 29 3d
       -0.034552127 -0.061339084 0.027058352 0.04140636
000320 29 33 46 3d 68 45 48 3e 73 80 73 bd 33 26 d7 3c
       0.048388634 0.19557726 -0.05944867 0.026263332
000330 6f 6a cc bc 50 35 26 bd f5 41 8c 3c 4a f6 2c be
       -0.024953095 -0.040578187 0.017121295 -0.16890827
000340 1e 44 52 bc f7 62 26 be f8 89 bc 3c b1 62 01 3d
       -0.012833623 -0.1624869 0.023015007 0.03158826
000350 b3 08 13 be 65 56 05 be fc 8a 7e 3d 0a 7d 03 3d
       -0.14358787 -0.13021238 0.062144265 0.03210167
000360 7c 42 b4 bc c0 6c 1b be df ca 40 bc 8f ef fa 3c
       -0.022004358 -0.15178204 -0.011767118 0.030631809
000370 68 87 4a 3d f2 94 8c bd 76 c6 0b be 43 59 25 3e
       0.04944554 -0.068643466 -0.13649926 0.16147332
000380 da 56 d9 bd 0e ae 0d bc 45 1e 5e be d0 a2 b9 3d
       -0.10612269 -0.008647455 -0.21691234 0.09064257
000390 5a df 28 3e f4 c9 ba 3c 04 bc 8b 3c e6 0e c3 bd
       0.16491452 0.022801377 0.017057426 -0.09524326
0003a0 d3 53 0f 3d 3d 61 32 3d 6d ee 17 bd 89 cc 53 3d
       0.03499205 0.043549765 -0.037092615 0.05170873
0003b0 6f 7c 59 3e bd 1a b2 bd bc 80 1a 3e 8b 39 d6 bc
       0.21238874 -0.08696506 0.15088171 -0.026150486
0003c0 81 1a 70 be b7 87 23 bd 56 ad 2c bd 7a ca 66 be
       -0.2344761 -0.03992435 -0.042157494 -0.22538176
0003d0 3b c0 8e 3d 5f 22 f4 bc 6b 0a 27 3b 20 c7 a8 3b
       0.06970259 -0.029801546 0.0025488387 0.0051506907
0003e0 37 9e 21 bd 20 16 b3 3c 12 3c de bd ca 5a ba bd
       -0.039457526 0.021861136 -0.10851301 -0.09099348
0003f0 d7 3d b4 3d 90 92 7f bc 33 44 62 bd cf 31 ec bd
       0.088008575 -0.015598908 -0.05524082 -0.11532938

f_layer.bias f4 [50]
000000 b4 14 0a be b8 ad eb 3c af c8 6b bd 0b ef 43 bd
       -0.1348446 0.028769359 -0.057564434 -0.04783539
000010 68 f5 ef 3d cd e0 17 bd 39 29 82 bc 26 4f 8e bd
       0.117167294 -0.03707962 -0.015888797 -0.0694869
000020 c6 53 d6 3a 37 af 34 bc 93 a3 9f bc dc a2 a0 bc
       0.0016351871 -0.011028103 -0.019487178 -0.019608907
000030 cc 37 cb bd c2 92 83 bd 9c b8 13 3d 11 06 d9 bc
       -0.09922752 -0.06424476 0.03606473 -0.02649215
000040 5e 77 b8 bc 59 6a cf bd f7 4a f6 bd 44 e2 80 bc
       -0.022517856 -0.10127706 -0.12026017 -0.015732892
000050 56 59 48 bd d9 6f 6e 3d e9 54 c7 39 e1 54 40 3d
       -0.048913322 0.058212135 0.000380195 0.046955947
000060 f4 43 94 3c c2 d7 f5 3b a4 cb 19 3c 53 71 9a bd
       0.018098809 0.007502527 0.009386931 -0.07541146
000070 51 29 4d 3d 2f 10 71 3d 88 81 6f bc d0 7b 62 bc
       0.05008823 0.058853325 -0.014618285 -0.0138234645
000080 54 5f 3b bd c0 66 d0 3c 3f 8b fc bc 02 d0 39 3c
       -0.04574521 0.02543962 -0.030828116 0.011341097
000090 c6 be ea bc 62 27 40 3d b9 e8 6a 3d 36 23 29 bd
       -0.028655421 0.04691256 0.057350848 -0.041293345
0000a0 bd 57 ef bc 4f 01 a4 3b 1c 93 21 bc 79 a6 a3 bb
       -0.029216642 0.005005039 -0.009861734 -0.0049942103
0000b0 42 ae a9 3c ce 69 e7 bd a7 5c 82 3d 75 fd 1e bd
       0.020712975 -0.112994775 0.06365328 -0.038815934
0000c0 50 54 ce bb 00 31 de 3c
       -0.006296672 0.027122974

p_layer.weight f4 [1, 50]
000000 6f 65 fb bd 6b 73 da 3c 70 a8 98 bd f1 a2 b9 3d
       -0.12275206 0.026666364 -0.07454002 0.09064282
000010 88 18 92 3d f7 e5 46 3e 35 e9 f6 bd 86 61 39 be
       0.07133585 0.19423662 -0.120561995 -0.18103608
000020 1c ff ef 3d ff a5 9d 3d 59 0e 4b be f0 69 1d 3c
       0.1171858 0.07697677 -0.19829692 0.009607777
000030 f4 9d 30 be ac f8 18 bd 98 05 d7 bd 85 a5 8b 3d
       -0.17247754 -0.037346527 -0.10499114 0.0681868
000040 7e 9d 12 3e 65 5d 50 be f5 5b c4 bd 3d 5a 14 be
       0.14317891 -0.20348127 -0.09587852 -0.14487548
000050 04 1e 17 be 57 62 03 be 39 e1 2f 3e eb 4a 2a be
       -0.14757544 -0.12830482 0.1717576 -0.16630141
000060 9f 15 29 3e 46 56 96 bd f7 fa fb 3d 18 ea 06 be
       0.16512154 -0.07340674 0.12303727 -0.13175237
000070 82 8f e7 bd 62 42 d9 bd 67 b5 f7 3d 74 a4 10 be
       -0.11306669 -0.10608365 0.120951466 -0.14125234
000080 58 04 24 3e fe 04 0c be 5c d5 ef 3c ff ab 2f be
       0.16017282 -0.1367378 0.029276542 -0.17155455
000090 a7 f6 f8 bd d3 7b b2 bd e5 c0 aa bd de d7 58 bd
       -0.1215642 -0.08715024 -0.08337573 -0.052940242
0000a0 7c 49 2a 3c d0 46 bb 3d 64 d5 04 3e 9c 6a d3 bd
       0.010393497 0.09144366 0.12972027 -0.103230685
0000b0 f2 a9 45 3e 16 a0 bc bd 3b 7c fa 3d 09 4a cd 3d
       0.1930311 -0.092102215 0.12230726 0.10023887
0000c0 d1 0e b5 3d 40 f1 26 be
       0.08840717 -0.16302967

e_layer.weight f4 [50, 50]
000000 71 aa 06 3e f8 c5 43 be f6 de 0e 3e 52 b2 7f 3c
       0.13150956 -0.19118488 0.1395224 0.01560648
000010 ec f5 c6 3d f7 1d 64 be c2 fa a8 bd 54 a2 83 3e
       0.097148746 -0.22277056 -0.08250953 0.25709784
000020 25 fc 90 3d 63 34 06 3e 2d 9d 5b ba 83 d0 9a bd
       0.07079343 0.13105921 -0.0008377608 -0.07559302
000030 27 dc 63 3d c2 b6 92 3e 6b 65 07 3e 26 9e 0a be
       0.055629876 0.28655058 0.13222282 -0.13536891
000040 16 a8 53 be 5b 76 d3 3c 64 ff 58 be e6 7e 9a 3d
       -0.20669588 0.025813272 -0.21191174 0.07543735
000050 4d 0d 8b bb 1b 8a d2 bc 6c d6 74 be 7f ad 1c be
       -0.004243529 -0.02570062 -0.2390992 -0.15300559
000060 e2 b9 36 3c 51 d6 87 3d b2 35 6a bd 5c 3b c8 3b
       0.011152716 0.066326745 -0.057180114 0.006110592
000070 f3 61 cb bb 16 44 44 be c1 63 86 bd f5 2d 98 bc
       -0.006206745 -0.19166598 -0.06561995 -0.018576602
000080 cb e1 32 bd 6f 19 a7 3d 58 0f 3b 3d f0 6d f0 bd
       -0.043672364 0.08159148 0.04566893 -0.11739719
000090 56 80 32 be 09 98 81 3e f6 93 39 3c fd b5 6c 3e
       -0.17431769 0.25311306 0.011326781 0.23116298
0000a0 36 00 a4 be 83 7a 60 3d a4 c2 9d bd 28 62 48 bd
       -0.3203141 0.054804336 -0.077031404 -0.048921734
0000b0 42 d9 2b 3e 71 f5 7a be 7c 11 6b be a0 61 84 3e
       0.16782096 -0.24507691 -0.22955889 0.25855732
0000c0 fa 39 1b be 25 e0 df 3d f3 a6 bf 3d 8f 68 66 bd
       -0.15158835 0.10931424 0.09358015 -0.05625206
0000d0 a2 c1 c8 bd 22 41 c0 bd 72 8a 30 bd 61 ea 87 bd
       -0.098025575 -0.09387423 -0.04310078 -0.06636501
0000e0 98 f8 d2 3d 0f ff 55 bd b9 5d 51 bd ab 51 36 3c
       0.10301322 -0.052245196 -0.05111477 0.01112787
0000f0 a4 bc cc 3c 12 4f 38 3c e7 5e f0 3c 9d ac 60 bd
       0.024992295 0.011249321 0.029342128 -0.054852117
000100 10 e8 61 3d dd d2 19 3d a6 bb 8f 3d 24 22 25 3e
       0.055152953 0.03755461 0.07018213 0.16126305
000110 84 c7 14 be b1 07 7c 3e 63 03 25 3e 7d 25 c9 3d
       -0.14529234 0.24612309 0.16114573 0.098216034
000120 7c e9 e4 3d dd 14 13 3d f3 e6 9c bd 01 08 22 3e
       0.11177346 0.03590857 -0.076612376 0.15823366
000130 7e f7 c7 bc 47 33 98 bd f8 57 b5 bc ca 5b 78 bc
       -0.024410006 -0.074316554 -0.022136673 -0.015158603
000140 d3 a3 8b 3c 8f a5 87 bd f4 9a 5d bd 79 e5 cc 3a
       0.01704589 -0.06623375 -0.054102853 0.0015632353
000150 ad 0d b2 bd 99 f9 16 be b4 5c 5b 3c 21 c3 33 bd
       -0.08694015 -0.14743651 0.013388801 -0.04388726
000160 bd be 37 bd f0 bc b9 3d 22 78 c2 bb d3 6c 07 3e
       -0.044859637 0.0906924 -0.005934731 0.13225107
000170 fe 05 b9 3d 20 d7 f2 bd d7 50 bf bd 68 30 9c 3d
       0.09034346 -0.11857438 -0.09341591 0.0762642
000180 46 e8 96 3e e6 e8 bf bd 65 55 dc 3b da d6 30 bd
       0.29474086 -0.09370594 0.006724047 -0.04317365
000190 e9 3e 0e bd e4 a8 41 3e 94 82 75 be 1e 17 1e 3d
       -0.034727965 0.18912083 -0.23975593 0.038596265
0001a0 af a4 8a be ac 8e 42 3d 3b bc c1 3d ca a7 c9 bd
       -0.2707877 0.047499344 0.0945973 -0.09846456
0001b0 23 13 0d 3e 0a d9 f5 bd 41 0b 09 3e 5e 0c 6f bd
       0.13776831 -0.120042875 0.133832 -0.058361404
0001c0 42 43 49 3c d7 4c fe bd 45 68 47 bd 77 22 41 3c
       0.012284102 -0.12417 -0.048683424 0.011788002
0001d0 22 55 d9 3d 60 fb c1 bd 22 85 de bc c7 1b 6b 3e
       0.10611941 -0.09471774 -0.027163092 0.22959815
0001e0 a1 8b 4c be a8 d3 ac 3d 65 31 9d bd 2b 29 d7 3d
       -0.19975139 0.08438808 -0.07675437 0.10505899
0001f0 7b 74 ee bd 11 ee 01 3e 3a d7 3c bc 3b 82 5f bd
       -0.11643311 0.12688471 -0.011525923 -0.054567557
000200 e7 08 39 be c0 88 0f be 4b 54 22 3d 48 15 1d bd
       -0.18069802 -0.1401701 0.03963117 -0.038350374
000210 3e 3c 1d 3e 1a 07 9f 3d 3e e8 ff bd 8b 90 29 bd
       0.15355012 0.077650264 -0.124954686 -0.041397613
000220 74 e2 22 3e be de 19 be de 5f db 3c 03 1a e8 bd
       0.15906698 -0.15026376 0.026779111 -0.11333086
000230 86 86 07 be 00 ee 04 bd 68 9a 72 3e 81 16 26 3c
       -0.1323491 -0.032453537 0.23691714 0.010137201
000240 3c 73 59 bc 69 b5 12 3e 99 0a 27 3e c0 56 0f be
       -0.013272103 0.14327015 0.16312636 -0.13997936
000250 23 59 6c 3d dc 6a 69 3d 8d cf 46 bc 46 b4 44 bc
       0.057702195 0.056986675 -0.012134445 -0.012005871
000260 72 26 81 3d bf e6 f8 bd 67 b5 13 3e cd d7 c8 3d
       0.06306161 -0.12153386 0.14424668 0.09806786
000270 38 fd ff bd 9d 4e 59 be 70 ae 31 bb c5 dd 40 be
       -0.124994695 -0.21221395 -0.002711203 -0.18834598
000280 d1 9b cb 3d ae b5 a0 bd 96 2d 95 3d 0f d2 37 3c
       0.09941829 -0.07847153 0.072840855 0.011219515
000290 71 0d 98 3b f3 5b 79 3c 71 b6 32 bd 2c f1 f8 3c
       0.004640274 0.015219676 -0.04363102 0.030388437
0002a0 12 f1 5a 3d ab 48 ca bc 07 48 3f 3e f3 98 99 3b
       0.05345256 -0.024692854 0.1867982 0.0046874224
0002b0 59 b1 49 3c 40 d0 cc 3c e4 07 06 be 5d 7b d8 3c
       0.012310349 0.025001645 -0.13088948 0.026426012
0002c0 fd 33 0d be 7f 4b 8e bc 32 37 0f be 3f 89 16 3d
       -0.13789363 -0.017369984 -0.13985899 0.03675198
0002d0 22 4b a4 38 6a 0c 62 be 61 b5 75 3e 31 32 80 3d
       7.834124e-05 -0.22075048 0.23994972 0.06259573
0002e0 8c a6 7a 3d 49 f5 eb bc 4b a9 bc bd ab cd 76 bd
       0.061193988 -0.028803485 -0.092119776 -0.060254734
0002f0 a5 24 79 bc 15 f5 2d 3e 98 2a ec 3d be b9 90 bd
       -0.015206491 0.16988023 0.115315616 -0.070666775
000300 30 10 c8 bd 9f 1f 2b bd d6 71 66 3d 2c fe 3a 3d
       -0.097687125 -0.041778203 0.056260906 0.045652553
000310 0a e5 9a bd 74 80 17 3e 74 9e 02 3d 37 5e 1b bd
       -0.07563217 0.14795095 0.031889394 -0.037931647
000320 bc e6 c7 bd e6 98 99 bd 16 8c db bd 58 4d af 3c
       -0.09760806 -0.07499866 -0.10720079 0.021399185
000330 15 b4 8d bc db 9e bc 3c bc 6e 65 3c d9 b8 ff bd
       -0.017297784 0.023024967 0.014003452 -0.12486429
000340 ae 0f 21 3e 67 6d 85 be d7 fc 20 3e ff 8c e8 bd
       0.15728638 -0.2606003 0.15721451 -0.11355018
000350 25 dd eb 3d 75 9b 1f 3e 0a 08 75 3e ed 6f 16 3e
       0.11516789 0.15586646 0.23928848 0.14691134
000360 81 06 f3 bc dd 68 61 3d 38 22 24 be 6d e2 e1 bc
       -0.029666187 0.055031646 -0.16028678 -0.027573789
000370 c5 12 79 bd 84 6d 87 3d e0 bb 6a bd be 0e e4 bd
       -0.060808916 0.06612685 -0.057308078 -0.11135624
000380 74 07 69 3e ab de 4b 3d 57 53 0a 3d 61 dd 6e 3e
       0.2275675 0.0497729 0.033770885 0.23326637
000390 2f 60 28 3e 21 98 93 bd e4 e5 e6 bd 4f 8c 1a be
       0.16442941 -0.07206751 -0.11274317 -0.15092586
0003a0 31 4e 77 bc 90 4b 8a bd 0a ff 9a bc 09 54 32 3d
       -0.015094326 -0.06752694 -0.01892044 0.043537173
0003b0 83 66 b9 3d 40 20 da 3d 26 56 6f 3e bb 56 1f be
       0.09052756 0.106506824 0.23372707 -0.15560429
0003c0 a8 39 4f be 90 25 2f be d0 7d 88 be fb 0a 92 be
       -0.20236838 -0.17104173 -0.26658487 -0.28524002
0003d0 15 7e 22 3e 2f 78 9a 3d 19 f5 16 3e 27 2e cb 3c
       0.15868409 0.075424545 0.14741935 0.02480228
0003e0 ef 3b d6 3d 29 91 1a 3e 12 83 43 3c a5 fe 3d bd
       0.1046065 0.15094437 0.011933105 -0.046385426
0003f0 d5 b2 86 3d 51 8e de bc d1 ca 9d 3e 28 45 00 3e
       0.06577078 -0.027167471 0.308188 0.12526381

e_layer.bias f4 [50]
000000 b5 49 51 be 09 20 33 bd b2 ad 25 3e e1 5a 36 3d
       -0.20438273 -0.043731723 0.16179541 0.044520263
000010 fc ea a8 bc 9d b3 b2 3b be 6d 73 3d 46 5b 68 3d
       -0.020619862 0.0054535405 0.05943083 0.05672767
000020 9b a1 e1 3d e9 ba a0 3e c8 49 5e 3e 86 5b 06 3e
       0.11017152 0.313926 0.21707833 0.13120851
000030 8d 3c fc bc 47 8e ed bd fd 2b 88 be 66 65 2b 3e
       -0.030790592 -0.11599403 -0.2659606 0.16737899
000040 da b3 92 bd e2 35 ff 3d 0d 6e e0 bd 7e 96 3c 3e
       -0.0716321 0.12461449 -0.109584905 0.18416783
000050 b6 19 15 be 3e bc 31 3e 5d 9b 0e 3e 02 da ff 3c
       -0.14560589 0.17356965 0.13926454 0.031231884
000060 b8 65 d6 3c 22 a3 02 3e 82 80 2e bd a5 b5 b1 3d
       0.02617155 0.12757543 -0.042603023 0.08677224
000070 6e 02 77 bd dc 15 8a be 6d 7a 4d 3e 75 9b 26 bc
       -0.06030505 -0.26969802 0.20066233 -0.0101689
000080 3b c9 ce 3c c5 68 c7 3c 6c 26 1b 3e bd 9e e6 3d
       0.025242439 0.02434195 0.15151376 0.11260746
000090 ad d1 2b bd 11 b8 39 3e 3e 55 8f 3d 0f 92 68 3d
       -0.04194801 0.18136622 0.069986805 0.056779917
0000a0 b3 86 3f 3e 2c 0d 0d be 5e 44 01 3d e8 f5 66 3e
       0.18703727 -0.13774556 0.03155934 0.22554743
0000b0 5d 67 85 bd 17 f2 63 3e 6f 4f 87 bd 4f e5 08 be
       -0.065138556 0.22260319 -0.06606948 -0.13368724
0000c0 6c 35 4d bd cb 33 36 be
       -0.050099775 -0.17793195
