DeepModels/ckpts_precomputed/dkvmn/ASSIST2009/model.ckpt (torch, 113554 bytes, 11 tensors)

Mk f4 [20, 50]
0.1339277 -0.29198113 0.18440919 0.18359031 -0.18606639 -0.31367174 0.037839375 0.18245098
-0.20969109 -0.16493131 -0.12118355 0.29214108 -0.2654765 0.43364057 0.1205819 -0.12688133
-0.04259352 -0.05334348 0.10715765 -0.54375964 0.040027026 -0.094251975 -0.3226697 0.2616518
-0.057039935 0.29786417 -0.15260202 -0.13879146 0.109282896 -0.33664653 0.15791683 -0.06260404
0.2971787 0.09650875 0.044018615 0.2343895 0.33104593 0.06904255 -0.3716796 -0.35273448
-0.51638275 0.065374814 -0.105532035 -0.10816339 -0.01410584 -0.38043523 0.11193583 -0.08014107
-0.22754727 -0.2866709 0.11969336 0.0718653 0.21013382 0.12231845 0.32637638 -0.14112812
-0.057953138 0.37650412 -0.22002283 -0.23806866 0.26222673 0.07439085 0.22500376 0.37653548
0.23233552 -0.24297076 0.30950853 0.020629512 0.048793428 -0.06473118 -0.04301174 0.22472005
0.3007982 -0.59280616 -0.1356528 0.22250018 -0.1246933 0.088156216 -0.2769137 -0.40908948
-0.09299527 -0.063253775 0.31408474 0.28098288 0.3003753 -0.05291547 0.6187254 -0.17762192
0.037182786 -0.25869477 0.072118536 0.0015158971 0.22868314 -0.29881895 -0.22199899 0.11866036
-0.13359761 -0.15677798 -0.33177269 0.10062616 0.087432615 -0.029192517 -0.072966166 0.33343694
0.21158022 -0.06491211 -0.08488352 -0.12947552 0.29474804 0.013348731 0.0012176313 -0.22759733
0.31040275 0.07099381 0.041870084 -0.095074676 0.20064205 0.10610827 0.116173245 -0.21111116
0.05496285 -0.009955232 0.37780085 -0.36152312 -0.19420901 0.112289555 0.21168175 -0.21448648
-0.00287616 -0.1486737 0.16473314 -0.16270982 0.26013538 -0.25415173 -0.088522494 -0.21453212
0.0038422819 0.023932075 0.11067596 -0.0031760961 0.09916757 0.052580204 0.11514707 0.08959685
-0.1767806 0.19397502 0.21588674 0.048321407 0.028439514 -0.37720004 -0.17538407 -0.4601108
-0.22715686 -0.13629372 0.20446649 -0.13984993 0.26605266 -0.032155614 0.21104825 0.14557369
-0.15059459 -0.040160757 0.14584047 0.45301324 -0.03084436 0.17934403 -0.16625418 -0.10639771
-0.08736965 0.45534724 -0.22155136 -0.35698363 -0.12511487 0.003877363 -0.07874344 0.0061079655
-0.26200542 0.018363168 -0.2969419 -0.29902562 -0.036585845 -0.22990511 -0.1960624 0.22515218
0.12902498 -0.50080806 -0.03688853 -0.37045836 -0.30726323 -0.36936432 0.12966932 0.6414604
-0.36795104 0.07773988 0.1480631 -0.10252751 -0.33434936 0.1735143 -0.35246927 0.057609204
0.035011802 -0.32993406 -0.31810847 -0.31518123 -0.31848475 0.20680249 0.07978489 -0.23023883
-0.34494966 -0.25515997 -0.16245648 -0.07796011 -0.081390224 -0.40238371 -0.2439638 0.19595893
0.2001765 0.13455331 -0.45534635 -0.17069708 0.17455734 -0.6666228 -0.09993548 -0.20903578
0.26239088 -0.4282269 -0.11944117 -0.48184282 0.13391662 0.017725416 -0.07329173 0.1849907
0.14417899 0.24321944 0.18757334 0.032607578 -0.09808234 -0.5946519 -0.40783787 0.31901908
0.4064618 -0.2384604 -0.18967219 -0.12445251 -0.21824324 0.021712422 -0.046327613 -0.1383157
0.49519822 -0.06096885 -0.014058158 0.066247396 0.035126336 -0.022625295 0.30814677 -0.06338956
00000000: 5824 093e 8d7e 95be c3d5 3c3e 19ff 3b3e
00000010: 3088 3ebe 9599 a0be 76fd 1a3d 6ed4 3a3e
00000020: 43b9 56be c1e3 28be 152f f8bd 8493 953e
00000030: 89ec 87be 2306 de3e a5f3 f63d 2eed 01be
00000040: 8b76 2ebd b17e 5abd 7875 db3d d533 0bbf
00000050: 61f3 233d 2e07 c1bd f734 a5be 3af7 853e
00000060: b5a2 69bd a781 983e b443 1cbe 591f 0ebe
00000070: b6cf df3d ef5c acbe f3b4 213e 8c36 80bd
00000080: ce27 983e 61a6 c53d dd4c 343d cd03 703e
00000090: da7e a93e 2e66 8d3d ca4c bebe 9d99 b4be
000000a0: a931 04bf 3be3 853d 2e21 d8bd c484 ddbd
000000b0: 2e1c 67bc 68c8 c2be 9d3e e53d 0021 a4bd
000000c0: 2702 69be 87c6 92be cb21 f53d 1d2e 933d
000000d0: 522d 573e 1882 fa3d ce1a a73e e483 10be
000000e0: 4560 6dbd 26c5 c03e aa4d 61be 45c8 73be
000000f0: 9542 863e 3b5a 983d 6367 663e 42c9 c03e
00000100: 5de9 6d3e 54cd 78be e777 9e3e 39ff a83c
00000110: 9edb 473d c891 84bd 142d 30bd 031d 663e
00000120: 3902 9a3e 25c2 17bf 91e8 0abe 16d7 633e
00000130: 335f ffbd 3f8b b43d a2c7 8dbe 2d74 d1be
00000140: 4e74 bebd 328b 81bd b7cf a03e fddc 8f3e
00000150: cbca 993e e4bd 58bd ca64 1e3f 85e2 35be
00000160: fa4c 183d a473 84be e2b2 933d 11b1 c63a
00000170: ea2b 6a3e ccfe 98be b453 63be 3404 f33d
00000180: d0cd 08be 688a 20be 1cde a9be 1715 ce3d
00000190: df0f b33d 2525 efbc 496f 95bd 3fb8 aa3e
000001a0: 7ca8 583e a4f0 84bd 69d7 adbd 3b95 04be
000001b0: 37e9 963e a3b4 5a3c ed98 9f3a 460f 69be
000001c0: 1ced 9e3e 3465 913d f77f 2b3d 83b6 c2bd
000001d0: 1c75 4d3e 4b4f d93d 3dec ed3d 862d 58be
000001e0: ba20 613d 451b 23bc 1d6f c13e 8f19 b9be
000001f0: bade 46be 11f8 e53d 1ac3 583e 58a2 5bbe
00000200: f57d 3cbb eb3d 18be ceaf 283e 679d 26be
00000210: 7730 853e 2d20 82be 484b b5bd 4fae 5bbe
00000220: cbce 7b3b 330d c43c 14aa e23d 0d26 50bb
00000230: 5e18 cb3d 575e 573d 3ad2 eb3d 8e7e b73d
00000240: f905 35be 63a1 463e 6a11 5d3e abec 453d
00000250: fcf9 e83c 5d20 c1be e297 33be a593 ebbe
00000260: cf9b 68be 9590 0bbe aa5f 513e d234 0fbe
00000270: 0e38 883e 9bb5 03bd 081d 583e 4511 153e
00000280: 7835 1abe 9b7f 24bd 3457 153e 5af1 e73e
00000290: 50ad fcbc f6a5 373e 893e 2abe 0be7 d9bd
000002a0: dcee b2bd 4623 e93e 5cde 62be 8fc6 b6be
000002b0: 1d1e 00be 5b1b 7e3b 3e44 a1bd 5425 c83b
000002c0: 9325 86be 5b6e 963c c508 98be e319 99be
000002d0: 0adb 15bd 3f6c 6bbe 95c4 48be 4b8e 663e
000002e0: 201f 043e f534 00bf 6d18 17bd b8ac bdbe
000002f0: 9b51 9dbe 521d bdbe 09c8 043e c036 243f
00000300: 1464 bcbe 1636 9f3d da9d 173e f1f9 d1bd
00000310: d72f abbe bcad 313e da76 b4be a1f7 6b3d
00000320: 8968 0f3d 1eed a8be 1ddf a2be 6f5f a1be
00000330: 6f10 a3be 08c4 533e 4366 a33d bac3 6bbe
00000340: 3e9d b0be 54a4 82be fe5a 26be 8da9 9fbd
00000350: ebaf a6bd 3d05 cebe a5d1 79be 75a9 483e
00000360: 12fb 4c3e 58c8 093e 2823 e9be 37cb 2ebe
00000370: 29bf 323e cba7 2abf f9aa ccbd 7a0d 56be
00000380: 1958 863e 8e40 dbbe 929d f4bd 1ab4 f6be
00000390: 7021 093e e434 913c f919 96bd 346e 3d3e
000003a0: a8a3 133e 840e 793e 3a13 403e 868f 053d
000003b0: 65df c8bd 1b3b 18bf 20d0 d0be 7856 a33e
000003c0: c31b d03e f72e 74be 6d39 42be f5e0 febd
000003d0: 287b 5fbe 40de b13c 06c2 3dbd a2a2 0dbe
000003e0: 9f8a fd3e 79ba 79bd 3054 66bc b7ac 873d
000003f0: a2e0 0f3d af58 b9bc 6ac5 9d3e 63d2 81bd

Mv0 f4 [20, 50]
0.077655256 0.21552536 0.4565767 0.080755964 0.15345493 0.12063663 -0.14127925 -0.26644912
0.24202535 -0.097585194 -0.059725884 0.07626771 0.12554672 0.17868549 -0.050630253 0.18018776
-0.123273976 0.29216066 0.1882041 0.036190674 -0.18839265 0.10243689 -0.41874358 0.22408922
-0.02442422 -0.32960615 -0.19125807 -0.03589598 0.23508997 -0.09966349 -0.15340407 -0.06467499
-0.4428462 0.05629976 -0.06640071 0.2862548 0.09560085 -0.13613556 0.037700597 -0.38950458
0.16368483 -0.20021456 -0.04300386 -0.23293515 -0.43046233 -0.23943257 0.099643186 0.107273296
0.1321476 0.08501026 -0.1131527 0.007991699 -0.23260549 -0.00018081802 -0.36842462 0.16937312
-0.15940632 -0.015223677 0.3088646 0.35864723 -0.18269154 -0.34013882 -0.18662862 0.03203629
-0.30834857 0.10736068 -0.017410496 0.10076756 -0.06520999 -0.17409816 0.13860868 -0.10146038
-0.15783168 -0.13065168 0.018123962 0.37388417 -0.06340807 -0.17527999 0.09784417 0.2119349
-0.30596608 0.09522457 -5.3430827e-05 0.153775 -0.4720741 -0.042753052 0.0019099063 0.033578195
0.2562539 -0.30096102 -0.09424232 0.10216462 0.23411347 0.65442324 0.15450183 -0.10067459
0.06774551 0.37015966 0.053405657 0.12857386 0.28768608 0.025019886 0.094749846 0.06915486
-0.33160114 0.12902515 -0.1407017 0.027996907 -0.19107915 0.022281563 0.14499837 -0.27497146
-0.24214114 -0.24143481 0.30455762 -0.20056774 0.19035496 -0.3893533 0.13306625 0.17432977
-0.34201348 -0.50879866 -0.09907275 -0.016940631 0.13311854 0.095680945 0.49412858 -0.03664774
0.14797388 -0.5380211 0.2152641 -0.08405682 -0.03775482 0.27935532 -0.0031461848 -0.08535388
0.2177134 0.10236161 -0.0054068356 -0.23823175 -0.17914046 0.09007481 -0.078888305 0.30807197
0.11533135 -0.1310368 0.045796134 0.18738337 0.27506125 0.3338307 -0.30711883 -0.31026226
-0.46948028 -0.083430104 -0.2679605 -0.23012848 0.0701057 -0.084932394 -0.032758635 0.1181426
-0.19876076 0.18334904 -0.07565471 0.4242203 0.20756675 0.41900778 0.021522695 -0.2814746
-0.47217658 -0.0479203 0.2823111 0.027281977 0.14514954 -0.24506834 -0.12767045 -0.2324485
-0.016217124 0.055541735 -0.37382713 0.00047420018 0.0440778 -0.18594882 -0.004977832 0.10326854
0.14487608 0.3589029 -0.32394984 -0.0796317 0.17574292 0.1457063 -0.27412915 0.3143715
-0.022929741 -0.057767868 -0.22063294 0.051785342 0.20428684 0.0020810983 -0.2347098 -0.07730037
-0.31299043 -0.12406615 -0.26915327 -0.4022946 0.38608456 0.18437268 -0.083286725 -0.11620206
-0.29585573 -0.30843958 0.18788354 -0.0028591398 -0.31874937 0.16999409 0.39156634 0.22765218
-0.27856538 0.26233348 0.17373884 0.40221393 -0.107368164 0.19319612 0.33526027 0.19676389
-0.26263186 -0.43658063 0.0038471033 0.03239017 0.43167326 -0.2888116 -0.09953641 -0.39757335
0.26646027 0.59569854 -0.17854121 0.25910345 -0.28787923 -0.051730216 0.48461998 0.35972086
0.40513712 -0.22345302 0.50295526 0.21136619 0.11764282 0.19664076 -0.3198445 0.14770904
0.3106256 0.034493025 0.13042115 -0.07845975 -0.14003856 0.12895398 0.0485932 0.1838295
00000000: b809 9f3d aeb2 5c3e 6cc4 e93e 6263 a53d
00000010: 4a23 1d3e 5610 f73d 82ab 10be 056c 88be
00000020: 7ed5 773e bfda c7bd 21a3 74bd 3f32 9c3d
00000030: 528f 003e 54f9 363e ab61 4fbd 2483 383e
00000040: 1177 fcbd 1596 953e 93b8 403e ac3c 143d
00000050: 01ea 40be 6fca d13d 8f65 d6be a577 653e
00000060: 4d15 c8bc 23c2 a8be 28d9 43be aa07 13bd
00000070: 6dbb 703e 5f1c ccbd f515 1dbe 5274 84bd
00000080: bdbc e2be 949a 663d 18fd 87bd fd8f 923e
00000090: 61ca c33d 1f67 0bbe f16b 1a3d 256d c7be
000000a0: ff9c 273e 0c05 4dbe d124 30bd 8d86 6ebe
000000b0: 8f65 dcbe d02d 75be ba11 cc3d 1ab2 db3d
000000c0: b351 073e dc19 ae3d 9abc e7bd 9def 023c
000000d0: 2230 6ebe f899 3db9 27a2 bcbe 2670 2d3e
000000e0: 693b 23be bb6c 79bc 8023 9e3e 9ca0 b73e
000000f0: 7e13 3bbe ad26 aebe 931b 3fbe 7c38 033d
00000100: dddf 9dbe ebdf db3d 75a0 8ebc 395f ce3d
00000110: d18c 85bd ca46 32be 6fef 0d3e 76ca cfbd
00000120: a19e 21be 8ec9 05be b478 943c bf6d bf3e
00000130: 17dc 81bd 997c 33be 8662 c83d 7605 593e
00000140: 96a7 9cbe 1905 c33d ea1a 60b8 3277 1d3e
00000150: b2b3 f1be d31d 2fbd d255 fa3a 4a89 093d
00000160: b633 833e 9017 9abe 1e02 c1bd af3b d13d
00000170: 71bb 6f3e 4888 273f ba35 1e3e 7b2e cebd
00000180: 28be 8a3d 9185 bd3e e4bf 5a3d dea8 033e
00000190: 974b 933e 81f6 cc3c 350c c23d 10a1 8d3d
000001a0: a0c7 a9be 2b1f 043e 1b14 10be c559 e53c
000001b0: 41aa 43be d387 b63c 747a 143e 0fc9 8cbe
000001c0: d9f3 77be b03a 77be faee 9b3e a161 4dbe
000001d0: 69ec 423e 5159 c7be 8542 083e 8183 323e
000001e0: 641c afbe a140 02bf a7e6 cabd 14c7 8abc
000001f0: 3a50 083e 5ff4 c33d 6cfe fc3e f11b 16bd
00000200: 7786 173e c0bb 09bf 316e 5c3e fb25 acbd
00000210: cca4 1abd a907 8f3e 3930 4ebb 04ce aebd
00000220: 43f0 5e3e f7a2 d13d d32b b1bb 06f3 73be
00000230: 9970 37be 2479 b83d 3190 a1bd 9cbb 9d3e
00000240: d832 ec3d 832e 06be ba94 3b3d 6de1 3f3e
00000250: d4d4 8c3e dceb aa3e ae3e 9dbe b2da 9ebe
00000260: b85f f0be 67dd aabd 1e32 89be cda6 6bbe
00000270: 9493 8f3d 09f1 adbd eb2d 06bd bff4 f13d
00000280: f187 4bbe dabf 3b3e dbf0 9abd 6733 d93e
00000290: 618c 543e 3088 d63e 5d50 b03c 701d 90be
000002a0: 21c1 f1be 1448 44bd 158b 903e 747e df3c
000002b0: 15a2 143e 32f3 7abe 0bbc 02be fb06 6ebe
000002c0: c6d9 84bc bb7f 633d 4566 bfbe 129e f839
000002d0: ec8a 343d 5e69 3ebe 151d a3bb 757e d33d
000002e0: 655a 143e 1fc2 b73e c1dc a5be f215 a3bd
000002f0: f4f5 333e 0834 153e a85a 8cbe 4df5 a03e
00000300: 27d7 bbbc 009e 6cbd 9aed 61be de1c 543d
00000310: 9230 513e 0963 083b c457 70be a84f 9ebd
00000320: 4840 a0be 6516 febd 75ce 89be 8ff9 cdbe
00000330: e0ac c53e 31cc 3c3e 3b92 aabd 58fb edbd
00000340: 677a 97be cbeb 9dbe 8b64 403e 6860 3bbb
00000350: 1e33 a3be ee12 2e3e 627b c83e a71d 693e
00000360: 1fa0 8ebe 9350 863e 98e8 313e fcee cd3e
00000370: d7e3 dbbd 34d5 453e 3ca7 ab3e 797c 493e
00000380: af77 86be 7f87 dfbe af1f 7c3b 8eab 043d
00000390: 4704 dd3e 1ddf 93be bfd9 cbbd bc8e cbbe
000003a0: 7b6d 883e b37f 183f 82d3 36be 35a9 843e
000003b0: e864 93be 10e3 53bd 1c20 f83e 552d b83e
000003c0: 226e cf3e ded0 64be adc1 003f 6170 583e
000003d0: b8ee f03d 325c 493e a9c2 a3be 0a41 173e
000003e0: 520a 9f3e 8f48 0d3d 1f8d 053e 81af a0bd
000003f0: 4566 0fbe 830c 043e aa09 473d cd3d 3c3e

k_emb_layer.weight f4 [101, 50]
0.96294373 1.2107682 1.001726 1.3939157 -1.2858973 -1.4103715 -1.3902819 0.12165448
-1.2331729 0.26046553 -0.7802215 0.3348237 1.0164417 0.7346964 0.05614978 1.7792981
-0.5630991 -0.7664081 -0.6499736 0.16518208 1.2048538 -1.5053694 -1.1781614 0.5749742
-1.9480354 1.1462898 -1.3027045 -1.5302993 0.58734334 0.4339099 0.51097476 -0.3709388
-0.43365067 -1.0960041 -0.98105204 0.53793734 -0.37167758 0.48987237 -0.5413771 -0.5975443
1.0409101 -1.8701123 0.47627407 0.8900374 0.9827248 0.24496713 -1.2672763 0.34159553
1.5613176 0.62821144 1.3111674 1.7838955 -1.2366863 -1.2371361 0.38719666 0.5787728
-0.612745 1.6343031 -0.9915679 -0.07487118 1.6111724 0.72750056 -0.43892705 -0.087249935
0.5156542 -0.5746925 -0.9339131 1.4571917 0.4712211 -1.0924219 1.2683465 -1.4870539
-2.063996 0.14399116 0.45641646 1.312362 0.7519717 -0.112437665 -0.91976607 0.8216214
0.054028533 -0.3588783 0.9665637 1.1398903 -0.17410532 0.24432194 -1.0829626 0.31831217
-0.72521013 -0.21333373 1.1630399 -0.6141669 -2.24192 -1.2046345 0.4653213 -0.4674367
0.6633604 -0.9476779 -0.48904827 -1.8110709 0.22688283 -2.1381361 -0.86844766 0.6059745
-0.009830869 0.19784929 -1.2386006 -1.1331747 -0.58165 -0.6521931 -0.84146154 0.67355347
-2.2787058 0.83026886 0.82748574 -2.458661 -1.0699599 -0.6616115 1.5018529 -0.42977569
0.119080864 -0.46613702 -0.97078985 -0.098143496 -1.4626495 0.7338964 -0.31424698 1.0578085
-1.1097065 -1.277254 2.7821035 -0.56573063 0.17799917 -0.4046304 -0.9864149 0.025911076
0.74272114 -1.121277 0.43260396 0.24934623 -2.1028674 -0.30667144 0.6588495 -0.7901042
0.44931135 0.1717131 1.5127982 0.4926616 -1.3677622 1.3467369 0.1725385 0.10742028
-0.07950924 -0.1377959 -0.7523001 -0.18054627 -0.976541 0.14213984 -0.26637486 -0.7163812
-2.0881968 -0.6505928 -2.2319462 -0.05457979 -2.4708848 -0.49334255 0.7456337 0.51442206
0.39120308 0.19073646 -1.2340719 0.59066683 0.67816603 1.922525 0.27349344 -0.04347037
-0.5832506 1.0077657 0.14545958 0.13951297 0.280057 0.9586468 0.72022086 -0.0099176355
-1.1161743 0.88554317 0.89198446 1.4407849 -1.2286 0.14732778 -0.7164534 1.2853764
-1.0410849 0.66764694 -0.18170965 -0.31860957 1.3678665 1.9698076 0.94986165 0.008684983
-0.36409295 -2.6640065 0.68925047 -0.22014552 -0.280098 0.9113585 -1.3661269 0.5504628
0.783154 -0.43904877 0.123441145 -0.771717 -0.15798572 0.44539785 1.2424188 0.0071369824
-2.382547 -0.32903877 -0.9744499 -0.7466704 -0.5004334 0.11643939 -0.5754504 1.1192402
1.8891273 0.6076734 -0.5919727 -0.65668464 0.054923166 1.1126245 0.5811049 -0.4102608
-1.0910839 -1.0297195 -0.43312874 0.8315048 0.45367488 1.0233755 0.30568036 -1.9654678
0.8523301 0.3801991 -0.2521509 -0.92662567 -0.68621397 -0.34439293 1.6120886 -1.0620158
1.1106818 -0.34993047 0.7913153 -0.58121 0.71189356 -0.4461632 -0.50209236 1.4236424
00000000: 7b83 763f 74fa 9a3f 8f38 803f d46b b23f
00000010: 4898 a4bf 0e87 b4bf c2f4 b1bf fc25 f93d
00000020: 9cd8 9dbf bd5b 853e 99bc 47bf 036e ab3e
00000030: c31a 823f 1015 3c3f 50fd 653d 0ac0 e33f
00000040: 4327 10bf 5233 44bf ab64 26bf 7e25 293e
00000050: a638 9a3f f2af c0bf fecd 96bf 8231 133f
00000060: 3959 f9bf a0b9 923f 05bf a6bf d9e0 c3bf
00000070: 225c 163f 7029 de3e 3ecf 023f b1eb bdbe
00000080: 7607 debe dd49 8cbf 3a26 7bbf 43b6 093f
00000090: 864c bebe 8dd0 fa3e b197 0abf aaf8 18bf
000000a0: 8b3c 853f d75f efbf 32da f33e 7ed9 633f
000000b0: da93 7b3f aad8 7a3e 1c36 a2bf 9ce5 ae3e
000000c0: 41d9 c73f 77d2 203f 55d4 a73f b056 e43f
000000d0: bd4b 9ebf 7a5a 9ebf a43e c63e 742a 143f
000000e0: dbdc 1cbf d830 d13f 65d7 7dbf 1056 99bd
000000f0: e63a ce3f 7a3d 3a3f 0cbb e0be 18b0 b2bd
00000100: ea01 043f 0c1f 13bf ee14 6fbf 4285 ba3f
00000110: e443 f13e 7bd4 8bbf 2e59 a23f c857 bebf
00000120: 8318 04c0 6b72 133e 6baf e93e 7afb a73f
00000130: 3881 403f b845 e6bd ca75 6bbf c855 523f
00000140: 064d 5d3d e6be b7be b870 773f ede7 913f
00000150: aa48 32be 882f 7a3e 859e 8abf d0f9 a23e
00000160: 5fa7 39bf 2874 5abe 7ede 943f 0b3a 1dbf
00000170: 9e7b 0fc0 7731 9abf 983e ee3e dd53 efbe
00000180: fdd1 293f 059b 72bf 8964 fabe 2cd1 e7bf
00000190: f953 683e 39d7 08c0 9652 5ebf 2521 1b3f
000001a0: a711 21bc 0199 4a3e 778a 9ebf de0b 91bf
000001b0: 04e7 14bf 21f6 26bf 066a 57bf 006e 2c3f
000001c0: 51d6 11c0 808c 543f 1bd6 533f b45a 1dc0
000001d0: 72f4 88bf 5f5f 29bf b73c c03f 8f0b dcbe
000001e0: abe0 f33d 83a9 eebe af85 78bf 75ff c8bd
000001f0: 1938 bbbf a2e0 3b3f fbe4 a0be 4566 873f
00000200: dd0a 8ebf 0f7d a3bf fc0d 3240 b9d3 10bf
00000210: 6a45 363e b72b cfbe b085 7cbf 7743 d43c
00000220: f922 3e3f 0186 8fbf 447e dd3e 9e54 7f3e
00000230: 6195 06c0 0a04 9dbe 5caa 283f 4544 4abf
00000240: 230c e63e 8fd5 2f3e 5fa3 c13f 243e fc3e
00000250: d512 afbf e061 ac3f efad 303e 2aff db3d
00000260: bed5 a2bd 5e1a 0dbe bd96 40bf 1fe1 38be
00000270: 97fe 79bf 1b8d 113e 4962 88be c264 37bf
00000280: 04a5 05c0 408d 26bf 35d8 0ec0 0f8f 5fbd
00000290: fa22 1ec0 6597 fcbe dae1 3e3f 2ab1 033f
000002a0: c54b c83e 6b50 433e 11f6 9dbf f135 173f
000002b0: 4a9c 2d3f 4d15 f63f 5507 8c3e fd0d 32bd
000002c0: e94f 15bf 77fe 803f 5bf3 143e 7ddc 0e3e
000002d0: a263 8f3e e069 753f 6560 383f 947d 22bc
000002e0: cdde 8ebf f5b2 623f 1859 643f a46b b83f
000002f0: c442 9dbf 18dd 163e 7d69 37bf 3787 a43f
00000300: 4542 85bf e9ea 2a3f 1812 3abe cb20 a3be
00000310: 4016 af3f a822 fc3f 222a 733f 754b 0e3c
00000320: 646a babe 157f 2ac0 b872 303f d46d 61be
00000330: 0169 8fbe ca4e 693f 3fdd aebf 21eb 0c3f
00000340: c87c 483f 00cb e0be b6ce fc3d 3f8f 45bf
00000350: 02c7 21be 300b e43e 9407 9f3f 59dd e93b
00000360: a67b 18c0 c577 a8be 8c75 79bf cb25 3fbf
00000370: 671c 00bf c677 ee3d b850 13bf 4343 8f3f
00000380: ecce f13f 7c90 1b3f 868b 17bf 7c1c 28bf
00000390: 1df7 603d 7b6a 8e3f 4ac3 143f b40d d2be
000003a0: a3a8 8bbf d9cd 83bf 0dc3 ddbe 80dd 543f
000003b0: 1348 e83e f8fd 823f 2382 9c3e 7394 fbbf
000003c0: 4e32 5a3f 75a9 c23e ec19 81be 5737 6dbf
000003d0: b8ab 2fbf 4554 b0be eb58 ce3f 22f0 87bf
000003e0: d22a 8e3f 162a b3be a493 4a3f 2eca 14bf
000003f0: a83e 363f 816f e4be 2089 00bf ea39 b63f

v_emb_layer.weight f4 [202, 50]
-2.060969 -0.09983 -2.148685 -0.4534281 -0.556726 -0.5375965 -0.16103674 -0.5030856
0.061796267 0.29406363 -3.973996 -0.3630401 -0.1597773 -0.47011966 0.18318732 -1.401808
-0.5341092 0.5224866 -1.2900294 -0.8520147 0.43075216 -0.25815985 1.077781 -1.0687844
-0.8150587 0.35114565 -1.0986816 -0.061143003 -0.08430592 -0.56454057 -0.3757382 -1.065386
-0.09450762 -0.77125335 -0.28857476 -1.485168 1.0551348 -1.2384255 0.5195753 0.8249232
-0.3371045 1.5900959 0.17856888 1.2602602 -0.14370066 -0.46972156 0.88076836 1.1240649
-0.019330775 0.096600145 -0.9853427 -1.8233118 0.64463687 0.16694793 0.38396773 0.32120213
0.12278523 0.8502444 -0.682561 -0.28540185 0.5782369 -0.9520007 0.99776614 -1.5758116
-0.087352104 1.6903703 -1.955877 -0.8811954 -0.20481402 -0.822201 -0.14467965 0.129356
-0.14237967 -0.5716528 0.36470464 1.2606916 0.5415202 -0.18985076 0.039162055 1.3626939
-1.3806043 -0.3842166 2.0447042 1.3958826 0.83602995 0.9318157 -0.8853846 -0.39282718
-0.71779776 -0.8737511 -0.4575548 -0.4993083 0.5281358 0.23399985 -0.60426587 -0.13484706
0.7582052 2.0613303 0.4156879 -0.52134365 0.5039105 -1.005348 0.9272548 -0.4711182
1.0403107 -0.6748489 0.7241972 0.31021538 0.7292825 -0.8309895 -1.1813952 -1.0329012
0.42457172 -0.7525048 -0.2297677 -0.030403418 0.97650373 1.3267783 0.56423885 0.38052052
-0.26134676 0.06440973 1.0070653 0.449321 -0.996567 -0.66663533 -1.1456434 0.5098903
-0.8989379 -0.7215676 -0.70983785 -0.49358237 -1.4074812 1.6626513 0.68218917 -1.1560143
-0.6207606 0.59288466 -0.3425454 -0.2820408 2.0801072 -0.3588152 1.1762612 -0.3809537
1.2120398 -0.53603405 0.90348667 -1.5959009 0.36115694 -0.24615896 0.5747605 1.882052
-0.0800195 0.3669731 -1.7701991 -0.49746802 1.9240892 0.52958363 0.38740805 0.013199216
-0.029431807 0.4433178 -0.9717603 -0.09287478 -1.007578 -0.18470988 -0.4550135 0.2443744
1.4975916 1.6992444 0.04565478 -1.5071527 1.262008 0.90557754 0.93234646 -0.7614143
-0.34904093 1.2400006 0.21142133 0.11133913 -1.1286829 -1.1669661 1.0607294 -0.25973707
-0.5387874 0.56386703 -0.9794163 0.7682198 -0.9278999 1.1325371 1.9178843 -0.75772077
-1.0038632 1.2959323 -0.80550784 2.2619243 -0.122349426 -1.3127469 0.09030575 0.38194814
-0.9268041 -0.37028247 1.5932107 -0.6455025 0.5891554 0.2820869 0.4157865 2.6077535
0.8193424 -0.3324201 -0.61884266 0.6634309 1.7826526 -2.240955 0.031238686 -1.0532743
-0.13570315 -0.509842 -0.8243835 -0.36194354 0.8289683 -0.038574755 -1.7875342 1.3627578
2.020133 0.28835535 -1.0691428 -2.4141173 0.5183636 -1.4974107 -1.3289667 -0.64522517
-0.91854674 0.74847597 -1.5782967 -1.1039485 -1.5367903 0.3312896 0.7005703 0.6462278
0.20597014 -0.43836856 -1.367241 -1.2962164 -0.24207394 -0.58741844 -0.23413327 -0.32838514
-0.7498496 1.1295712 -0.30519563 -0.83821636 1.0975163 -0.40537784 -1.4449866 0.37529194
00000000: ebe6 03c0 ac73 ccbd 0e84 09c0 ba27 e8be
00000010: 9885 0ebf ed9f 09bf d1e6 24be 38ca 00bf
00000020: 151e 7d3d 828f 963e f355 7ec0 64e0 b9be
00000030: a99c 23be 86b3 f0be 7595 3b3e 726e b3bf
00000040: 61bb 08bf afc1 053f af1f a5bf a31d 5abf
00000050: 8c8b dc3e 872d 84be baf4 893f edcd 88bf
00000060: b0a7 50bf 5dc9 b33e 99a1 8cbf 1671 7abd
00000070: 95a8 acbd bb85 10bf c260 c0be 925e 88bf
00000080: 368d c1bd dc70 45bf 12c0 93be fc19 bebf
00000090: a80e 873f ba84 9ebf e302 053f 2b2e 533f
000000a0: f698 acbe 4388 cb3f c3da 363e 3550 a13f
000000b0: 4426 13be 587f f0be 097a 613f 5ce1 8f3f
000000c0: 935b 9ebc 4cd6 c53d 6b3f 7cbf 4862 e9bf
000000d0: ec06 253f 66f4 2a3e 6b97 c43e 9b74 a43e
000000e0: d376 fb3d 9ea9 593f 51bc 2ebf 3120 92be
000000f0: 5507 143f 51b6 73bf 9a6d 7f3f 32b4 c9bf
00000100: a9e5 b2bd 0e5e d83f 2d5a fabf 0696 61bf
00000110: c4ba 51be c47b 52bf e726 14be e675 043e
00000120: facb 11be d757 12bf 91ba ba3e 585e a13f
00000130: 11a1 0a3f 3d68 42be 6468 203d c16c ae3f
00000140: a4b7 b0bf 0ab8 c4be 6fdc 0240 48ac b23f
00000150: 0f06 563f 798b 6e3f 91a8 62bf a520 c9be
00000160: 98c1 37bf 27ae 5fbf 9f44 eabe 56a5 ffbe
00000170: e833 073f a89d 6f3e 2bb1 1abf 5915 0abe
00000180: bc19 423f d6ec 0340 0bd5 d43e c776 05bf
00000190: 4700 013f 3eaf 80bf 9260 6d3f 6836 f1be
000001a0: e728 853f e6c2 2cbf fd64 393f 8dd4 9e3e
000001b0: 42b2 3a3f babb 54bf f537 97bf 1b36 84bf
000001c0: 7761 d93e 28a4 40bf 3948 6bbe 9710 f9bc
000001d0: 26fc 793f dfd3 a93f f571 103f 96d3 c23e
000001e0: 3ecf 85be 40e9 833d 84e7 803f 670d e63e
000001f0: 041f 7fbf 9da8 2abf 71a4 92bf 2c88 023f
00000200: cb20 66bf a7b8 38bf efb7 35bf d4b6 fcbe
00000210: 5828 b4bf c2d1 d43f f3a3 2e3f 47f8 93bf
00000220: 2bea 1ebf 4ac7 173f 1c62 afbe a767 90be
00000230: 7a20 0540 a0b6 b7be ba8f 963f 5d0c c3be
00000240: 1f24 9b3f 8739 09bf e74a 673f 7b46 ccbf
00000250: 90e9 b83e 1811 7cbe 8123 133f 14e7 f03f
00000260: 43e1 a3bd e6e3 bb3e e295 e2bf 21b4 febe
00000270: 8e48 f63f cb92 073f 595a c63e 8641 583c
00000280: f91a f1bc 8dfa e23e 48c5 78bf 2235 bebd
00000290: 51f8 80bf 9624 3dbe 88f7 e8be 483d 7a3e
000002a0: 15b1 bf3f d780 d93f 8200 3b3d 61ea c0bf
000002b0: 7a89 a13f eed3 673f 42ae 6e3f 0cec 42bf
000002c0: 7eb5 b2be 57b8 9e3f d57e 583e c505 e43d
000002d0: ae78 90bf 255f 95bf fbc5 873f 42fc 84be
000002e0: f9ed 09bf 9759 103f 07bb 7abf 0eaa 443f
000002f0: d98a 6dbf faf6 903f 3c7d f53f fdf9 41bf
00000300: 977e 80bf 1ce1 a53f c335 4ebf 5ec3 1040
00000310: 5692 fabd 1708 a8bf 39f2 b83d b58e c33e
00000320: 0943 6dbf aa95 bdbe 54ee cb3f a73f 25bf
00000330: e3d2 163f b26d 903e f8e1 d43e 6fe5 2640
00000340: 6cc0 513f f832 aabe 796c 1ebf 9cd6 293f
00000350: f62d e43f cf6b 0fc0 46e8 ff3c b1d1 86bf
00000360: c4f5 0abe 0185 02bf cc0a 53bf aa50 b9be
00000370: 4437 543f 9000 1ebd eccd e4bf d96e ae3f
00000380: dc49 0140 50a3 933e acd9 88bf e680 1ac0
00000390: 7ab3 043f 27ab bfbf 951b aabf 7a2d 25bf
000003a0: e125 6bbf 1f9c 3f3f a005 cabf 2f4e 8dbf
000003b0: 8bb5 c4bf ca9e a93e 9358 333f 2f6f 253f
000003c0: d6e9 523e d871 e0be c101 afbf 6bea a5bf
000003d0: 3be2 77be 0e61 16bf a2c0 6fbe 1922 a8be
000003e0: 25f6 3fbf ca95 903f 9a42 9cbe 5995 56bf
000003f0: 6a7b 8c3f af8d cfbe 52f5 b8bf 4426 c03e

f_layer.weight f4 [50, 100]
0.11099747 0.063216425 0.17123064 -0.07324913 -0.12343551 0.11017081 -0.20187086 -0.018461095
-0.1591582 -0.08426852 -0.012662819 -0.005142911 0.04396888 0.110369824 -0.060573332 -0.04043834
-0.03623004 0.04159002 0.03996645 0.2999932 0.108438306 -0.09302091 0.12489542 0.102629565
-0.014653809 -0.03375123 0.113918915 -0.086148806 0.05523843 -0.014435535 -0.11572202 0.16138083
0.09287074 0.10822636 0.0132803945 -0.08557103 -0.017991321 0.032743018 0.08535439 -0.1920306
-0.15563159 0.03498194 0.058117505 -0.23291862 0.21318069 -0.021254575 -0.01677587 0.10839072
0.15884887 0.14112455 -0.0025184487 0.077987514 -0.059950054 -0.027659805 0.06108901 -0.054684795
0.03787474 -0.03732189 0.12514214 -0.22002958 0.019669682 0.09170557 0.064658046 -0.03223631
-0.005471706 -0.086121045 -0.07557042 -0.08527478 -0.024828192 0.10797693 0.06191203 0.035859935
-0.121932395 0.09090652 0.06126345 -0.074432336 -0.08612274 0.12044315 0.031663716 -0.13000914
0.09922576 0.013142338 0.042592373 -0.07089413 0.07332031 -0.18869342 -0.023422759 0.033922885
-0.043624617 0.09163598 0.002467016 0.033234116 -0.04973744 0.087096386 0.06624343 0.07060959
0.0383861 0.06456397 -0.15954061 -0.015939983 -0.15188977 -0.18919772 -0.047123134 -0.03434002
-0.027946403 0.00797684 -0.004244205 -0.024043651 0.14505766 -0.013434057 0.10136384 -0.10306398
0.086324945 0.0685143 -0.19149187 0.028272474 -0.16009274 0.02773459 -0.09571624 -0.21001191
0.16072199 0.12880327 -0.09486302 -0.039858215 0.047313545 -0.08830344 -0.04295591 -0.06742756
0.006232485 0.02371125 0.14119808 0.05433488 0.07694987 -0.11476278 -0.027136045 0.10447563
-0.23886372 0.15651338 -0.15336052 0.09156256 -0.0035441017 0.042963635 -0.019631192 0.20410176
-0.115709014 -0.11818418 -0.17879826 -0.14015783 0.24311265 -0.009458943 -0.046974335 -0.04091688
0.026798675 -0.027485827 -0.1738111 -0.04231149 -0.017603261 -0.14787778 0.024365218 -0.044181876
0.08313021 -0.08362845 -0.07499979 -0.099958785 -0.11128471 -0.057584282 0.08750307 0.02881753
0.10514922 -0.084752664 -0.15534166 -0.08092173 0.08027905 -0.00485529 0.085108064 -0.07892804
-0.05301294 -0.080637276 0.05545599 0.10642413 -0.08832548 -0.00087378896 0.021913936 -0.094882414
-0.14338285 -0.012141166 -0.004873917 0.010773736 -0.022176165 -0.043624315 -0.04508304 -0.119433284
-0.13768636 -0.10628581 0.03207315 -0.025204102 -0.044443995 -0.07614716 0.019441219 0.22402342
0.06674302 0.031491674 -0.18802041 -0.13457021 -0.16213384 0.13003857 -0.18829067 0.062759
-0.19674222 -0.24436483 0.2199167 0.11941514 0.009637897 0.095366016 0.24572875 -0.17964678
0.049316123 -0.17231314 0.24912527 0.0061149322 0.34375447 -0.11967355 0.039273854 0.14063726
0.14429279 -0.1611832 0.16839242 0.017676836 0.1257005 -0.22285457 -0.07085689 0.09281247
-0.17677493 0.24025472 0.07088458 -0.1670607 0.05597825 -0.14543037 0.12293721 -0.33240306
-0.11350815 -0.06663585 0.10817006 -0.10893417 -0.0014137651 -0.16472681 0.01204218 0.1673497
0.13520414 -0.0032634456 -0.10092527 -0.0407126 0.19237074 0.0880476 -0.042447314 0.15699399
00000000: a452 e33d 9d77 813d 1657 2f3e a403 96bd
00000010: c2cb fcbd 3ca1 e13d 3cb7 4ebe b93b 97bc
00000020: 5efa 22be f994 acbd b677 4fbc dd85 a8bb
00000030: b618 343d 9309 e23d be1b 78bd aca2 25bd
00000040: f365 14bd 4c5a 2a3d dcb3 233d b598 993e
00000050: e714 de3d bf81 bebd 2cc9 ff3d 732f d23d
00000060: 8816 70bc bb3e 0abd 524e e93d c96e b0bd
00000070: b141 623d 0683 6cbc abff ecbd 0441 253e
00000080: 0433 be3d c8a5 dd3d 0396 593c dd3f afbd
00000090: 8962 93bc 8b1d 063d 48ce ae3d aba3 44be
000000a0: e35d 1fbe 3949 0f3d 9f0c 6e3d 3882 6ebe
000000b0: 0a4c 5a3e 131e aebc 8d6d 89bc f4fb dd3d
000000c0: 47a9 223e f482 103e 8f0c 25bb ebb7 9f3d
000000d0: 308e 75bd d196 e2bc 7838 7a3d 2afd 5fbd
000000e0: 8b22 1b3d d7de 18bd 4325 003e 6f4f 61be
000000f0: 5022 a13c 21d0 bb3d 706b 843d 390a 04bd
00000100: ff4b b3bb 3b60 b0bd aac4 9abd 8ba4 aebd
00000110: 7e64 cbbc 0223 dd3d 7897 7d3d dee1 123d
00000120: b1b7 f9bd 332d ba3d 62ef 7a3d fb6f 98bd
00000130: 1e61 b0bd e6aa f63d d0b1 013d 1e21 05be
00000140: e036 cb3d f652 573c 5775 2e3d f130 91bd
00000150: f528 963d d938 41be 16e1 bfbc b9f2 0a3d
00000160: baaf 32bd a5ab bb3d a9ad 213b 7f20 083d
00000170: 7cb9 4bbd 975f b23d a3aa 873d c39b 903d
00000180: be3a 1d3d 1d3a 843d 9d5e 23be 9194 82bc
00000190: fe88 1bbe 0cbd 41be 3004 41bd 1fa8 0cbd
000001a0: dbef e4bc 4bb1 023c f912 8bbb 31f7 c4bc
000001b0: ff89 143e 851a 5cbc d897 cf3d 3513 d3bd
000001c0: 22cb b03d 3a51 8c3d 7216 44be ad9b e73c
000001d0: 5aef 23be a733 e33c e006 c4bd 5d0d 57be
000001e0: 4e94 243e 01e5 033e 8b47 c2bd 5e42 23bd
000001f0: d9cb 413d 6fd8 b4bd 89f2 2fbd 7617 8abd
00000200: e039 cc3b 183e c23c 3b96 103e 408e 5e3d
00000210: e597 9d3d c008 ebbd 694c debc 52f7 d53d
00000220: b198 74be 0b45 203e 8a0a 1dbe 2785 bb3d
00000230: 2944 68bb a3fa 2f3d 98d1 a0bc 0d00 513e
00000240: d9f8 ecbd 8c0a f2bd e416 37be 8985 0fbe
00000250: 86f2 783e aff9 1abc 2968 40bd 7598 27bd
00000260: e588 db3c f529 e1bc 89fb 31be d04e 2dbd
00000270: b734 90bc 466d 17be 9199 c73c 0ef8 34bd
00000280: 2c40 aa3d 6545 abbd 7d99 99bd 31b7 ccbd
00000290: 3de9 e3bd 7fdd 6bbd cf34 b33d be12 ec3c
000002a0: 7958 d73d ce92 adbd e211 1fbe 4bba a5bd
000002b0: 5869 a43d 2019 9fbb 234d ae3d 06a5 a1bd
000002c0: 1924 59bd 2825 a5bd d225 633d e5f4 d93d
000002d0: fde3 b4bd fc0e 65ba db84 b33c b651 c2bd
000002e0: f4d2 12be beeb 46bc 61b5 9fbb 5384 303c
000002f0: caaa b5bc 69af 32bd fea8 38bd 7099 f4bd
00000300: a7fd 0cbe 60ac d9bd 235f 033d d578 cebc
00000310: e80a 36bd 0bf3 9bbd 3143 9f3c 6566 653e
00000320: 91b0 883d 6afd 003d 6c88 40be c6cc 09be
00000330: 6a06 26be d528 053e 45cf 40be ca87 803d
00000340: cb76 49be c63a 7abe d831 613e ed8f f43d
00000350: 45e8 1d3c 424f c33d 51a0 7b3e 53f5 37be
00000360: b4ff 493d db72 30be b21a 7f3e c55f c83b
00000370: 9600 b03e 6817 f5bd 9fdd 203d 3703 103e
00000380: 7dc1 133e 350d 25be 106f 2c3e 03cf 903c
00000390: a2b7 003e fd33 64be 6b1d 91bd 7714 be3d
000003a0: 7d04 35be 5505 763e ef2b 913d f611 2bbe
000003b0: 7349 653d b3eb 14be 81c6 fb3d bc30 aabe
000003c0: f676 e8bd 6078 88bd 4488 dd3d e118 dfbd
000003d0: 164e b9ba 25ae 28be 904c 453c b85d 2b3e
000003e0: f472 0a3e 88df 55bb e8b1 cebd 41c2 26bd
000003f0: d6fc 443e 4d52 b43d 3cdd 2dbd 08c3 203e

f_layer.bias f4 [50]
-0.09776543 0.12035481 -0.10380293 0.024743583 -0.07813008 -0.012941607 0.03209366 -0.009225263
-0.056669444 -0.0039232983 0.08323383 -0.013722737 -0.057982024 0.042713568 -0.0928483 0.07741394
0.023049556 -0.017097363 0.00073541526 -0.064343356 -0.07740092 0.068586014 0.08198606 -0.068063065
0.04105396 0.04118263 0.032940954 0.06527941 -0.0608976 0.06808618 -0.060657505 0.0796536
0.063223764 0.06401273 -0.13134672 0.054466482 -0.001563321 0.022628795 -0.040002566 0.062138498
0.06790764 0.014288731 0.086970955 -0.06767279 0.04316754 0.06820929 0.046339553 -0.010193313
0.06522641 0.058242343
00000000: 3e39 c8bd 957c f63d a196 d4bd 0eb3 ca3c
00000010: aa02 a0bd 0909 54bc a474 033d 8f25 17bc
00000020: 381e 68bd 038f 80bb 8076 aa3d 55d5 60bc
00000030: 8f7e 6dbd 6cf4 2e3d 4027 bebd 338b 9e3d
00000040: 6cd2 bc3c c50f 8cbc e2c8 403a 73c6 83bd
00000050: 6084 9ebd d376 8c3d 4fe8 a73d a664 8bbd
00000060: 3228 283d 1eaf 283d 18ed 063d 36b1 853d
00000070: c36f 79bd c470 8b3d 0174 78bd 6d21 a33d
00000080: 767b 813d 1b19 833d c17f 06be 3f18 5f3d
00000090: 59e8 ccba 0660 b93c bbd9 23bd f084 7e3d
000000a0: 2913 8b3d 481b 6a3c d41d b23d 0898 8abd
000000b0: 72d0 303d 50b1 8b3d 8bce 3d3d da01 27bc
000000c0: 6d95 853d 868f 6e3d

p_layer.weight f4 [1, 50]
-0.09788651 0.16727021 -0.2747026 -0.2644508 0.24751966 -0.041686375 -0.20397456 -0.29311043
-0.07737181 0.3053529 -0.22498447 0.22806348 -0.16264753 -0.124827474 -0.041464273 -0.27245873
-0.115786195 0.17659456 0.21129413 -0.21379168 0.17296097 0.23128766 -0.20365193 -0.28491873
-0.24042383 0.16696343 0.20802137 -0.2576104 -0.18358874 0.23468532 0.30517703 -0.18706706
0.18898028 0.112162486 -0.16653816 0.23639746 -0.19000408 0.1677723 -0.18825385 0.15745759
0.15466596 0.20503058 0.09138844 0.20056196 0.13198811 -0.20425296 -0.2342162 -0.17314853
0.17810114 -0.204751
00000000: b978 c8bd e248 2b3e d2a5 8cbe 1866 87be
00000010: cb75 7d3e 55bf 2abd b5de 50be 9212 96be
00000020: 1d75 9ebd 3757 9c3e 5462 66be 7989 693e
00000030: 138d 26be 8ca5 ffbd 71d6 29bd b67f 8bbe
00000040: 5021 edbd 34d5 343e 7d5d 583e 35ec 5abe
00000050: ae1c 313e acd6 6c3e 228a 50be dee0 91be
00000060: aa31 76be 76f8 2a3e 8e03 553e 83e5 83be
00000070: b0fe 3bbe 5951 703e 2a40 9c3e 828e 3fbe
00000080: 0c84 413e 72b5 e53d fb88 2abe 2d12 723e
00000090: 6e90 42be 80cc 2b3e 9ec5 40be 903c 213e
000000a0: c160 1e3e 89f3 513e dd29 bb3d 1d60 4d3e
000000b0: e427 073e b027 51be 5fd6 6fbe d94d 31be
000000c0: 2560 363e 3faa 51be

e_layer.weight f4 [50, 50]
-0.19531952 -0.20646925 0.070273384 0.07989603 -0.14034449 0.3472392 0.18992022 0.09306322
-0.01644398 0.11191015 0.105198264 -0.09433026 0.08889088 0.12890667 0.0714417 0.19577962
0.19099088 -0.20424546 -0.16278262 -0.102500506 -0.10465365 0.06041983 0.13702643 -0.11485661
-0.29831275 -0.36522728 -0.3428377 -0.30393347 0.29093 0.21982522 0.34917304 0.33294144
0.16167141 -0.22398914 0.01767429 0.12967119 0.29398796 0.011111496 0.2332175 -0.26549503
-0.23599559 -0.06952729 -0.088368416 -0.19996116 -0.32485577 -0.037656844 0.006746003 -0.114840336
0.43142146 -0.054475456 -0.16273363 -0.105974786 -0.42639187 -0.07640843 0.16552289 0.49050787
-0.15401551 -0.08576182 0.13026193 -0.21883573 0.26435748 0.17932901 0.016842721 0.07685683
-0.06243769 0.06353118 -0.07355221 -0.4259375 -0.01628476 0.102267094 -0.11991615 0.07959643
-0.1439257 -0.0870166 0.087790035 -0.20204502 -0.015682071 0.11647298 -0.014639079 0.15526383
0.18550089 -0.03029669 -0.11728459 -0.029532949 -0.43534797 0.04286765 -0.29532868 -0.00013982203
0.22919384 0.0030772784 0.0704223 -0.51328456 -0.0070920973 -0.112502195 0.193114 0.29105023
0.095075816 -0.0052586147 -0.014506294 -0.024570521 0.15201852 -0.035318363 0.02908328 0.043111928
0.041499272 -0.03361531 0.097558826 0.10774657 0.0097680995 -0.12623431 0.2219235 0.045706593
0.15311266 -0.07872987 0.05715246 0.092689455 0.031439133 -0.000963972 0.25720826 0.29691684
0.12537616 -0.36310986 0.291113 0.39568612 -0.21625555 -0.11314656 0.059275433 -0.24695891
-0.017260727 -0.19981962 -0.17101045 -0.103946514 -0.013777479 0.0054394957 0.111698724 -0.35099548
-0.20962135 -0.30193666 0.25799045 -0.13152945 0.3046771 0.25746325 0.26836106 0.18966529
0.09354792 -0.2212926 0.1397365 -0.15227656 -0.12648177 0.11760427 -0.34190807 -0.15799609
0.10900425 0.14961255 -0.14143041 0.116083354 0.11227152 0.34121123 0.038672082 0.004973785
0.3061577 0.05004646 -0.002518076 0.07203907 -0.10170057 -0.004519647 0.27904677 0.15497416
0.29471475 0.19723135 -0.037652314 0.017501773 0.14658651 -0.14787914 0.11576073 -0.10295914
0.045084286 -0.34369597 -0.15760942 0.12507014 -0.23329216 0.13707684 0.08848445 0.14532894
-0.058807608 -0.25756216 0.12962915 -0.038304985 -0.04661255 -0.48347142 -0.365606 -0.086817116
0.037986357 0.06499658 0.08234726 -0.0938723 0.0075765476 0.07588213 0.09609652 -0.17746878
0.15646388 0.19708619 -0.14774077 -0.08419656 0.20557071 -0.21375372 -0.18798351 -0.19652928
0.013253334 0.048626103 0.028485298 0.15765935 0.05375722 0.026708182 0.083021834 0.0068354104
-0.34509897 0.00015555625 -0.1332787 -0.060945462 0.16838145 0.19415313 0.08922528 -0.025520062
-0.035545345 -0.019275393 -0.14119937 0.2568491 0.24419248 0.06576056 0.34974858 0.36912704
-0.019563802 0.023077933 -0.23319222 -0.011879793 0.08543149 0.14924502 0.09633502 0.090585075
-0.20188494 -0.22358969 -0.14578247 -0.11079289 0.08002165 0.11500509 0.21863548 0.07199615
-0.383224 -0.12099685 -0.13790485 0.03688003 0.1698952 0.034012493 0.13623291 0.17011777
00000000: d701 48be ad6c 53be 7eeb 8f3d 88a0 a33d
00000010: 77b6 0fbe 56c9 b13e 727a 423e ee97 be3d
00000020: 87b5 86bc 2631 e53d 3072 d73d 3930 c1bd
00000030: 6c0c b63d 1c00 043e 0750 923d 747a 483e
00000040: 1d93 433e b925 51be 7db0 26be c9eb d1bd
00000050: a754 d6bd c97a 773d a850 0c3e f139 ebbd
00000060: 73bc 98be 12ff babe 6c88 afbe 2b9d 9bbe
00000070: c7f4 943e dd19 613e cfc6 b23e 4d77 aa3e
00000080: 318d 253e 695d 65be acc9 903c 86c8 043e
00000090: 9785 963e fe0c 363c 91d0 6e3e f7ee 87be
000000a0: d4a8 71be 5364 8ebd 80fa b4bd 9ec2 4cbe
000000b0: 7f53 a6be 103e 1abd 930d dd3b 6931 ebbd
000000c0: 46e3 dc3e a821 5fbd a5a3 26be 4f09 d9bd
000000d0: 0950 dabe 067c 9cbd d57e 293e d923 fb3e
000000e0: 3eb6 1dbe e5a3 afbd 6263 053e 7916 60be
000000f0: dd59 873e 06a2 373e bff9 893c 1d67 9d3d
00000100: aabe 7fbd a31c 823d 8ba2 96bd 7b14 dabe
00000110: 9e67 85bc 6971 d13d 9996 f5bd 7403 a33d
00000120: 4261 13be c235 b2bd 43cb b33d e4e4 4ebe
00000130: b077 80bc 6389 ee3d bfd8 6fbc 7bfd 1e3e
00000140: f2f3 3d3e c430 f8bc e732 f0bd 15ef f1bc
00000150: eee5 debe fd95 2f3d 5235 97be 319d 12b9
00000160: cab1 6a3e 2aac 493b 9139 903d 9e66 03bf
00000170: d364 e8bb 8d67 e6bd adbf 453e 8904 953e
00000180: 1cb7 c23d 7550 acbb cfab 6dbc 1e48 c9bc
00000190: beaa 1b3e fda9 10bd 0f40 ee3c 2296 303d
000001a0: 24fb 293d 35b0 09bd eccc c73d 3caa dc3d
000001b0: 610a 203c 9143 01be ea3f 633e d636 3b3d
000001c0: 91c9 1c3e 203d a1bd b318 6a3d f8d3 bd3d
000001d0: 52c6 003d 11b3 7cba cdb0 833e 7c05 983e
000001e0: 9c62 003e 89e9 b9be c30c 953e 5f97 ca3e
000001f0: 1872 5dbe 62b9 e7bd ccca 723d cce2 7cbe
00000200: 5e66 8dbc 849d 4cbe 5d1d 2fbe e9e1 d4bd
00000210: efba 61bc cc3d b23b 4dc2 e43d aeb5 b3be
00000220: fba6 56be 7197 9abe 5317 843e a8af 06be
00000230: a3fe 9b3e 39d2 833e 9f66 893e 9e37 423e
00000240: 0d96 bf3d 879a 62be 1617 0f3e 63ee 1bbe
00000250: 7084 01be 82da f03d 930e afbe bac9 21be
00000260: 9f3d df3d 0834 193e 22d3 10be 1cbd ed3d
00000270: 9cee e53d 3db3 ae3e 9e66 1e3d 22fb a23b
00000280: b4c0 9c3e 84fd 4c3d 4e06 25bb 3889 933d
00000290: 6348 d0bd 8c19 94bb 38df 8e3e 8cb1 1e3e
000002a0: dae4 963e 04f7 493e 5039 1abd e15f 8f3c
000002b0: c61a 163e a16d 17be f613 ed3d 3edc d2bd
000002c0: 4daa 383d ebf8 afbe 5d64 21be 6312 003e
000002d0: 24e4 6ebe df5d 0c3e 5637 b53d 1cd1 143e
000002e0: 3fe0 70bd 30df 83be 81bd 043e b0e5 1cbd
000002f0: cdec 3ebd 9189 f7be b630 bbbe 2ccd b1bd
00000300: 9597 1b3d ed1c 853d aea5 a83d 1f40 c0bd
00000310: b044 f83b 1768 9b3d 41ce c43d 60ba 35be
00000320: 1138 203e f6d0 493e 5b49 17be 3f6f acbd
00000330: 2181 523e 41e2 5abe c07e 40be f93e 49be
00000340: 8324 593c 2a2c 473d 005a e93c 7471 213e
00000350: 8830 5c3d 1ecb da3c 5a07 aa3d 94fb df3b
00000360: d0b0 b0be d01c 2339 367a 08be f3a1 79bd
00000370: 306c 2c3e 14d0 463e bebb b63d 730f d1bc
00000380: ff97 11bd 6ee7 9dbc 9196 10be ba81 833e
00000390: 980d 7a3e 79ad 863d 3f12 b33e 38fe bc3e
000003a0: 4444 a0bc ef0d bd3c f1c9 6ebe 77a3 42bc
000003b0: b4f6 ae3d b0d3 183e 4c4b c53d ab84 b93d
000003c0: edba 4ebe b2f4 64be 0048 15be 62e7 e2bd
000003d0: 64e2 a33d ca87 eb3d fbe1 5f3e b872 933d
000003e0: f035 c4be 32cd f7bd ee36 0dbe 840f 173d
000003f0: 02f9 2d3e af50 0b3d a480 0b3e 5a33 2e3e

e_layer.bias f4 [50]
0.3346169 0.18578832 -0.13559045 -0.16913274 0.059072897 -0.106817335 -0.036244098 0.11766425
0.27680844 0.21949722 0.14510871 0.06363868 0.30372933 0.20744015 0.25479147 -0.06337963
0.43406227 0.03895903 -0.020503882 -0.008624086 -0.5662718 0.00055480143 0.025810707 0.14950226
-0.31396228 -0.19754618 -0.07007732 -0.30569634 0.20444693 0.33266625 0.10146174 0.11259258
-0.16989763 0.08828987 -0.18370466 -0.0125736 0.10947804 0.024661684 0.06945451 -0.043664485
0.040345393 -0.21857202 -0.2402489 0.01347842 0.19749029 -0.24716642 0.043292098 -0.15958865
0.1026525 -0.27156487
00000000: e852 ab3e 4b3f 3e3e 39d8 0abe 2231 2dbe
00000010: 6cf6 713d 0cc3 dabd b174 14bd f4f9 f03d
00000020: d6b9 8d3e e1c3 603e 6197 143e ff54 823d
00000030: 6982 9b3e 316b 543e 0774 823e 2ecd 81bd
00000040: 693d de3e 8193 1f3d c2f7 a7bc 0a4c 0dbc
00000050: 30f7 10bf 1870 113a fa70 d33c 1f17 193e
00000060: aabf a0be 8c49 4abe b384 8fbd 3b84 9cbe
00000070: 895a 513e 3b53 aa3e 2ccb cf3d f096 e63d
00000080: a5f9 2dbe 52d1 b43d 131d 3cbe 8001 4ebc
00000090: 0636 e03d 4d07 ca3c 2b3e 8e3d 88d9 32bd
000000a0: 3641 253d 58d1 5fbe cf03 76be 97d4 5c3c
000000b0: e53a 4a3e 3219 7dbe 0e53 313d 356b 23be
000000c0: 793b d23d 8d0a 8bbe

a_layer.weight f4 [50, 50]
0.03159002 0.16346422 -0.06681987 -0.04049755 -0.054197177 -0.21474613 -0.096562766 0.017917767
0.122894675 -0.012847513 -0.22109225 0.034676317 0.07314793 -0.0029739777 0.011855725 -0.019871488
0.0028509495 -0.042614143 -0.07912298 0.12614565 -0.20752035 -0.16688755 0.0070491945 -0.0005505745
-0.046944074 -0.08435136 0.029767273 0.05255794 0.10550873 0.07048771 0.031706277 -0.1586045
-0.102433324 -0.01942091 0.12944315 0.11342671 -0.08157916 0.10667562 0.14795959 -0.050201908
0.09626309 0.07931169 0.05717613 0.09599379 0.07782724 -0.08680384 0.052448824 0.093572386
0.014618592 0.108712085 -0.20092255 0.10761591 -0.023378778 -0.18310836 -0.060707584 -0.03778909
0.11536578 0.0078113438 -0.011624993 -0.15875489 0.092149906 -0.054656968 0.17055045 0.13117026
0.10966459 -0.0424109 0.014377476 -0.08621298 -0.02351682 -0.1621744 -0.054942228 0.05727826
0.025848905 0.22156323 0.14469948 0.0477846 -0.054507874 0.009382045 -0.2379701 -0.21444719
-0.09989586 0.08769909 0.24130625 0.010277692 0.19061492 -0.04218583 -0.16141665 0.13627154
-0.12360484 -0.10564272 -0.15105714 0.13576905 0.042593785 0.08905651 0.07486462 -0.009984787
-0.026367858 -0.095022045 -0.08163442 0.17131294 0.09751364 -0.1941491 0.027111398 -0.07552201
0.10504028 0.2379958 -0.12972979 0.03532392 -0.09159254 0.12897512 -0.04934328 -0.008882047
0.051060956 0.15653394 -0.10614415 -0.2404956 0.031752244 0.06826945 -0.1185943 -0.00023141701
-0.07925369 0.074963085 -0.057921782 -0.21292482 0.008901178 -0.06703988 -0.11998933 0.008155937
0.11461349 0.03824303 0.030375581 -0.0031502035 0.08954641 0.080014996 0.04960044 0.18383625
0.12837666 -0.03463077 -0.16153423 -0.051948197 -0.088494964 0.016284086 -0.031231238 -0.083364636
0.12974101 -0.16057171 0.056041945 0.13775282 -0.06449873 -0.10726471 -0.18064575 0.006007694
0.06957169 0.033041097 -0.19062053 0.06292377 -0.04160007 0.011959907 0.06282625 0.15352389
-0.0021112172 -0.13138284 0.03551176 -0.076496445 -0.07918454 0.14274411 0.06921561 -0.08407971
0.104576066 0.12578838 0.009608676 -0.15062699 -0.038007032 -0.12723899 0.024863616 -0.065537795
-0.005226907 0.16258177 0.18072993 -0.056588497 -0.02113304 0.058085922 0.0014567679 -0.044085607
-0.08666846 -0.02893263 -0.022933312 0.14274801 -0.09881079 -0.091368146 -0.020176418 -0.031736456
0.013847463 -0.15948047 -0.13104604 -0.108766295 0.048094198 0.03456256 -0.08699372 -0.13549666
0.1949493 -0.16188121 -0.07471994 0.013836058 0.0058022942 -0.09824397 0.13405342 0.13395196
0.07115918 -0.08652988 0.12754178 0.10761238 -0.17667018 0.28907338 0.14601357 -0.06097984
0.012229124 0.11722405 -0.12572677 -0.11628952 0.075426295 0.20338082 -0.055713475 0.0038321984
-0.03576418 -0.009091842 -0.036740463 0.08266808 0.15630946 -0.01587185 -0.0470491 -0.13293353
-0.07343708 0.082966544 0.020263456 -0.042058393 -0.1274322 -0.048235454 -0.2236342 0.083305106
0.03343969 -0.20952737 -0.12055858 -0.02105733 -0.15723093 -0.027209464 -0.01383524 -0.039239455
0.21750969 -0.10164878 0.16373076 0.06934292 -0.0008166704 0.09040027 -0.19487317 -0.053588044
00000000: 8964 013d 2a63 273e dbd8 88bd c2e0 25bd
00000010: dcfd 5dbd 69e6 5bbe b3c2 c5bd 48c8 923c
00000020: 34b0 fb3d 607e 52bc 0266 62be c108 0e3d
00000030: 95ce 953d 11e7 42bb 843e 423c 88c9 a2bc
00000040: ffd6 3a3b 2b8c 2ebd 3b0b a2bd 532c 013e
00000050: 3780 54be 92e4 2abe eefc e63b 6e54 10ba
00000060: 6e48 40bd 68c0 acbd 7fda f33c ff46 573d
00000070: f614 d83d dc5b 903d 71de 013d 3869 22be
00000080: 90c8 d1bd 9a18 9fbc bf8c 043e 434c e83d
00000090: fa12 a7bd bf78 da3d b882 173e 84a0 4dbd
000000a0: 9525 c53d 2b6e a23d 8531 6a3d 6498 c43d
000000b0: e363 9f3d 36c6 b1bd 94d4 563d e1a2 bf3d
000000c0: d282 6f3c 71a4 de3d a4be 4dbe bb65 dc3d
000000d0: da84 bfbc c280 3bbe 84a8 78bd bcc8 1abd
000000e0: e544 ec3d 4df6 ff3b c176 3ebc a490 22be
000000f0: 17b9 bc3d fcdf 5fbd c7a4 2e3e 7f51 063e
00000100: d497 e03d 0db7 2dbd 818f 6b3c 6e90 b0bd
00000110: 59a6 c0bc 0c11 26be 1a0b 61bd 9c9c 6a3d
00000120: 15c1 d33c 79e1 623e 1a2c 143e c9b9 433d
00000130: a643 5fbd 26b7 193c 6fae 73be 0b98 5bbe
00000140: 3396 ccbd 959b b33d fc18 773e c463 283c
00000150: 8f30 433e 0dcb 2cbd 684a 25be c48a 0b3e
00000160: 8924 fdbd 365b d8bd b9ae 1abe 0b07 0b3e
00000170: d276 2e3d 4263 b63d 9f52 993d 3b97 23bc
00000180: 6801 d8bc eb9a c2bd f22f a7bd a96c 2f3e
00000190: 3bb5 c73d 06cf 46be b918 de3c 49ab 9abd
000001a0: 5c1f d73d 2cb5 733e e3d7 04be d1af 103d
000001b0: df94 bbbd 0e12 043e 2e1c 4abd 0186 11bc
000001c0: 4b25 513d 6f4a 203e 1b62 d9bd 7b44 76be
000001d0: a40e 023d dad0 8b3d 91e1 f2bd 88a8 72b9
000001e0: c24f a2bd 3f86 993d 643f 6dbd f708 5abe
000001f0: 3fd6 113c 344c 89bd f7bc f5bd 7ba0 053c
00000200: 7aba ea3d b9a4 1c3d 36d6 f83c a573 4ebb
00000210: 1c64 b73d e7de a33d d529 4b3d 923f 3c3e
00000220: 2c75 033e ffd8 0dbd 3b69 25be a2c7 54bd
00000230: d93c b5bd 3466 853c a7d8 ffbc 14bb aabd
00000240: d4da 043e e96c 24be 3d8c 653d 130f 0d3e
00000250: e917 84bd 9aad dbbd 33fb 38be 31dc c43b
00000260: 9a7b 8e3d 1a56 073d 0732 43be 2dde 803d
00000270: d664 2abd 7cf3 433c 0dab 803d 5e35 1d3e
00000280: 595c 0abb 3989 06be c774 113d 2baa 9cbd
00000290: 812b a2bd 832b 123e eac0 8d3d fc31 acbd
000002a0: fa2b d63d abce 003e b56d 1d3c f63d 1abe
000002b0: 43ad 1bbd f04a 02be c8ae cb3c ae38 86bd
000002c0: 7946 abbb d67b 263e 4411 393e 57c9 67bd
000002d0: 321f adbc 81eb 6d3d 05f1 be3a 1c93 34bd
000002e0: 3c7f b1bd 1f04 edbc a4de bbbc 892c 123e
000002f0: 505d cabd 391f bbbd 0449 a5bc 16fe 01bd
00000300: 78e0 623c d94e 23be ef30 06be ddc0 debd
00000310: 6cfe 443d 7991 0d3d c329 b2bd a3bf 0abe
00000320: caa0 473e 30c4 25be c506 99bd a2b0 623c
00000330: 2c21 be3b 2234 c9bd 4d45 093e b42a 093e
00000340: e7bb 913d 9436 b1bd 509a 023e e163 dc3d
00000350: 07e9 34be 6d01 943e 9584 153e ffc5 79bd
00000360: aa5c 483c 2a13 f03d 85be 00be 3329 eebd
00000370: 1a79 9a3d 1043 503e d033 64bd 9f25 7b3b
00000380: 767d 12bd f3f5 14bc 2b7d 16bd e24d a93d
00000390: 960f 203e af05 82bc 8fb6 40bd ba1f 08be
000003a0: 2e66 96bd 5dea a93d 8cff a53c 6c45 2cbd
000003b0: 967d 02be 8a92 45bd 5d00 65be de9b aa3d
000003c0: 0ef8 083d 588e 56be 6be7 f6bd 6c80 acbc
000003d0: 2501 21be 62e6 debc 34ad 62bc 8db9 20bd
000003e0: dcba 5e3e 3c2d d0bd 09a9 273e a903 8e3d
000003f0: d315 56ba c723 b93d d58c 47be 237f 5bbd

a_layer.bias f4 [50]
-0.06971437 -0.04399447 0.23662564 -0.08745826 0.19382921 -0.13903125 0.22175139 -0.057383493
-0.0821831 0.005985408 0.058583476 -0.09584134 0.03416425 -0.099954925 0.01953148 0.17600873
0.063916706 -0.16058512 -0.18835069 0.03667309 0.022684248 0.16993232 -0.113115594 -0.118334375
-0.20504817 0.1616737 -0.007744922 -0.08852668 -0.18661623 -0.065524064 0.13272823 -0.06801678
0.19907662 -0.06164391 0.16545363 0.078239 -0.07106649 0.13259766 -0.18833761 0.12258057
0.0074133966 0.17333038 -0.3216684 -0.16465466 -0.039647784 0.051631022 0.03613428 0.03807791
0.08203689 0.19437318
00000000: 68c6 8ebd 8c33 34bd fe4d 723e 511d b3bd
00000010: 2a7b 463e 355e 0ebe cc12 633e f40a 6bbd
00000020: 9d4f a8bd 3e21 c43b 3af5 6f3d 7748 c4bd
00000030: d0ef 0b3d 2bb5 ccbd 7b00 a03c a23b 343e
00000040: c3e6 823d 6d70 24be 01df 40be 8636 163d
00000050: 51d4 b93c bd02 2e3e 26a9 e7bd 4b59 f2bd
00000060: 26f8 51be ca8d 253e 1dc9 fdbb 7a4d b5bd
00000070: 5318 3fbe 7b31 86bd e9e9 073e 624c 8bbd
00000080: beda 4b3e 537e 7cbd ad6c 293e c53b a03d
00000090: 4f8b 91bd aec7 073e 93db 40be 860b fb3d
000000a0: 14ec f23b 857d 313e b8b1 a4be 3b9b 28be
000000b0: b765 22bd 0d7b 533d 8a01 143d 95f7 1b3d
000000c0: f502 a83d c309 473e
