DeepModels/ckpts_precomputed/dkvmn/ASSIST2009/model.ckpt (torch, 113426 bytes, 11 tensors)

Mk f4 [20, 50]
0	0x3e730e08	0.23735821
1	0x3d6f9804	0.058494583
2	0x3e050084	0.12988478
3	0x3cc1dcf8	0.023664936
4	0x3eb13f68	0.34618688
5	0xbee0d380	-0.43911362
6	0xbef1379d	-0.47112742
7	0x3d37379c	0.044730768
8	0xbe3cb96d	-0.1843011
9	0xbe1aa8b8	-0.15103424
10	0x3ec04e44	0.37559712
11	0xbea8f4ba	-0.32999212
12	0x3d204af5	0.039133985
13	0x3dc4184d	0.095749475
14	0x3e2c3957	0.16818748
15	0xbe370e12	-0.17876461
16	0xbebc8454	-0.36819708
17	0x3d8ec170	0.06970489
18	0x3e4633b4	0.1935566
19	0xbd8a7392	-0.067603245
20	0xbd961c7a	-0.0732965
21	0x3edab42e	0.4271559
22	0x3ea47548	0.32120728
23	0xbe355399	-0.17707671
24	0xbcc8b841	-0.024501922
25	0xbeb4e036	-0.3532731
26	0xbe09324b	-0.13398091
27	0x3c5faaaa	0.013651529
28	0xbf0ce494	-0.5503628
29	0xbd758052	-0.05993683
30	0x3ebdf2ee	0.37099403
31	0x3de57d0b	0.11205491
32	0x3c851888	0.016247049
33	0xbe250e61	-0.16118766
34	0x3e2bcf19	0.1677822
35	0x3e37168a	0.17879692
36	0xbf0601dd	-0.52346593
37	0xbe12bc62	-0.14329675
38	0x3dd2270f	0.10261356
39	0x3df17e39	0.11791653
40	0x3e0dbe94	0.13842231
41	0xbea7ac8c	-0.3274883
42	0xbe9b7709	-0.30364254
43	0x3ea47b28	0.3212521
44	0x3cc22aed	0.02370211
45	0x3e9085d3	0.282271
46	0x3e57f818	0.21090734
47	0x3f1b8a93	0.6075832
48	0xbe83cc8f	-0.25742003
49	0xbd9dad85	-0.07699112
50	0xbe72c476	-0.23707756
51	0xbdc8b4c5	-0.09800104
52	0x3d897959	0.06712598
53	0xba4c49ee	-0.0007792999
54	0xbe24119e	-0.16022345
55	0xbea592ab	-0.3233846
56	0x3d790498	0.060795397
57	0xbd1531bf	-0.036424395
58	0xbe2bf8e1	-0.16794159
59	0x3d461fa6	0.048370026
60	0xbc9bc4df	-0.019014774
61	0xbcad6962	-0.021168415
62	0x3dde54d1	0.10856021
63	0x3f2c0e66	0.6720947
64	0x3e750fd8	0.23931825
65	0xbe4dcba6	-0.20097217
66	0xbd8338e6	-0.06407337
67	0xbe989f9f	-0.2980928
68	0x3e65e2ce	0.224498
69	0xbe16faea	-0.14744154
70	0x3e0ec817	0.13943516
71	0xbe044b71	-0.12919404
72	0x3ce4abbd	0.027913922
73	0xbeb2a6db	-0.34892926
74	0xbce46303	-0.027879244
75	0xbea99a99	-0.3312576
76	0x3ec53449	0.38516453
77	0x3b38297c	0.0028100898
78	0xbe30d31f	-0.17268036
79	0xbe881411	-0.2657781
80	0xbf192a98	-0.5983062
81	0x3daffff5	0.08593742
82	0x3e257af9	0.16160192
83	0x3e40ba50	0.18821073
84	0x3f2df14e	0.67946327
85	0xbee09d29	-0.43869904
86	0x3c853020	0.0162583
87	0xbf075496	-0.5286344
88	0xbdb01b8e	-0.08599006
89	0xbd929ab2	-0.07158412
90	0x3d34401c	0.044006452
91	0xbdaf4247	-0.08557563
92	0xbea38183	-0.31934747
93	0x3e6d2051	0.23156859
94	0xbdb7dce8	-0.089776814
95	0xbe232c49	-0.15934862
96	0x3ec61651	0.386889
97	0x3f26d58d	0.651696
98	0xbe921ed6	-0.2853915
99	0xbeb52f69	-0.35387734
100	0x3f19730e	0.59941185
101	0x3d813006	0.06307988
102	0xbe25e64f	-0.16201137
103	0x3eab1251	0.33412412
104	0xbe97c508	-0.2964251
105	0xbe671809	-0.22567762
106	0xbd9c834e	-0.07642232
107	0xbd87cfc1	-0.06631423
108	0xbeab1636	-0.33415383
109	0x3d527282	0.051378734
110	0x3f1e16da	0.6175362
111	0x3f02b55b	0.51057976
112	0xbe93731f	-0.28798768
113	0xbd2a1e5b	-0.041532855
114	0x3edacd02	0.42734534
115	0xbd381eb8	-0.04495117
116	0xbe9fa6bc	-0.31181896
117	0xbca1710a	-0.019707222
118	0xbe06f550	-0.13179517
119	0x3e10280d	0.14077778
120	0xbca43fce	-0.020049956
121	0x3e65ae5c	0.22429794
122	0x3daa1f8b	0.083067976
123	0xbe0eef0e	-0.1395838
124	0x3ec74993	0.3892332
125	0xbae20b9c	-0.0017245892
126	0x3e8629aa	0.26203662
127	0xbe8f17e1	-0.27947906
128	0xbde24253	-0.110478066
129	0x3e833aa2	0.2563067
130	0xbdec060e	-0.11524592
131	0xbec2933d	-0.3800296
132	0xbe0dac98	-0.1383537
133	0x3e4a77ff	0.19772337
134	0xbd68e289	-0.056856666
135	0x3e345bf7	0.17613207
136	0x3e287ab9	0.16453065
137	0x3dc7af14	0.097501904
138	0xbea61442	-0.3243733
139	0x3df40945	0.119158305
140	0x3e49ca80	0.19706154
141	0xbec488a7	-0.38385507
142	0xbe616904	-0.22012717
143	0x3de0782c	0.10960421
144	0x3e820779	0.25396326
145	0xbec979ff	-0.39350888
146	0xbe8e9cf5	-0.27854124
147	0x3e883b59	0.2660778
148	0x3da4367b	0.08018204
149	0x3dc65b63	0.096853994
150	0x3eac30ac	0.33630884
151	0x3d5187e2	0.05115498
152	0x3e8424d7	0.25809357
153	0xbced2c5a	-0.028951813
154	0x3e4ca74d	0.19985695
155	0x3f1cd03b	0.61255234
156	0xbd9dea2b	-0.077106796
157	0x3e53e771	0.20693757
158	0xbea6079c	-0.3242768
159	0x3e0d5616	0.1380237
160	0x3e194d67	0.14970933
161	0xbe62d5fe	-0.22151944
162	0xbe80854a	-0.2510169
163	0xbf29011c	-0.6601732
164	0xbd347730	-0.04405898
165	0xbd315ca5	-0.043301243
166	0x3e11a04f	0.14221309
167	0x3e5d4582	0.21608546
168	0xbd8d2723	-0.0689223
169	0x3e0171d0	0.12641072
170	0x3cdf3b83	0.027250057
171	0xbd4cadd4	-0.049970463
172	0xbe5035fd	-0.20333095
173	0xbe1d5e62	-0.15368035
174	0x3c9801cd	0.018555546
175	0x3f589898	0.8460784
176	0xbe359d98	-0.17735898
177	0xbec3e8a7	-0.38263437
178	0x3d09ab5a	0.03361068
179	0xbea3b404	-0.3197328
180	0xbf01a361	-0.5063992
181	0x3ea57677	0.32316944
182	0xbf12559c	-0.5716188
183	0xbe7c8e57	-0.24663673
184	0x3d8ff107	0.07028394
185	0xbd55865b	-0.052130084
186	0x3e28e788	0.16494572
187	0x3eff493e	0.49860567
188	0x3ed9b028	0.4251721
189	0xbe1a58b0	-0.15072894
190	0xbd2f153f	-0.04274487
191	0xbe716fec	-0.23577851
192	0x3e90d5cf	0.28288123
193	0x3e68239c	0.22669834
194	0x3e55c059	0.20874156
195	0x3e469764	0.19393688
196	0xbe71c08a	-0.23608604
197	0x3cde9d40	0.027174592
198	0x3c605068	0.013691045
199	0xbdf4592d	-0.119310714
200	0x3e073891	0.13205172
201	0x3e217e05	0.15770729
202	0xbe0e0abd	-0.13871284
203	0x3deb8883	0.11500647
204	0xbdf66a66	-0.12032013
205	0xbeb1aacc	-0.3470062
206	0xbdef6965	-0.11690024
207	0x3d3f7e17	0.046751108
208	0xbea22ac9	-0.31673267
209	0x3c82632c	0.01591643
210	0xbe96a086	-0.29419345
211	0x3eb95c73	0.36203346
212	0x3e8ee83f	0.27911565
213	0xbe94a0d8	-0.29028964
214	0xbd6918ca	-0.056908406
215	0xbe2f9f54	-0.17150623
216	0xbdab1751	-0.083540566
217	0x3d5e8835	0.054329116
218	0x3e70c35b	0.23512022
219	0xbd85ac21	-0.065269716
220	0x3cf18f52	0.029487286
221	0xbe421cd1	-0.18956305
222	0x3ece96ce	0.4034943
223	0x3e2a1923	0.16611151
224	0xbcbffce0	-0.02343601
225	0xbe4611aa	-0.19342676
226	0xbd9972a2	-0.074925676
227	0x3ea11058	0.31457782
228	0xbee7ae9e	-0.4525041
229	0x3d98ae17	0.0745508
230	0x3e22f490	0.15913606
231	0xbd5b921a	-0.05360613
232	0x3e04e1b0	0.12976718
233	0x3e3b4fba	0.18292132
234	0x3e98a27a	0.2981146
235	0xbe53d2ed	-0.2068593
236	0x3de0cec2	0.10976936
237	0x3ee82359	0.45339468
238	0xbe3629f9	-0.17789449
239	0xbdcd464b	-0.10023173
240	0x3da76343	0.081732295
241	0xbe1ffdcc	-0.1562416
242	0x3eb56d12	0.35434777
243	0x3d02b3e6	0.031909846
244	0x3e2ceb52	0.16886643
245	0x3e165ab1	0.14683034
246	0x3f09c6b0	0.538188
247	0xbf431484	-0.7620318
248	0x3eb77948	0.35834718
249	0x3e21462b	0.15749423
250	0xbe361757	-0.17782341
251	0x3e340a3c	0.17582029
252	0x3d73bf00	0.059508324
253	0x3def468a	0.11683376
254	0x3d96f186	0.07370286
255	0x3f4e9eb1	0.80710894

Mv0 f4 [20, 50]
0	0xbea31876	-0.318546
1	0x3ddafc6c	0.10692677
2	0xbd548cd1	-0.051892105
3	0x3d28d715	0.041220743
4	0xbd607190	-0.0547958
5	0x3ea743c0	0.32668877
6	0x3e4a5788	0.19759953
7	0x3da5ac4f	0.08089506
8	0xbe277b85	-0.16355713
9	0x3c51c56c	0.012803417
10	0xbeb8a708	-0.36064935
11	0x3dd4f0da	0.10397501
12	0x3c2e2374	0.01062857
13	0xbdb572da	-0.08859797
14	0x3ed3899c	0.41315925
15	0x3e07d112	0.13263348
16	0x3e4530e9	0.19256939
17	0xbe247513	-0.16060285
18	0xbd81ac2f	-0.063316695
19	0x3c32e849	0.010919639
20	0x3df69952	0.12040962
21	0x3e4f50d5	0.20245679
22	0xbe96187b	-0.29315552
23	0x3ca32177	0.019913418
24	0xbe438614	-0.19094115
25	0xbf184167	-0.59474796
26	0xbf12d9a9	-0.57363373
27	0x3e8c4080	0.2739296
28	0x3e80ad79	0.2513235
29	0x3d41d7c5	0.047324914
30	0xbe14df61	-0.14538337
31	0xbf04680c	-0.5172126
32	0x3c0d32c4	0.0086180605
33	0x3e8b1a2c	0.27168405
34	0xbe8f4eda	-0.27989846
35	0xbe1c50c0	-0.15265179
36	0x3e566f02	0.20940784
37	0xbbfbaa10	-0.007680185
38	0x3dd610fb	0.104524575
39	0x3edf702f	0.43640277
40	0x3e3cf682	0.1845341
41	0x3e08525f	0.13312672
42	0x3c6b8ac1	0.014376343
43	0xbe33240c	-0.1749422
44	0x3eb97e8a	0.36229354
45	0x3ecfeb1e	0.40609068
46	0xbe85f340	-0.26162148
47	0xbe6b2df3	-0.22966747
48	0x3f017f48	0.5058484
49	0x3e99f951	0.30073026
50	0x3d2d3770	0.042289197
51	0x3c360074	0.0111085065
52	0x3da60f52	0.08108391
53	0x3e3791c1	0.17926694
54	0xbe22f5a8	-0.15914023
55	0xbd3b7e39	-0.045774672
56	0x3e8113af	0.2521033
57	0xbe80d6cc	-0.25163877
58	0xbef78279	-0.4834173
59	0xbd1d12dc	-0.038348064
60	0x3ea24ab5	0.31697622
61	0x3e1cedc8	0.15325081
62	0x3d493796	0.049125277
63	0x3ec3a661	0.38212875
64	0x3e804558	0.25052905
65	0xbe6cd737	-0.23128973
66	0xbe18ab99	-0.1490921
67	0x3d0f38c8	0.03496626
68	0x3e56bef8	0.20971286
69	0x3eda5a2b	0.42646918
70	0x3db61726	0.08891134
71	0xbdbf9718	-0.09354991
72	0xbe52b3f2	-0.20576456
73	0x3da97d24	0.08275822
74	0x3e95cf75	0.2925984
75	0x3f109e9f	0.56492037
76	0xbd1c8829	-0.03821579
77	0xbde22df1	-0.11043919
78	0xbcac4480	-0.021028757
79	0x3e3cf04a	0.18451038
80	0xbf6acca8	-0.9171853
81	0xbf1beefe	-0.6091155
82	0xbe9357ab	-0.28777823
83	0xbd47dc85	-0.04879429
84	0xbc72b08f	-0.014812603
85	0xbe7aec3e	-0.24504182
86	0x3d92c886	0.07167153
87	0xbe48eafb	-0.19620888
88	0xbebc8364	-0.36818993
89	0x3d7090d0	0.058731854
90	0x3df60fce	0.12014733
91	0xbd6c22ac	-0.057650253
92	0x3dd05b35	0.10173646
93	0xbe048892	-0.12942722
94	0xbcc4235f	-0.023942648
95	0x3de3332a	0.11093743
96	0xbe504154	-0.2033742
97	0xbca5aa22	-0.020222727
98	0x3dc6085a	0.09669562
99	0x3e385349	0.18000521
100	0xbe8a4ae1	-0.27010253
101	0xbd9928ca	-0.07478483
102	0xbe75fafa	-0.24021521
103	0xbea71ee1	-0.32640746
104	0xbd8b343e	-0.06797074
105	0xbedbfa56	-0.4296443
106	0xbd0618ea	-0.032738604
107	0xbecab3d8	-0.39590335
108	0xbe057303	-0.13032155
109	0xbe0eb93c	-0.13937849
110	0xbea9b5f2	-0.33146626
111	0x3ca8f9f3	0.020626998
112	0x3d27e104	0.040986076
113	0x3bd2c37d	0.0064319954
114	0x3de2e603	0.110790275
115	0xbcdd0f7f	-0.026984928
116	0x3c1950d9	0.0093576545
117	0xbd7630eb	-0.060105246
118	0x3e816fd5	0.25280634
119	0xbe484548	-0.19557679
120	0x3d27e5e9	0.040990744
121	0xbe9314f3	-0.2872692
122	0x3eafc976	0.3433339
123	0xbe84363d	-0.2582263
124	0xbe8b5268	-0.27211308
125	0xbdd2f452	-0.10300507
126	0x3e6859de	0.22690532
127	0x3e98f32b	0.29873022
128	0xbdd18ffe	-0.102325425
129	0x3e76f1c9	0.24115671
130	0x3e7ff588	0.24996006
131	0xbf392c4e	-0.7233323
132	0xbde4078b	-0.11134251
133	0xbe0b5b76	-0.13609108
134	0xbedaa31d	-0.4270257
135	0x3eb54498	0.35403895
136	0xbe40e85a	-0.18838635
137	0x3dc43ee0	0.09582305
138	0x3dcf3c46	0.10118918
139	0xbf0f3ce9	-0.55952317
140	0x3d8b980a	0.068161085
141	0x3e200a9f	0.15629052
142	0xbe46a2a3	-0.19397978
143	0xbe9086d5	-0.2822787
144	0xbebaae9f	-0.3646135
145	0xbe78aa3b	-0.24283688
146	0xbc426fc4	-0.011867467
147	0xbe4c2d0c	-0.19939059
148	0x3b496edf	0.003073625
149	0xbd63efa3	-0.055648457
150	0xbe918e4b	-0.28428873
151	0xbcbf1783	-0.023326641
152	0xbe20fc3e	-0.15721223
153	0x3eb09051	0.34485105
154	0x3e34dcfe	0.17662427
155	0xbd6ee8be	-0.05832743
156	0x3e22f247	0.15912734
157	0x3c8d6d1b	0.01726394
158	0x3e57f1b5	0.21088298
159	0xbeac8039	-0.33691576
160	0xbe8652ba	-0.2623499
161	0xbec3c015	-0.38232484
162	0x3ea02fcc	0.31286466
163	0x3e90c41e	0.28274626
164	0x3d94939a	0.07254715
165	0xbda74549	-0.08167512
166	0xbe401b3e	-0.18760392
167	0xbee2c870	-0.44293547
168	0x3db14087	0.08654886
169	0xbeb2079d	-0.34771433
170	0x3e9ca46f	0.30594203
171	0x3e820954	0.25397742
172	0x3d7a595e	0.061120383
173	0x3e39171f	0.18075226
174	0xbdc74f23	-0.09731891
175	0xbc7f5a52	-0.015585499
176	0xbe0e2b84	-0.13883787
177	0x3dadef67	0.08492928
178	0x3ecacfb3	0.39611587
179	0x3b890a95	0.0041821697
180	0x3e228068	0.15869296
181	0xbe3fdaf0	-0.18735862
182	0x3cec44f9	0.028841482
183	0xbe58b67d	-0.21163364
184	0x3ec90979	0.3926504
185	0x3eb7f307	0.35927603
186	0x3d9582ce	0.0730034
187	0x3d9c39d0	0.07628214
188	0x3e9357b2	0.28777844
189	0xbe244dd4	-0.16045314
190	0x3e4e1a7e	0.20127293
191	0xbe14b2c0	-0.14521313
192	0x3ea43194	0.32069075
193	0xbe3462a4	-0.17615753
194	0x3e500691	0.20315005
195	0x3d665cb5	0.056240756
196	0xbe09bc28	-0.13450682
197	0xbdd77c4f	-0.10521757
198	0xbce10c79	-0.027471768
199	0x3dfec839	0.12440533
200	0x3ee9e7b7	0.45684597
201	0xbe32d2b2	-0.17463186
202	0xbed7aabf	-0.42122456
203	0x3e46e26a	0.19422308
204	0x3ecb56c7	0.39714643
205	0xbec514d0	-0.3849244
206	0xbe04c121	-0.12964298
207	0xbde71bdd	-0.112846114
208	0xbe4cd2da	-0.20002308
209	0xbe107f61	-0.14111091
210	0x3de2d32f	0.11075436
211	0x3d8eacdc	0.06966564
212	0x3d5ec209	0.054384265
213	0x3daa35ad	0.08311019
214	0x3d2c355a	0.042043068
215	0xbe639b73	-0.22227268
216	0xbe4d4ffa	-0.2005004
217	0x3e064119	0.1311077
218	0x3e497214	0.19672424
219	0xbe216acd	-0.15763398
220	0xbe8ad4ba	-0.27115422
221	0x3e45e3bd	0.19325157
222	0x3e5ffa59	0.21872844
223	0xbe23f5bc	-0.16011709
224	0x3e87c2df	0.26515862
225	0xbe83f446	-0.25772303
226	0xbd13a675	-0.036047418
227	0xbd65a978	-0.05606982
228	0x3e83bc5f	0.25729653
229	0x3d717463	0.058948886
230	0xbdefdd80	-0.1171217
231	0xbe9831c1	-0.2972546
232	0x3e8a9114	0.2706381
233	0x3e7d8974	0.24759465
234	0x3e2e8d4e	0.17046091
235	0x3ec9c656	0.3940913
236	0xbe9246ea	-0.28569728
237	0xbc50cfc5	-0.012744849
238	0x3e042eb8	0.12908447
239	0x3d830be1	0.0639875
240	0x3ecea55d	0.40360537
241	0xbcac1f0f	-0.021010904
242	0x3e37a9f9	0.17935933
243	0xbe876c3e	-0.2644977
244	0xbd8c0157	-0.06836193
245	0x3df4afea	0.119476154
246	0xbbfdc0e7	-0.007743943
247	0x3d8d91e0	0.06912589
248	0x3e6cf8b1	0.23141743
249	0xbeb1f1b8	-0.3475473
250	0x3dc5a734	0.09651032
251	0x3eec0bab	0.46102652
252	0x3ddce7f5	0.1078643
253	0x3eb7d3ba	0.35903722
254	0xbe615c92	-0.22007969
255	0x3c8d211f	0.017227707

k_emb_layer.weight f4 [101, 50]
0	0x3fb41d44	1.4071431
1	0xbef7ca56	-0.48396558
2	0xbfdbbfcb	-1.7167906
3	0xbcb5f1c6	-0.022210013
4	0x3e2a353f	0.16621874
5	0x3f0701d8	0.5273719
6	0x3fe2e47e	1.772598
7	0xbf54be51	-0.831029
8	0x3fa33f38	1.2753668
9	0xbf21e3ad	-0.6323803
10	0x3f9e0411	1.2344991
11	0xbe0a57c9	-0.1351005
12	0xbd35835c	-0.044314727
13	0x3fe39b59	1.7781783
14	0xbe8be24c	-0.27321088
15	0xbcdf5fc3	-0.027267342
16	0x3dde0bfc	0.108421296
17	0xbfb5b0af	-1.4194545
18	0xbebef921	-0.37299445
19	0xbf276a3b	-0.6539647
20	0x3e73809f	0.23779534
21	0x3f894caa	1.0726521
22	0x3e5d7b9e	0.21629187
23	0x3f197d8c	0.59957194
24	0x3f4fc88b	0.8116538
25	0x3f684fa4	0.9074652
26	0xbf31dc27	-0.6947655
27	0x3efd1e85	0.49437347
28	0xbf0958a6	-0.5365089
29	0xbf269600	-0.6507263
30	0xbf24da48	-0.6439557
31	0xbe585e49	-0.21129717
32	0x3fbfd2a8	1.4986162
33	0xbfcee28f	-1.616289
34	0x3d3a7481	0.045521263
35	0x3e0637b7	0.13107191
36	0x3da89541	0.08231593
37	0xbf90c38d	-1.1309677
38	0x3ea7fb1b	0.32808766
39	0xbf6d3b53	-0.92668647
40	0x3f79da64	0.9759886
41	0x3f369427	0.7131981
42	0x3f35bbaf	0.7098951
43	0xc00dd472	-2.2160916
44	0x3f4338c0	0.7625847
45	0xbff83fe6	-1.93945
46	0xbf856b49	-1.0423366
47	0xbe07417f	-0.13208579
48	0xbe5c3489	-0.21504416
49	0x3e65f44a	0.2245647
50	0xbfb23411	-1.392214
51	0xbeaba687	-0.33525488
52	0x3eacc7d2	0.337462
53	0x3f02832d	0.5098141
54	0xbc532846	-0.01288802
55	0x3f642294	0.8911526
56	0x3eb0d551	0.34537748
57	0xbed3620f	-0.4128575
58	0x400bd74e	2.1850162
59	0x3f1a5c7a	0.6029736
60	0x3fb584b7	1.4181126
61	0xbe0ac255	-0.13550694
62	0xbf8063a1	-1.0030404
63	0xbeefac61	-0.46811202
64	0xbed36ae7	-0.41292498
65	0x3f44780a	0.76745665
66	0xbfcbcb4e	-1.5921419
67	0xbf9c4323	-1.2207989
68	0xbf6389cb	-0.8888213
69	0xbf86405b	-1.048839
70	0xbfd436e8	-1.6579256
71	0x3e100eb4	0.14068109
72	0x3ddb75cc	0.10715827
73	0xbf6eba8f	-0.93253416
74	0xbd6b1853	-0.057396244
75	0xbf883439	-1.0640937
76	0x3f1228bc	0.57093406
77	0xbf9a1c62	-1.2039912
78	0x3f73ab2e	0.95183074
79	0xbf8d3e7c	-1.1034694
80	0xbe79535d	-0.24348207
81	0xc00c328e	-2.1905856
82	0x3f9b1255	1.211497
83	0x40247d48	2.5701466
84	0x3e0c6fff	0.13714598
85	0x400144aa	2.019816
86	0x3f1fa07d	0.6235426
87	0xbf4a9ca1	-0.79145247
88	0x3ee354ec	0.44400728
89	0xbeaccd04	-0.33750165
90	0xbe9e4baf	-0.30917117
91	0x3fc643c1	1.5489427
92	0xbd35019d	-0.04419099
93	0x3f52ae09	0.82296807
94	0xbeda699d	-0.42658702
95	0x3e93210f	0.2873616
96	0x3fbb0e12	1.4613669
97	0x3ebf547e	0.3736915
98	0x3dcae1fa	0.09906383
99	0xbeedc9ef	-0.46443126
100	0x3faba715	1.3410364
101	0x3e6b572d	0.22982474
102	0x3fdf62d7	1.7452039
103	0xbfd82960	-1.6887627
104	0x3f217390	0.6306696
105	0x3e45915e	0.19293734
106	0x3d9f6e37	0.07784694
107	0xbea62b81	-0.32455066
108	0xbf386dd9	-0.72042614
109	0x3d33565e	0.043783538
110	0xbe72f162	-0.23724893
111	0xbec03d92	-0.37546974
112	0x3f9f538d	1.2447373
113	0xbf2862d0	-0.65775776
114	0xbf065d01	-0.5248566
115	0x4003a5bf	2.0569913
116	0x3ef79b51	0.48360685
117	0xbf461dc5	-0.77389175
118	0xbf8f6986	-1.1204078
119	0xbf5e34a1	-0.86799055
120	0x3f84685b	1.0344347
121	0x3f2be045	0.67139083
122	0x3d82c1e1	0.06384636
123	0x4009cd1a	2.1531434
124	0xbf844bfd	-1.033569
125	0x3f127325	0.57206947
126	0x3f96f1ba	1.1792519
127	0xc059a2f3	-3.4005706
128	0x3ee12937	0.43976757
129	0x3f38aada	0.721357
130	0x4005efff	2.0927732
131	0xbff8a025	-1.9423872
132	0x3f46f536	0.7771791
133	0xbe2201a5	-0.1582094
134	0xbebb38e3	-0.3656684
135	0x3f64cca9	0.89374787
136	0xbf424539	-0.75886875
137	0xbf0ecc37	-0.5578036
138	0xbe4e9292	-0.201731
139	0xbd283acf	-0.04107171
140	0xbfcd0641	-1.6017534
141	0xbf45d682	-0.7728044
142	0xbfa893e2	-1.317013
143	0x3f9ce7d2	1.2258246
144	0x3f28bed2	0.6591617
145	0x3f91d346	1.13926
146	0x3fa73f6f	1.3066233
147	0x3f8f7d1f	1.1210059
148	0x3d89c038	0.06726116
149	0x3f29f57f	0.6639022
150	0x3fa55325	1.2915999
151	0x3f1f02eb	0.6211383
152	0x3fae64ac	1.3624473
153	0x3fd2f42e	1.6480768
154	0x3f1b5f31	0.60692126
155	0xbf88a981	-1.0676728
156	0x3feb6d46	1.8392723
157	0x3f78e97a	0.97231257
158	0x3fdb8f22	1.7153056
159	0xbe9fd94c	-0.31220472
160	0x403125bc	2.7679281
161	0x3ebe5a60	0.37178326
162	0xbf8c6004	-1.0966802
163	0xbf5acaed	-0.8546589
164	0xbf8f5245	-1.1196982
165	0xbfb345c7	-1.4005669
166	0x3ea911a4	0.3302127
167	0xbf6f62df	-0.9351024
168	0xbd58df6e	-0.052947454
169	0x3e9a589f	0.30145738
170	0xbfb90ba3	-1.4456676
171	0xbe508702	-0.20364001
172	0x3e883b40	0.26607704
173	0x3f10cd4a	0.56563246
174	0xc0002571	-2.0022852
175	0xbf12f0c6	-0.5739864
176	0x3f396d91	0.7243281
177	0x3e955551	0.29166654
178	0x3f6f7353	0.93535346
179	0xbed2dd9b	-0.41184697
180	0x3e926d14	0.28598845
181	0xbf84ddd5	-1.0380198
182	0xc000f8ff	-2.0151975
183	0xbfb2a286	-1.3955848
184	0x3ee88e5b	0.4542111
185	0xbfa7dcaa	-1.3114216
186	0xbf0f22b7	-0.55912346
187	0x3f2ca944	0.6744578
188	0x3fbcfd1d	1.4764744
189	0xbf13b6b9	-0.5770069
190	0xbf8e49ff	-1.1116332
191	0xbfa569e9	-1.2922946
192	0xbf8630bb	-1.0483621
193	0xbee545f9	-0.44779947
194	0xbf826ba0	-1.0189095
195	0xbecabb93	-0.39596233
196	0xbf5de0b7	-0.8667101
197	0xbf103575	-0.5633157
198	0xbfa6045e	-1.2970083
199	0x3fe21d28	1.7665148
200	0xbf696da4	-0.91182923
201	0xbedbe584	-0.42948544
202	0x3fb4229b	1.4073061
203	0x3e8c05ce	0.2734818
204	0x3f5ad2b3	0.8547775
205	0x3fa40bd8	1.2816114
206	0xbf45ce13	-0.7726757
207	0xbf7b4583	-0.9815294
208	0x3f765d99	0.9623657
209	0x3bc87a3a	0.006118086
210	0x40094d67	2.1453493
211	0xbe381824	-0.17977959
212	0x3d4380a4	0.047730103
213	0x3f6bf1b5	0.9216569
214	0xbfd8da77	-1.694167
215	0x3f9c68cd	1.2219483
216	0x3dc0c9b9	0.094134755
217	0xbf5214bc	-0.8206289
218	0x3ff209ef	1.8909281
219	0xbe937b05	-0.28804794
220	0xbf6f40c2	-0.9345819
221	0xbf9864b6	-1.1905735
222	0x3f1e825e	0.61917675
223	0xbd602c83	-0.05472995
224	0x3f1e31ab	0.6179454
225	0x3f9394a7	1.152974
226	0xbe0699cd	-0.13144608
227	0xbf2bee95	-0.6716092
228	0x3ec794fc	0.38980854
229	0xbde1dd9d	-0.110285975
230	0xbd9c841e	-0.07642387
231	0xbfa7fd37	-1.312415
232	0x3f88447c	1.06459
233	0xbd11bbf5	-0.03557964
234	0x3f41afb1	0.7565871
235	0xbed290f8	-0.41126227
236	0x3fa79f8e	1.3095567
237	0x3ea97848	0.3309958
238	0x403083bc	2.7580404
239	0xbf9e93c9	-1.238885
240	0xbf341bd5	-0.7035497
241	0xbdf253e9	-0.11832411
242	0xbf55c9e4	-0.83511186
243	0x3f58042b	0.8438136
244	0xbfaff802	-1.3747561
245	0xbfdd0b90	-1.7269154
246	0xbe83d51d	-0.2574853
247	0xbfa09e29	-1.2548267
248	0x3e6e2c35	0.23259051
249	0x3f0be976	0.5465311
250	0x3fa10acd	1.2581421
251	0xbf56ba63	-0.83878154
252	0xbe30036c	-0.17188805
253	0x3f55a0e2	0.8344861
254	0x3dadb751	0.084822305
255	0x3e857301	0.26064304

v_emb_layer.weight f4 [202, 50]
0	0x3f9dcec3	1.2328724
1	0xbf986add	-1.1907612
2	0x3ee86f18	0.45397258
3	0xbf5b1b1e	-0.8558825
4	0x3fb742c2	1.4317248
5	0x3f4d1a78	0.80118513
6	0x3f323615	0.6961377
7	0x3e66f479	0.22554196
8	0x3fd5fa6f	1.6717051
9	0x3fccc8e7	1.599881
10	0xbf44828f	-0.76761717
11	0xbefebc4e	-0.4975304
12	0xbfaa5f4b	-1.3310331
13	0x3e169e4e	0.14708826
14	0x3f0558a6	0.5208839
15	0xbc0d2ee6	-0.0086171385
16	0xbf9c9d57	-1.2235516
17	0x3d94f2bc	0.072728604
18	0x3d949f43	0.07256939
19	0xbffa1a75	-1.9539324
20	0xc003c59f	-2.0589368
21	0xbd9644f1	-0.07337368
22	0xbe5f8b21	-0.21830417
23	0x3f3455fc	0.704437
24	0xbfbdbc1d	-1.4823033
25	0xbc616eea	-0.013759354
26	0x3fe34954	1.7756753
27	0xbed20abb	-0.41023812
28	0x3e5535b6	0.2082127
29	0xbe8a9e89	-0.27074078
30	0xbd72308f	-0.05912834
31	0xbf1a439e	-0.60259426
32	0x3f0a5ee7	0.5405106
33	0xbf889998	-1.0671873
34	0xbfea19ad	-1.8289086
35	0x3f0bcea6	0.54612195
36	0xbe8ef3b0	-0.27920294
37	0xbf4fe9c1	-0.81216055
38	0x3e5f2726	0.21792278
39	0x3e00fe6b	0.12597053
40	0x3e5a0eaf	0.21294664
41	0xbf805d85	-1.002854
42	0xbec8edf5	-0.39244047
43	0x3ff6758a	1.925462
44	0x3e640b88	0.22270024
45	0x3f40cf08	0.75315905
46	0xbf795745	-0.9739879
47	0x3f275d15	0.65376407
48	0xbe0903ca	-0.13380352
49	0xbfdc1282	-1.7193148
50	0xbe204320	-0.15650606
51	0x3e2c4fe4	0.16827351
52	0x3fc08675	1.5041033
53	0xbf23e25d	-0.6401728
54	0xbf6ecee4	-0.9328444
55	0x3dc7cd8f	0.09756004
56	0x3f1e3c67	0.61810917
57	0x3fb2919a	1.3950684
58	0x3f8dbb17	1.107272
59	0x3e9fb986	0.3119623
60	0xbf9f7266	-1.2456787
61	0x3fa99bfd	1.3250729
62	0xbc9a0627	-0.018801762
63	0xbf6f9b6f	-0.9359655
64	0x3f2b5f77	0.6694254
65	0x3f59d372	0.85088265
66	0xbf3df7c5	-0.7420619
67	0xbf9e1c91	-1.2352468
68	0x3f40ccbb	0.75312394
69	0xbe870d1a	-0.26377183
70	0xbd706393	-0.05868871
71	0xbf4d95d5	-0.8030675
72	0x3fa157a6	1.2604873
73	0xbe7fbaab	-0.24973552
74	0x3f634827	0.8878197
75	0x3eaab318	0.33339763
76	0x3fc51ba0	1.5399055
77	0x3ffa3f76	1.9550617
78	0xbf2116dc	-0.62925506
79	0xbf85043c	-1.0391917
80	0xbf195bd9	-0.59905773
81	0x3c71eadc	0.0147654675
82	0x407170f5	3.7725194
83	0xbf269189	-0.6506582
84	0x3fbe0d71	1.4847852
85	0xbf16d43f	-0.5891761
86	0xbfaa4bcf	-1.3304385
87	0x3fafc8fb	1.3733209
88	0xbde049b1	-0.109515555
89	0xbefce92d	-0.4939665
90	0x3f0c5a54	0.5482533
91	0x3fec74b3	1.8473114
92	0x3fc65fe8	1.5498018
93	0x3f0cd14d	0.5500687
94	0x3f0adb17	0.54240555
95	0x3eeb738f	0.45986602
96	0xbf878207	-1.0586556
97	0x3ea40626	0.3203594
98	0x3ff7f4b0	1.9371548
99	0x3f97a6ba	1.1847756
100	0x3f23aaec	0.6393268
101	0x3f741709	0.9534765
102	0xbe9574ba	-0.29190618
103	0xbf061049	-0.523686
104	0x3ffd34c2	1.9781725
105	0x3ef8fe35	0.48631445
106	0xbd0d1aa5	-0.03444924
107	0xbfbc6a4c	-1.4719939
108	0x3f41fae0	0.7577343
109	0xc00e9bb1	-2.2282526
110	0x3f28cc23	0.6593649
111	0xbd8e8a23	-0.06959941
112	0x3f876818	1.0578642
113	0xbf2ebc47	-0.6825604
114	0x3e9e3e2a	0.30906802
115	0xbeb9c22e	-0.3628096
116	0x4016b048	2.3545094
117	0x3fa49f8b	1.2861189
118	0x3eab8db6	0.33506554
119	0xbf2a970e	-0.6663674
120	0x3f12e0f6	0.57374513
121	0xbe923545	-0.28556266
122	0xbec323b9	-0.38113192
123	0x3f607892	0.87683976
124	0x3f51c5bc	0.81942344
125	0x3f93763b	1.1520456
126	0x3fabcb23	1.3421367
127	0x3d22dae2	0.039759524
128	0xc008a854	-2.135274
129	0xbf0d04e5	-0.55085593
130	0x3fc9b411	1.5758077
131	0xbf298fc7	-0.6623501
132	0x3f09bfea	0.5380846
133	0x3f331286	0.6995014
134	0xbe34a9ff	-0.17642973
135	0xbf4fcbf1	-0.81170565
136	0xbebaadf0	-0.3646083
137	0xbfe978d1	-1.8239995
138	0xbf33391e	-0.7000903
139	0xbfd842b6	-1.6895359
140	0xbfab6ee7	-1.339322
141	0xbf4a3635	-0.78988963
142	0xbf0792e0	-0.5295849
143	0xbe4a5d3d	-0.1976213
144	0xbeda4437	-0.4263017
145	0x3dbd875c	0.092543334
146	0xbedb40c5	-0.42822853
147	0x3eaa80e3	0.33301458
148	0x3f1bd8a7	0.6087746
149	0xbf713bcc	-0.9423187
150	0xbeb17a9f	-0.34663865
151	0x3ff65e84	1.9247594
152	0x4027f7c0	2.6244965
153	0xbf125f63	-0.571768
154	0xbe58de49	-0.21178545
155	0x3ea504c3	0.32230195
156	0x3fef709e	1.8706243
157	0x3ceb16a3	0.028697317
158	0xbdbbb403	-0.09165194
159	0x3eacf07d	0.33777228
160	0x3ece854a	0.40336066
161	0x3dbd84a1	0.092538126
162	0xbf40d719	-0.7532821
163	0xbef154fe	-0.47135156
164	0xbeeac516	-0.4585349
165	0xbf32298e	-0.6959466
166	0x3fc46a19	1.5344878
167	0xbf530e0c	-0.8244331
168	0x3f5b46a4	0.85654664
169	0x3f91bfb3	1.1386627
170	0xbf5dcc28	-0.8663964
171	0x3fc96bec	1.573606
172	0x3dc1efdb	0.09469577
173	0xbc01398e	-0.007887257
174	0x3f2ff7fe	0.6873778
175	0xbec32b27	-0.3811886
176	0x3e80c50a	0.2515033
177	0xbed30d00	-0.41220856
178	0xbfbee97a	-1.4915001
179	0x3fb1b8d9	1.3884536
180	0x3da70948	0.08156067
181	0xb9b3d886	-0.00034302863
182	0x3fcb9d90	1.5907459
183	0x3ed9883b	0.42486748
184	0x3f9115c8	1.1334772
185	0xbeacef55	-0.33776346
186	0x3c866034	0.016403295
187	0x3fb972a5	1.4488112
188	0xbecd5e44	-0.4011098
189	0xbd907ba5	-0.07054833
190	0x3f05734b	0.5212905
191	0x3df747e7	0.12074261
192	0xbf21215c	-0.6294153
193	0xbfe59dc3	-1.793877
194	0xbf76342b	-0.9617335
195	0xbf7457af	-0.95446295
196	0x3f5cf130	0.8630552
197	0x3f9d190c	1.2273269
198	0xbc2818a6	-0.010259783
199	0x3fa0a14b	1.2549223
200	0x3def2e90	0.11678803
201	0x3f028ace	0.5099305
202	0x3eace998	0.33771968
203	0x3f2fc30e	0.68657005
204	0xbfe64263	-1.798901
205	0x3f898cda	1.074611
206	0xbfe236dc	-1.7672992
207	0x3ee19ac5	0.44063392
208	0x3ff44145	1.9082419
209	0xbfddee40	-1.7338333
210	0x3fca143d	1.5787426
211	0xbfd6d5ce	-1.6783998
212	0x3f30c3b6	0.6904863
213	0x3f1635ec	0.5867603
214	0xbecec41b	-0.40383992
215	0xbfa0a70e	-1.2550981
216	0xbf91a228	-1.1377611
217	0x3ea27ac7	0.31734297
218	0x3f1ddc78	0.61664534
219	0x3f5df2ff	0.8669891
220	0xbfcf27b3	-1.618399
221	0xbfa6bb12	-1.3025839
222	0x3dabb419	0.0838396
223	0x3f87155d	1.0553395
224	0x3fccf1ed	1.601133
225	0xbeca1906	-0.39472216
226	0xbf86b68f	-1.0524462
227	0xbea1d915	-0.31610933
228	0xbf08de1f	-0.5346393
229	0x3e22fd5c	0.15916961
230	0xbf765c96	-0.96235025
231	0xbf2f9e54	-0.68600965
232	0xbf1b4da9	-0.60665375
233	0x3ea30240	0.31837654
234	0x3ff06e89	1.8783733
235	0xbf23184c	-0.6370895
236	0xc0111c0f	-2.2673376
237	0xbfb0ee24	-1.3822675
238	0x3faa3670	1.3297863
239	0x3ce6b395	0.028161803
240	0xbf0f55f1	-0.5599051
241	0xbf86ad4f	-1.052164
242	0xbf3a1b9d	-0.72698385
243	0xbe0113c7	-0.126052
244	0xbfc1cb1d	-1.514011
245	0x3f4238f6	0.75868165
246	0xc00ba692	-2.1820416
247	0x3f582620	0.84433174
248	0x3f495312	0.7864238
249	0x3f81af1d	1.0131565
250	0xbf4efa55	-0.80850726
251	0x3fc2cb24	1.5218244
252	0xc02809e4	-2.6256037
253	0x3fa93fab	1.3222555
254	0xbf2b3870	-0.6688299
255	0x3f73ff2d	0.9531124

f_layer.weight f4 [50, 100]
0	0xbda96b59	-0.08272428
1	0xbdae98e8	-0.08525258
2	0x3ddcc2d9	0.10779352
3	0x3d9b41a4	0.07580879
4	0x3d854832	0.06507911
5	0xbe22bdce	-0.15892717
6	0xbe3a8a05	-0.18216713
7	0xbe3f6a6a	-0.18692937
8	0x3eb34a29	0.35017517
9	0x3d95d895	0.073167
10	0x3eb27534	0.34855044
11	0x3c957bf4	0.018247582
12	0x3dca13cf	0.098670594
13	0x3df428df	0.11921858
14	0x3d93ae83	0.0721102
15	0xbdd71f00	-0.1050396
16	0x3e384177	0.17993723
17	0xbd9b7d0a	-0.07592209
18	0x3ddb6d79	0.107142396
19	0xbccb3961	-0.024807634
20	0x3e77ee93	0.24212103
21	0xbe8699b9	-0.26289156
22	0x3e071478	0.13191402
23	0x3d857aa2	0.06517531
24	0xbe16b523	-0.14717536
25	0x3ec1e2f8	0.37868476
26	0x3ed2fb04	0.41207135
27	0x3e3ee8eb	0.18643539
28	0xbd158715	-0.036505777
29	0x3d9c1ec0	0.076230526
30	0xbd07b257	-0.033129063
31	0xbe042b65	-0.12907179
32	0x3d6d0a76	0.057871304
33	0x3d168b2f	0.03675383
34	0x3ddfb821	0.10923792
35	0xbde6a927	-0.11262732
36	0x3e773b97	0.24143825
37	0xbe92da5e	-0.28682226
38	0xbe27587b	-0.16342346
39	0x3e1844e7	0.14870034
40	0xbe4c55f8	-0.1995467
41	0xbebf1642	-0.3732167
42	0xbde6e5c8	-0.11274296
43	0xbe80fae4	-0.25191414
44	0x3e64faf2	0.22361353
45	0x3e010f50	0.12603498
46	0x3d0e8aae	0.034800224
47	0x3e8af6bd	0.2714137
48	0x3e7bd0e2	0.24591401
49	0x3d8bf569	0.06833918
50	0x3cc3088a	0.023807783
51	0xbc8e769b	-0.01739054
52	0x3c999dd5	0.018752018
53	0x3e109086	0.14117631
54	0xbb033952	-0.002002318
55	0xbd54d4d7	-0.051960792
56	0x3d8c66ec	0.06855568
57	0xbd0b02ef	-0.033938345
58	0x3e50d5fb	0.20394127
59	0xbd454d03	-0.048169147
60	0x3db71858	0.0894019
61	0xbe2f197e	-0.17099568
62	0xbcae5c1e	-0.02128416
63	0x3d548ebe	0.051893942
64	0x3d2dcfb1	0.042434398
65	0x3db05e7d	0.08611772
66	0xbc5ac59a	-0.013352776
67	0x3e1e0010	0.15429711
68	0x3c060751	0.008180455
69	0x3e3d9e3b	0.18517391
70	0xbc6137bb	-0.013746197
71	0xbdbd0b43	-0.092306636
72	0x3d6d8420	0.057987332
73	0xbe7c5263	-0.24640803
74	0xbe754d83	-0.2395535
75	0xbd5ab8e5	-0.053398985
76	0xbd3b1f6b	-0.04568426
77	0x3c546092	0.012962477
78	0xbd8cc42b	-0.068733536
79	0xbe801f5f	-0.25023934
80	0xbd5516fc	-0.052023873
81	0x3c2d61db	0.010582413
82	0x3c6821eb	0.014168243
83	0xbdc464e6	-0.09589557
84	0x3e21fc1f	0.15818833
85	0x3dc0eb4f	0.094198816
86	0xbd9002cc	-0.070317835
87	0xbcfe3c0c	-0.031034492
88	0x3cddc308	0.027070537
89	0xbd470e74	-0.048597768
90	0xbbc81d46	-0.0061070053
91	0x3c9c2867	0.019062234
92	0xbdd1532e	-0.102209434
93	0xbd8ba93a	-0.06819387
94	0xbe409fe7	-0.18810998
95	0x3dd3e13f	0.10345697
96	0x3de3a72b	0.11115869
97	0x3e1190d7	0.14215408
98	0x3e1a1a1d	0.15049024
99	0x3cdf7040	0.027275205
100	0xbe1d4421	-0.1535802
101	0x3dbeb2c0	0.093114376
102	0xbe312c0e	-0.17301962
103	0x3d1ced2d	0.038312126
104	0xbe1bbc12	-0.15208462
105	0x3e258195	0.16162713
106	0x3d8a4cad	0.06752906
107	0xbde7ca81	-0.113179214
108	0x3d9deec4	0.077115566
109	0x3d10aee8	0.035323054
110	0x3e334d81	0.17510034
111	0xbcd22279	-0.025651203
112	0xba59a1bb	-0.0008301993
113	0x3e573c1a	0.2101902
114	0x3cfe6715	0.031055013
115	0x3d50b117	0.050950136
116	0xbe0d49a3	-0.13797621
117	0xbeaf1db8	-0.3420236
118	0x3d90cf42	0.07070781
119	0xbd0657c9	-0.032798562
120	0xbccdcbdb	-0.02512162
121	0x3d7345a0	0.05939257
122	0x3cb85437	0.022501094
123	0xbb599984	-0.0033203075
124	0x3b76397b	0.0037570882
125	0xbe1d2b91	-0.1534865
126	0xbe92f4e5	-0.28702465
127	0x3d0331e3	0.032029998
128	0x3caba17d	0.020951027
129	0xbe488d05	-0.19585045
130	0x3e2253ce	0.15852281
131	0xbe75c430	-0.24000621
132	0xbe15017e	-0.1455135
133	0x3dd098d1	0.101853974
134	0x3d143c76	0.036190473
135	0x3e8a8bbd	0.27059737
136	0x3db19cda	0.08672495
137	0x3dff531c	0.12467024
138	0x3e086360	0.13319159
139	0xbdf58ce1	-0.11989761
140	0xbe37081f	-0.17874192
141	0x3e6192c4	0.22028643
142	0xbd3f124f	-0.04664832
143	0x3de2628d	0.11053953
144	0xbd0111f7	-0.031511273
145	0x3e668b4f	0.2251408
146	0xbe8e8a50	-0.278399
147	0xba9ebc34	-0.0012110532
148	0x3de8ffd2	0.11376919
149	0xbc491215	-0.0122723775
150	0xbe313509	-0.17305388
151	0xbe30b7af	-0.1725757
152	0xbd93e9e5	-0.07222346
153	0xbe21a4c5	-0.15785511
154	0x3e2150ec	0.15753525
155	0xbdf064d9	-0.11737985
156	0x3db4c633	0.08826866
157	0xbce262ec	-0.02763506
158	0x3d71ead5	0.059061844
159	0x3df5c49a	0.120003894
160	0x3c8e12d9	0.017342972
161	0x3da12e30	0.07870138
162	0x3db0ee2e	0.08639179
163	0xbd93d726	-0.07218771
164	0x3d4546a5	0.048163075
165	0xbe498f74	-0.1968363
166	0xbd1804c8	-0.037113935
167	0x3d7bc5ea	0.061468042
168	0xbda5f396	-0.08103101
169	0x3cab54b9	0.020914422
170	0x3d89e134	0.06732407
171	0xbe3671bd	-0.17816825
172	0xbd2d81ba	-0.042360045
173	0x3de143e8	0.1099928
174	0x3dc3bd9b	0.09557649
175	0x3d0f51a3	0.034989964
176	0x3bb76787	0.005597058
177	0x3dd1f6a5	0.10252122
178	0xbdfeed42	-0.12447597
179	0x3caf99f6	0.021435719
180	0xbd2f74a6	-0.042835854
181	0xbdec1bce	-0.11528741
182	0x3e3e242c	0.18568486
183	0x3cf60843	0.030033236
184	0xbd2f937b	-0.042865258
185	0x3cc6aece	0.024253275
186	0x3e307aac	0.17234296
187	0x3dee2937	0.11628955
188	0x3d8dcd86	0.06923966
189	0x3e26d4c5	0.16292103
190	0xbe0913b3	-0.13386421
191	0x3db8c5ec	0.090221256
192	0x3cf32537	0.029680831
193	0xbc42c1f0	-0.011887059
194	0x3dd05db0	0.101741195
195	0xba8929dc	-0.0010464746
196	0xbdbd390e	-0.09239398
197	0xbdf6503b	-0.120270215
198	0xbcacbeec	-0.021087132
199	0xbe190ce6	-0.14946327
200	0x3ebb020a	0.36524993
201	0x3d987aba	0.07445283
202	0xbe503a01	-0.20334627
203	0x3e5fd0c0	0.21856976
204	0x3cad2b6e	0.021138873
205	0xbe394ea5	-0.18096407
206	0xbeb0ddbc	-0.3454417
207	0x3ec3151e	0.3810205
208	0x3d72fe4d	0.05932455
209	0xbdeb19df	-0.11479544
210	0x3e5f5b55	0.21812184
211	0x3c728bd2	0.014803844
212	0x3ce9defe	0.028548714
213	0xbd618e86	-0.05506756
214	0x3d96aa85	0.07356743
215	0x3eb1c74c	0.34722364
216	0xbea662e5	-0.32497326
217	0xbd7d62b1	-0.061861698
218	0xbea69f78	-0.3254354
219	0x3d763d8f	0.0601173
220	0xbd50c854	-0.050972298
221	0xbe28fe51	-0.16503264
222	0x3de7aa62	0.11311795
223	0xbe65a7cb	-0.22427289
224	0xbe942d9c	-0.28941047
225	0x3e21125c	0.1572966
226	0xbeb0b74d	-0.34514847
227	0xbf0c7e7c	-0.548805
228	0x3ecfc2da	0.40578347
229	0x3db60455	0.08887545
230	0x3cd015fa	0.025401104
231	0xbe88b2f8	-0.26699042
232	0xbc957c3c	-0.018247716
233	0x3e48c891	0.1960776
234	0xbe2282c6	-0.15870199
235	0x3ee64a35	0.4497849
236	0xbd25fc00	-0.04052353
237	0xbd816b86	-0.063193366
238	0x3dfa6c46	0.12227683
239	0xbe87571e	-0.26433653
240	0xbd74b7bf	-0.059745546
241	0x3e9d00eb	0.30664763
242	0xbe5d9ea7	-0.21642552
243	0xbe0cd430	-0.13752818
244	0xbd7eb8df	-0.062188026
245	0x3df4db99	0.119559474
246	0x3e22ef7f	0.15911673
247	0xbe344c3f	-0.1760721
248	0x3e1f9722	0.15584996
249	0x3ab5f13d	0.0013881099
250	0x3d474f61	0.048659686
251	0xbe15d540	-0.1463213
252	0x3d5960d0	0.053070843
253	0x3e01087c	0.12600893
254	0xbe58cad2	-0.2117112
255	0xbd1504b7	-0.03638145

f_layer.bias f4 [50]
0	0xbc010810	-0.007875457
1	0x3b0ddc37	0.002164615
2	0x3ca314d9	0.019907402
3	0x3da46c67	0.080284886
4	0xbd8b5b39	-0.06804509
5	0xbd1dc6dc	-0.038519725
6	0xbdaf0c9b	-0.08547326
7	0xbcf4a235	-0.029862503
8	0xbaa122bd	-0.0012293678
9	0x3e130751	0.1435826
10	0x3d7dcca9	0.061962757
11	0x3ca7edf6	0.02049921
12	0xbde64e61	-0.11245418
13	0x3e16d184	0.14728361
14	0x3de20277	0.110356264
15	0xbda1e8f6	-0.07905762
16	0xbd1c9fae	-0.03823822
17	0x3db388ad	0.08766303
18	0x3d0e7061	0.03477514
19	0x3d23bfaa	0.039977707
20	0xbd521e7c	-0.051298603
21	0xbdeae742	-0.1146989
22	0x3be12315	0.006870637
23	0x3b4142dd	0.0029489317
24	0x3c91a8ac	0.017780624
25	0xbbbb5fe7	-0.0057182196
26	0xbdbbb218	-0.09164828
27	0xbd8057e7	-0.06266766
28	0xbd048386	-0.032351993
29	0x3d4bc5b6	0.0497491
30	0x3e08f813	0.13375883
31	0x3d4b6d34	0.04966469
32	0xbcdb42d9	-0.026765274
33	0x3c281ac1	0.010260285
34	0x3d85eb68	0.06539041
35	0x3e03d94f	0.12875865
36	0xbd8f2a7b	-0.069905244
37	0x3d29f654	0.041494682
38	0x3c82564c	0.01591029
39	0xbc4851f1	-0.012226568
40	0x3daf1969	0.085497685
41	0x3de6490d	0.11244402
42	0x3e1952d6	0.14973006
43	0x3d315e5c	0.04330288
44	0xbdf96764	-0.12177923
45	0xbc9fb1af	-0.019493906
46	0xbe0432ff	-0.12910078
47	0xba442165	-0.0007481783
48	0xbda7ad9a	-0.08187409
49	0xbceb5421	-0.02872664

p_layer.weight f4 [1, 50]
0	0x3ec6993c	0.38788784
1	0xbe8800d6	-0.26563138
2	0xbea883cf	-0.32913062
3	0xba8cf72c	-0.0010754815
4	0x3eb3bc8a	0.3510478
5	0xbeaa2cad	-0.3323721
6	0xbde3dc9c	-0.11126062
7	0x3e8e17b7	0.27752468
8	0xbe37a2f3	-0.17933254
9	0x3e36200a	0.1778566
10	0x3ea578b6	0.32318658
11	0xbe3549f1	-0.17703988
12	0x3e5b420c	0.21411914
13	0x3e837428	0.25674558
14	0x3e9a7c37	0.30172893
15	0x3ee8c0b7	0.4545953
16	0x3eb251e1	0.34828094
17	0x3e8ce014	0.27514708
18	0x3e9ae0c6	0.30249614
19	0x3e7deacb	0.24796598
20	0x3e9404c0	0.28909874
21	0xbe7676e1	-0.24068786
22	0x3e694f81	0.22784235
23	0xbe777cae	-0.24168655
24	0xbe00b839	-0.12570275
25	0x3e7c1d02	0.2462044
26	0xbe37057d	-0.17873187
27	0x3e8fe14a	0.2810157
28	0xbea16a63	-0.3152648
29	0x3e4b9a64	0.19883114
30	0x3e8295f5	0.25505033
31	0xbec0156c	-0.37516344
32	0xbe8092e4	-0.2511207
33	0xbeb73a78	-0.35786796
34	0xbe2d8fcd	-0.16949387
35	0x3e834612	0.25639397
36	0xbe8dacf3	-0.27671012
37	0x3ea5633d	0.32302275
38	0xbe84bcde	-0.25925344
39	0x3ea5a000	0.32348633
40	0xbed6c6db	-0.4194859
41	0xbd504150	-0.050843537
42	0x3eb67c4d	0.3564171
43	0xbe970bcc	-0.29501188
44	0xbe2105b2	-0.15724829
45	0xbe622352	-0.22083786
46	0xbe592352	-0.2120488
47	0x3ebd084e	0.36920398
48	0xbeaba104	-0.33521283
49	0x3e3cae8d	0.18425961

e_layer.weight f4 [50, 50]
0	0x3cf6b1cf	0.030114083
1	0x3db4834d	0.08814106
2	0x3d1e7671	0.038687173
3	0xbc9a942e	-0.018869486
4	0xb907a9f0	-0.0001293791
5	0x3edeb39e	0.43496412
6	0xbe80692e	-0.25080246
7	0x3cd030fb	0.02541398
8	0xbd996f01	-0.074918754
9	0xbe152f44	-0.14568812
10	0x3a407796	0.00073420384
11	0x3dfe2ff2	0.124114886
12	0x3d5c1282	0.053728588
13	0xbec574fd	-0.38565817
14	0x3e9d3972	0.3070789
15	0x3e52711e	0.20550963
16	0x3e121072	0.14264086
17	0x3d10f29c	0.03538762
18	0xbdb7fa48	-0.08983284
19	0xbd917cde	-0.07103895
20	0xbe115306	-0.14191827
21	0x3e277087	0.1635152
22	0xbd5851ee	-0.05281251
23	0x3e0fe246	0.1405116
24	0xbcb57f04	-0.022155292
25	0x3e76f16a	0.2411553
26	0x3e9c7cb0	0.3056388
27	0x3e512c94	0.20427161
28	0xbe24e35d	-0.16102357
29	0x3ea5b44a	0.32364112
30	0x3e88b2bd	0.26698866
31	0xbded2951	-0.11580146
32	0xbd1720a4	-0.036896363
33	0x3dbec4d0	0.09314883
34	0xbd20a419	-0.039218996
35	0xbd5b4565	-0.053532977
36	0xbde950a8	-0.11392337
37	0xbeded4e6	-0.43521804
38	0x3cfb3738	0.030665979
39	0xbda76b18	-0.081747234
40	0x3e3bba4d	0.18332787
41	0xbdfc6766	-0.12324409
42	0xbc630b77	-0.013857714
43	0x3cbc605c	0.022995166
44	0x3d8cc816	0.06874101
45	0x3e055053	0.13018923
46	0xbeab5910	-0.33466387
47	0x3d413424	0.047168866
48	0xbe531c4f	-0.20616268
49	0xbdc03483	-0.09385016
50	0x3dcc8db6	0.09987967
51	0xbefa3e5b	-0.48875698
52	0xbd23132c	-0.039813206
53	0xbe4ac9d9	-0.19803561
54	0xbe82c0fe	-0.25537866
55	0x3e884860	0.26617718
56	0xbcd8dc67	-0.026472284
57	0x3e1cf03c	0.15326017
58	0x3db3f1f4	0.08786383
59	0x3edb32f8	0.42812324
60	0xbd9fc260	-0.07800746
61	0x3e346ade	0.17618892
62	0x3c05f150	0.008175209
63	0x3d0136e5	0.031546492
64	0x3dd07525	0.101785935
65	0x3c37efb9	0.011226588
66	0xbe6eb002	-0.23309329
67	0x3e09a062	0.13440087
68	0xbe6eca77	-0.23319422
69	0xbeba7392	-0.36416298
70	0xbd99464b	-0.074841104
71	0xbd840dc4	-0.06447938
72	0xbe4516a7	-0.19246922
73	0x3df31530	0.118692756
74	0x3e8046de	0.25054067
75	0x3e364b6d	0.1780221
76	0xbea00ef8	-0.3126142
77	0x3e56bbd7	0.20970093
78	0xbd9f06d6	-0.07764976
79	0xbec9550b	-0.39322695
80	0xbd884929	-0.06654579
81	0x3edc3d3a	0.43015462
82	0xbe28b8fd	-0.16476817
83	0xbe9ca156	-0.3059184
84	0xbe4eaae5	-0.20182379
85	0x3e3b078a	0.18264595
86	0x3e3c5fbf	0.18395899
87	0xbc4fddf3	-0.012687194
88	0xbda700a7	-0.08154421
89	0xbdd7a867	-0.10530167
90	0xbe03511a	-0.12823907
91	0x3e232f59	0.1593603
92	0xbde71d47	-0.11284881
93	0xbe40d995	-0.18833001
94	0x3e805139	0.25061968
95	0xbe517f7e	-0.2045879
96	0xbd14c623	-0.03632177
97	0xbf06334d	-0.5242203
98	0x3db41008	0.0879212
99	0xbec264e7	-0.37967607
100	0x3db7ea45	0.0898023
101	0xbe038f82	-0.12847713
102	0xbeb9a352	-0.36257416
103	0xbed01bf3	-0.40646324
104	0x3e044c32	0.12919691
105	0x3cd4d1ad	0.025978887
106	0xbd5e6766	-0.054297827
107	0x3e282781	0.1642132
108	0xbe91f6f9	-0.28508738
109	0xbdaa96f9	-0.08329577
110	0x3de26f32	0.11056365
111	0xbcdd3008	-0.027000442
112	0x3dcf7a3a	0.10130735
113	0x3ec4e556	0.3845622
114	0x3dfc2116	0.12310998
115	0x3e028828	0.12747252
116	0xbe7f2e50	-0.2492001
117	0x3e66d1c8	0.22540963
118	0x3e58135f	0.2110114
119	0xbe4ec993	-0.20194082
120	0xbcc49581	-0.02399707
121	0x3db7bf97	0.0897209
122	0xbe573bbc	-0.2101888
123	0xbef81ade	-0.48457998
124	0x3c836626	0.01603992
125	0x3e5b69aa	0.21427026
126	0x3d80d7a6	0.06291132
127	0x3e5a54e7	0.2132145
128	0x3dbb3772	0.09141435
129	0xbd80bbf7	-0.062858514
130	0x3dbf2389	0.0933295
131	0x3d70ce22	0.058790334
132	0xbddb0890	-0.106949925
133	0xbec04a6c	-0.3755678
134	0xbea82457	-0.32840225
135	0xbd21f21c	-0.039537534
136	0xbd5851d5	-0.052812416
137	0x3d0c34ca	0.03423003
138	0xbdd0b138	-0.10190052
139	0xbe67dc5f	-0.22642659
140	0x3dbd97d0	0.092574716
141	0xbdd3eb14	-0.10347572
142	0x3f0500f1	0.5195456
143	0xbe137e06	-0.14403543
144	0x3e86c34f	0.26320884
145	0xbef61543	-0.48063096
146	0x3e2b4640	0.16726017
147	0xbed2dfa1	-0.4118624
148	0xbde677ab	-0.112532936
149	0xbe9e9039	-0.30969408
150	0x3cb25d38	0.021772966
151	0x3e2042bb	0.15650456
152	0x3e32ccd6	0.17460951
153	0xbec1ab20	-0.3782587
154	0xbe65f480	-0.2245655
155	0x3d5a563a	0.05330489
156	0x3ea7cf8c	0.32775533
157	0xbe259e64	-0.16173702
158	0x3e300407	0.17189036
159	0x3d12a55a	0.035802223
160	0x3e518501	0.20460893
161	0xbe0cd825	-0.13754328
162	0x3ee60983	0.44929132
163	0xbe0d3f9e	-0.137938
164	0x3a155294	0.0005696204
165	0xbdb32a97	-0.08748358
166	0xbda7e1c5	-0.08197359
167	0x3df5a794	0.119948536
168	0xbd8e76c8	-0.069562495
169	0xbe838863	-0.25689992
170	0x3d264e3b	0.04060195
171	0xbe092988	-0.13394749
172	0x3e46f5db	0.19429724
173	0xbe66d38a	-0.22541633
174	0x3dcc4cbc	0.099755734
175	0x3e86347c	0.26211917
176	0x3dd976e0	0.10618377
177	0x3dcc80c7	0.099855
178	0xbe39e106	-0.18152246
179	0x3e2389c6	0.15970525
180	0x3ce4741a	0.027887393
181	0xbdd4391d	-0.10362456
182	0x3d11a239	0.0355551
183	0x3e20b715	0.1569484
184	0x3ea30284	0.31837857
185	0xbe0e5b5b	-0.13902037
186	0x3e2a30af	0.16620134
187	0xbd402f6e	-0.046920232
188	0xbe533300	-0.20624924
189	0xbeeea96a	-0.46613628
190	0x3e188d9e	0.14897773
191	0xbe66ea12	-0.22550228
192	0x3e4eb2cc	0.20185393
193	0xbad93341	-0.0016571061
194	0xbdee6d5b	-0.11641952
195	0x3bf2bb71	0.0074075987
196	0x3e3e9e32	0.18615034
197	0x3d99edf3	0.07516088
198	0xbe3f0b75	-0.18656714
199	0xbe1c3a66	-0.15256652
200	0xbe39a40d	-0.18128987
201	0x3c25e1d1	0.01012464
202	0xbc0083e3	-0.007843944
203	0x3e0127fd	0.1261291
204	0xbc2c40a0	-0.010513455
205	0xbe11c297	-0.14234386
206	0x3e8fae5a	0.28062707
207	0xbd178717	-0.036994066
208	0xbdcfaa81	-0.10139943
209	0xbd511f7c	-0.051055416
210	0xbe8238cb	-0.25433955
211	0xbc907a52	-0.017636452
212	0x3df618e4	0.12016466
213	0x3e69ec74	0.22844106
214	0xbeca36e3	-0.39495
215	0x3d1e7200	0.038682938
216	0xbee40c60	-0.4454069
217	0xbe2b5321	-0.1673093
218	0xbec78566	-0.38968962
219	0x3e4d0df5	0.20024855
220	0xbf032672	-0.5123054
221	0xbe1486ff	-0.14504622
222	0xbe75ed38	-0.24016273
223	0xbd09294e	-0.033486657
224	0xbe246ef0	-0.16057944
225	0x3e5b36ab	0.21407573
226	0x3d965970	0.073412776
227	0x3c31747a	0.010830993
228	0xbdb98163	-0.09057882
229	0xbdbb667e	-0.09150408
230	0xbebaa176	-0.3645131
231	0xbb14cdda	-0.0022705705
232	0xbe05a32e	-0.1305053
233	0xbeec17cb	-0.46111903
234	0xbda71083	-0.08157446
235	0x3d9b462b	0.07581743
236	0x3ece92f0	0.4034648
237	0x3e899ba2	0.2687655
238	0x3e063cbf	0.1310911
239	0x3c7ae42b	0.015313189
240	0xbc53f63c	-0.012937125
241	0xbd69bc83	-0.057064544
242	0x3e95a7a4	0.29229462
243	0xbe12cf5b	-0.14336912
244	0xbebc711f	-0.36805055
245	0x3b98ede4	0.0046670306
246	0xbea821eb	-0.32838377
247	0x3d0373e1	0.032092933
248	0x3dd68e4f	0.10476362
249	0x3e4cfd3c	0.20018476
250	0x3e38e7ad	0.18057127
251	0xbea1524e	-0.31508106
252	0x3e64288a	0.2228109
253	0x3e68c7c2	0.22732452
254	0xbe5c11b4	-0.21491128
255	0x3e352f62	0.17693856

e_layer.bias f4 [50]
0	0xbddf83ac	-0.10913786
1	0xbe2c78fa	-0.16843024
2	0xbdc9c050	-0.09851134
3	0x3f1852e0	0.5950146
4	0xbc7a9666	-0.015294647
5	0x3dd332eb	0.10312446
6	0xbe8d9f39	-0.2766054
7	0xbe939f1f	-0.28832337
8	0xbda700bd	-0.08154438
9	0xbc92c1ca	-0.017914671
10	0x3e6bdff6	0.23034653
11	0x3e23924a	0.15973774
12	0xbeba3ff3	-0.36376914
13	0x3dd4bbbf	0.10387372
14	0xbd8cef20	-0.06881547
15	0x3e12dc52	0.14341858
16	0x3e23071e	0.15920684
17	0xbe254ff5	-0.16143782
18	0xbdf9b4ff	-0.121927254
19	0x3e3b6248	0.1829921
20	0x3e000780	0.12502861
21	0x3d17c375	0.037051637
22	0x3d82b624	0.06382397
23	0xbd9f9583	-0.07792189
24	0x3dae5e93	0.08514132
25	0xbc322b97	-0.01087465
26	0xbd8b44bf	-0.06800222
27	0x3cd9a39f	0.026567278
28	0x3d213793	0.03935964
29	0xbe82a6ef	-0.25517985
30	0x3d842e05	0.0645409
31	0x3e39ca21	0.18143512
32	0xbf34e778	-0.70665693
33	0x3d46b293	0.048510145
34	0x3e5cf539	0.2157792
35	0x3ec5459c	0.3852967
36	0xbdff66fe	-0.12470816
37	0x3d85ba1f	0.065296404
38	0x3e5aa005	0.21350105
39	0x3ee5804e	0.4482445
40	0xbe1eb6f3	-0.15499477
41	0x3e92706a	0.2860139
42	0x3f34c879	0.70618397
43	0xbebb8e00	-0.36631775
44	0x3aa88554	0.0012857118
45	0x3d481dc5	0.048856515
46	0xbe10b1c5	-0.14130314
47	0xbe88a502	-0.2668839
48	0xbe280019	-0.16406287
49	0x3d67063b	0.056402426
