DeepModels/ckpts_precomputed/dkt/ASSIST2009/model.ckpt (torch, 145262 bytes, 7 tensors)

interaction_emb.weight f4 [202, 50]
00000000: c7d8 d4bc 67f1 c63e aa09 f8bf 09c9 c9bf
00000010: f313 173e b068 b1be 93b7 0ec0 1f88 82bf
00000020: aad3 8cbf 42ca 66bf e3ba 303f 94c0 e7be
00000030: 61ce abbf 854e ca3e 11a8 14bf 4254 dbbc
00000040: 3c73 d3bf 9b50 3e3f bf47 9ebf 8888 293f
00000050: 5f86 a33f 7453 803d 1070 043f 7f03 853e
00000060: 9ff7 2ebf a5a6 6c3e 9efd 943b 1cdc b7bf
00000070: f2d8 d63f ea8b f0be f763 aebf 95c7 553f
00000080: 0d54 dabe f165 8dbe f967 38bf 4adb 65be
00000090: b084 9ebf 8c2a bcbf ef9f 873f 18ff 0240
000000a0: 2bc1 a03f 3857 9d3e d71d 8ebe b53f 9bbf
000000b0: 20b2 603f 3f25 c03f 933f c5bf 671c be3e
000000c0: 3ad2 85bf 7658 fd3f db3d 59bd 9ab8 46bf
000000d0: 482d d8bf 0cd0 95bd 921e 3c3d 395b fe3d
000000e0: 917c ed3e bb51 e23e 5c35 b2be 6e1a 97bf
000000f0: 9d59 92bf b112 7c3e bea1 4bbe 0874 0abe
00000100: 4393 6fbe 06c7 6abd c676 023f 3add 313f
00000110: cff3 703f 685b 433f 9c8e efbe 9e43 2b3d
00000120: 58f3 e8bc 5ec6 033e 36d4 82be b7e0 b4bf
00000130: 6549 343d f048 22bd 1882 85bf f9dc c43e
00000140: 1a97 f7be 1e08 053f 98b9 36c0 2f95 2fbd
00000150: 3b00 81be 84f2 643f a0c9 c2bf cd28 1b3f
00000160: a919 d23e 9f43 bbbf c225 f9bd 381a a2be
00000170: 5247 e3bf ee83 d33f 2006 5ebf b88b 343f
00000180: f331 b03e ca84 6abf cc40 973c 30d6 833f
00000190: 695b 95bf 9fff 32bf ec79 a1bf 096a 273e
000001a0: 497d c73f f7e7 afbf 36d4 79bf f1a3 6b3f
000001b0: 764c 973c 560b c3be 96b0 fabd 2e7d 843d
000001c0: b8ca bbbc d2d1 5d3e a0e4 5a3f 32db d3be
000001d0: caea ae3f 5827 d93d 9ae0 63bf 1859 0abf
000001e0: 785a a7be df7a 2ebf 6240 06c0 f46d a9bf
000001f0: de03 5e40 f8b3 123f 42ac 3dbf 657b 883e
00000200: 94fb 473f 03c1 8bbf 4aa4 33bf 861a 3e3f
00000210: 05a4 423e 6582 cbbf adf2 cd3f 5d48 17bf
00000220: 28b3 77be 8980 473f 6c8f 1cbf cb93 ee3c
00000230: 2d85 a53e 7899 95be 680c 8dbf 851d 76be
00000240: a8a2 55bf d0f4 893f d54c c4bf 613e 8b3e
00000250: 725a a5ba 6b7a bebe fac0 1ebf b899 033f
00000260: f1bd 813f 14fc 7e3f 6844 2240 191a e6bf
00000270: 9ccc 283f b9ed ddbe bea1 803e 79fd 853f
00000280: f1d5 c73e 0d40 383e 274b 4d3f ccdd faba
00000290: a148 86bf 138f 613f 18e1 2940 b029 e2bf
000002a0: 4163 06bf 7203 2abf a876 cbbd b07c 03bf
000002b0: 10e9 113e 9744 96be 4a90 b33f 8a6c a7bd
000002c0: f414 6bbf d8f2 593f d089 33bf 5895 b0be
000002d0: c0f8 05be e546 503d dd90 843f 0860 8a3f
000002e0: bb70 ae3e 03ee 7c3f c816 f43f 720e 50bf
000002f0: 66ac 29bf b323 a13f 4949 e53d 82d4 6c3c
00000300: 120f 0dbf 17ea bebf 6687 7a3e ede1 983e
00000310: 728f 00bf 7a5d 6ebf b222 a93f 51ab 063f
00000320: 7a4e 2cc0 02c9 89be 896b 0bc0 2fea 953f
00000330: 7a67 923f 3bc0 2b3f d4f3 f4be 29a1 d13e
00000340: 39c2 df3f fd49 22bf 3001 e03f fb98 ecbe
00000350: 76c5 943f 55d7 c43e bcb4 d53e fb59 62bf
00000360: 0b41 bb3f 699f 963f 644a 56bf 55db 4c3f
00000370: 00b3 7ebf c453 3dbf 9c58 a8bf aa5d 89bf
00000380: f09a 0bbf b43d 4b3d 7538 f4bf 9b4b eb3e
00000390: 7742 f53f cd4b a53f e6b9 21bf 18de 283f
000003a0: 2e69 dcbf e08f c43f e3c9 1fbf a8e2 6b3e
000003b0: e32e c43f d894 473f 19a9 8fbe fdc7 7e3f
000003c0: 4333 883e bcc2 913e 230f 173e 3453 9f3f
000003d0: 6245 823f 3967 acbf 37ae 9e3f c370 4a3f
000003e0: f56f a9bf 1dca 103f b12f 4e3f f735 bb3f
000003f0: 1588 b93e cc91 1bbe ab16 9dbe c2d6 87bf
-0.025982274 0.3885605 -1.9377949 -1.5764476 0.14753704 -0.34650183 -2.2299545 -1.0197791
-1.1002095 -0.9015237 0.69035167 -0.45264113 -1.3422357 0.3951303 -0.5806895 -0.026773576
-1.6519542 0.74341744 -1.2365645 0.66223955 1.2775382 0.062659174 0.51733494 0.2597923
-0.6834659 0.23110445 0.004546835 -1.4364047 1.6784956 -0.46981746 -1.3624257 0.83507663
-0.4264225 -0.27616838 -0.7203365 -0.22446933 -1.2384243 -1.4700484 1.0595683 2.0468197
1.255895 0.30730605 -0.2775714 -1.2128817 0.877718 1.5011367 -1.5410026 0.37131044
-1.0454781 1.9792621 -0.053037506 -0.7762543 -1.6888819 -0.073150724 0.04592759 0.12419743
0.463841 0.4420298 -0.34806335 -1.1804941 -1.1433598 0.24616505 -0.19885918 -0.13520825
-0.2339602 -0.05731871 0.50962484 0.6947819 0.9412202 0.7631135 -0.4678849 0.04181253
-0.028436348 0.1286864 -0.2555253 -1.4131078 0.044015307 -0.03962034 -1.0430326 0.3844984
-0.4835747 0.5196551 -2.8550777 -0.042866882 -0.25195488 0.8943255 -1.5217781 0.6060913
0.41035202 -1.4630011 -0.12165405 -0.31660628 -1.775614 1.6524637 -0.86728096 0.70525694
0.34413108 -0.9160887 0.018463515 1.029974 -1.1668521 -0.69921297 -1.2615333 0.16349043
1.5585109 -1.3742665 -0.97589433 0.9204703 0.018469077 -0.38094586 -0.12240712 0.06469189
-0.022923812 0.21662071 0.85505104 -0.4137817 1.3665402 0.10603207 -0.8901459 -0.54042196
-0.3268621 -0.68156236 -2.0976796 -1.323668 3.468986 0.5730586 -0.7409097 0.26656643
0.7811825 -1.0918278 -0.7017256 0.7425922 0.19007881 -1.5899168 1.6089684 -0.5909479
-0.24189436 0.77930504 -0.61156344 0.029123208 0.32328168 -0.2921865 -1.1019411 -0.24034698
-0.8345132 1.0777836 -1.5335947 0.2719603 -0.0012615456 -0.37202772 -0.6201321 0.5140643
1.013609 0.9960339 2.5354252 -1.7976714 0.6593721 -0.4334543 0.251234 1.0467979
0.39030412 0.17993183 0.801928 -0.0019139587 -1.0490915 0.8810894 2.6543636 -1.7668972
-0.524952 -0.6641151 -0.09934741 -0.51362133 0.14249063 -0.29349205 1.4028409 -0.08174999
-0.91828847 0.85136175 -0.7013216 -0.3448894 -0.13083172 0.05084886 1.0356709 1.0810556
0.34070382 0.9880068 1.9069452 -0.8127204 -0.66278684 1.258902 0.11195619 0.014454963
-0.5510112 -1.4915189 0.24465713 0.29859868 -0.5021888 -0.93111384 1.3213713 0.5260516
-2.6922898 -0.2691117 -2.1784384 1.1712092 1.1437829 0.67090195 -0.47842276 0.40943268
1.7481147 -0.6339415 1.7500362 -0.46210465 1.162276 0.38445535 0.41739452 -0.8841855
1.4629225 1.1767398 -0.8370726 0.80022174 -0.9949188 -0.7395594 -1.3152041 -1.0731709
-0.5453329 0.04961939 -1.9079729 0.4595612 1.9160908 1.2913758 -0.63174284 0.6596389
-1.7219598 1.5356407 -0.6241743 0.23035681 1.5326809 0.7796149 -0.280587 0.9952391
0.2660161 0.28468883 0.14751868 1.2447267 1.0177424 -1.3469001 1.2396916 0.7907831
-1.3237292 0.565584 0.8054152 1.4625844 0.36236635 -0.15192336 -0.30681357 -1.0612414

lstm_layer.weight_ih_l0 f4 [200, 50]
00000000: ee41 d9bb b5b7 683c dfe4 4fbe 33c0 973d
00000010: 3787 e3bc 806f 19be a4d3 cf3c 2332 1cbe
00000020: 6b79 8a3d cffb 333e f618 fa3d 35f8 823c
00000030: 4d8b 82be 555b 833c 6a8a 9dbc e004 17be
00000040: 1eb7 353e d8f8 423c ddb4 553d b490 553d
00000050: 82ab dbbd bf06 26be bee0 a6bd 19db 9fbc
00000060: 6a84 fb3d 0095 8cbd 95a9 01be 2709 fbbd
00000070: 63b0 f33d f66f 44bc 8947 4a3d 5e4b 4f3c
00000080: 8431 60be 77ff 933d c31c 363d 3022 ebbd
00000090: f209 28be c18c 3abe 7805 99bd 61c2 cb3d
000000a0: bff0 0fbc b0b4 b4bd e9d7 253e 4a5b 10be
000000b0: 8918 05be 39a3 e23c 0536 373d c12b 9b3d
000000c0: dd71 c9bd 9b4d f4bd 6d7d 2cbe b7db ddbd
000000d0: 908d 85bd 1e89 663e 3a1d ec3c 8aae 4c3e
000000e0: e4f5 f43d de66 ed3d 7bd1 d9bd 7a19 fd3d
000000f0: b00d 80bd f4d0 bcbd 905f 5ebe c0b3 f5bd
00000100: 2290 ee3b 9546 513d 093d 0ebc 900b fe3d
00000110: efc2 603e 73e7 1e3d 80a4 6c3a 7552 22be
00000120: b003 903d 5cb2 9ebd c7ec cb3c cfcd 10be
00000130: 2c78 c8bd 00b3 c7bd f99d dbbb c031 cebd
00000140: e570 90bc 0e92 1b3d 7a10 10be bc72 163e
00000150: d4b9 d9bd 210d 803c 8176 d23d b917 7c3d
00000160: 30b5 0bbd e196 49be e981 26bd 3c64 033e
00000170: af33 673c 0e1a 31be 42fd c23d a9c0 56be
00000180: 612d b6bd 712a 2e3e 1fcf da3d 82c4 e6bc
00000190: bcd8 0dbe f7c8 8b3d 4b58 0ebe 1442 4abd
000001a0: 1007 16bd d2db 2fbe 63d0 803d fe7c e03b
000001b0: 9dc2 1d3e e5f5 a43d d1ea 22bd 1a62 d6bd
000001c0: 31de 74bd ec6b 8d3d 767f ed3d d0ce 7b3d
000001d0: 4782 16bd 3226 793e 4fe3 dabd 9761 d33c
000001e0: aa4b febd 0716 803d d06c cbbd c514 0ebe
000001f0: e29e 9abd 3118 4a3d 3d11 4d3e 09ab 56bd
00000200: abba 53bc 6b54 7e3c 2be9 e0bd e3aa 713d
00000210: 724c ab3d c430 d83c de05 ddbc 4d2a adbd
00000220: 4bca debc 3a46 35bd 924e 39bd 2aca 4ebe
00000230: 9442 0abd 754c 88bd ea64 85bd cc86 c93d
00000240: dd5b c6bd 054a 40be c84b 78bd de98 30bd
00000250: 54fd 033e d220 8ebe fcc8 0d3e 30b1 41bd
00000260: eb63 c4bd 4dd3 22be 614f 0abe 62f7 913c
00000270: 2482 06bd 6dbb a33c 0b12 853d 6533 1e3d
00000280: 35ab 05be 6381 cebd 029c 2fbc 5c32 463e
00000290: 995b d9bc 22c3 0b3e 89e7 97bc 0dd2 06bd
000002a0: 735f 703d 87a5 a4bc ac26 9a3d aa69 1f3e
000002b0: 220c debb 2d84 263d 5dd7 f03c debf 54bd
000002c0: 108f 5bbc 2da3 7bbd 8cec 36bd c611 6f3d
000002d0: 2bda 1cbe b5d7 883d 981b 81bd 9f11 243e
000002e0: b300 893d 521d 133b 34f8 e9bd 470b 94bd
000002f0: f1ae 193e 4068 143e 7ef0 733e 689c 03bd
00000300: 1ed2 78bd 48fa a7bd 8b4f be3d 6840 c43d
00000310: 8161 e9bd ba6b 6bbd 2a98 38bd 51b1 ecbd
00000320: eea9 8dbd 92ca 2fbd 26e9 d93d 7bac ffbd
00000330: 431e f2bc 1012 d93d 7545 e7bd 8b1e 3cbe
00000340: cbe4 66bd 7dce c0bc 046e a5bc 6ce8 0ebe
00000350: 5f78 3ebd be75 8e3d 44bf 3e3d bfd8 3f3e
00000360: 15cf 0ebe 86ca 87bd d69c 56bd 9f90 283d
00000370: fef0 0fbc 80b7 143e d973 3f3d bccd 36bc
00000380: d32a 04be 5a65 c0bd 0f57 92bd c958 d13d
00000390: 34a3 11be 9a88 6cbc ad75 adbc 44e5 01be
000003a0: c2c1 c93d 42cc 1dbe a845 c13b 8b5c 09be
000003b0: 4416 043e df76 07be 8fd6 80bd a94e bf3d
000003c0: ec7d 87bc 9ff6 2f3e 2af3 273e 83aa b1bd
000003d0: 7c51 ebbc 4029 97bd bbf6 35be 98c9 0fbd
000003e0: 8563 043d 6e02 173e 699d d13d bdeb 27be
000003f0: 66bc f1bd a34b 2bbc dc4a 853d 3625 2cbd
-0.006630174 0.014203955 -0.20302151 0.07409706 -0.027774436 -0.1498394 0.025369473 -0.152535
0.0676144 0.17576526 0.12211792 0.015987495 -0.25496903 0.016034761 -0.01923104 -0.14747953
0.17745635 0.011900149 0.052174438 0.052139953 -0.10726072 -0.16213511 -0.08148335 -0.019513654
0.12281115 -0.06864357 -0.12662347 -0.12257605 0.118988775 -0.011989584 0.049384627 0.012652246
-0.21893889 0.072264604 0.044461023 -0.1148113 -0.16410044 -0.18217756 -0.07471746 0.09949184
-0.008785426 -0.08823526 0.16195644 -0.14097324 -0.1299764 0.027665721 0.04472925 0.07576705
-0.09836171 -0.119288646 -0.16844721 -0.10832923 -0.065211415 0.22513244 0.02882253 0.19988456
0.119609624 0.11591886 -0.10635658 0.12358375 -0.06252611 -0.09219542 -0.21716142 -0.11997175
0.0072803656 0.051092703 -0.008681544 0.12404549 0.21949361 0.038794946 0.0009027198 -0.15851767
0.07031953 -0.07748863 0.024893178 -0.1414101 -0.09788546 -0.097509384 -0.0067021814 -0.10068083
-0.017631957 0.037981085 -0.14068785 0.14692205 -0.10631147 0.01563126 0.10276509 0.06154606
-0.03410834 -0.19686462 -0.040651236 0.12831205 0.014111443 -0.17295095 0.09520961 -0.20971932
-0.08895374 0.17008378 0.106840365 -0.028169874 -0.13852209 0.068254404 -0.13900869 -0.049379423
-0.03662783 -0.17173699 0.062897466 0.0068508377 0.1540627 0.08054713 -0.03977472 -0.1046793
-0.05978221 0.0690535 0.11596577 0.06147653 -0.036745336 0.24330977 -0.10687887 0.02580337
-0.124167755 0.062542014 -0.09932864 -0.1387511 -0.07549836 0.049339477 0.20026107 -0.052409206
-0.012922923 0.0155230565 -0.10981973 0.05900086 0.0836419 0.02639044 -0.026980337 -0.08455334
-0.02719607 -0.044256426 -0.045240946 -0.20194307 -0.0337549 -0.06655208 -0.065133885 0.098401636
-0.0968549 -0.18778236 -0.060619146 -0.043114536 0.12889606 -0.27759415 0.138462 -0.04728812
-0.0958937 -0.15900917 -0.13506843 0.017818157 -0.032838956 0.019986833 0.06497582 0.038623232
-0.13053592 -0.10083272 -0.0107183475 0.19355148 -0.026532935 0.13648656 -0.018543022 -0.032915164
0.058684777 -0.02009846 0.07526907 0.15567651 -0.0067763487 0.040653396 0.029399568 -0.05194079
-0.013400808 -0.061434913 -0.044659182 0.05836656 -0.153176 0.06681768 -0.06304091 0.16022347
0.066895865 0.0022447896 -0.11424294 -0.072287135 0.15008141 0.14492893 0.23822209 -0.032131582
-0.06074726 -0.08202034 0.09292515 0.09582597 -0.113955505 -0.057475783 -0.04506699 -0.11557258
-0.06917177 -0.042917795 0.10640173 -0.1248407 -0.029555446 0.10599148 -0.11292545 -0.18371026
-0.056370538 -0.023535961 -0.020194061 -0.1395585 -0.046501514 0.06956051 0.046569124 0.18735026
-0.13946183 -0.06630425 -0.052395664 0.041153546 -0.008785484 0.14523125 0.04674134 -0.011157449
-0.12906961 -0.09394331 -0.07145511 0.102220125 -0.14222413 -0.014436865 -0.021174276 -0.12685114
0.098514095 -0.1540995 0.0058981963 -0.13414209 0.12899119 -0.1322894 -0.06290924 0.09341175
-0.016539536 0.17183922 0.16401353 -0.08675101 -0.028725378 -0.07380915 -0.17769901 -0.035104364
0.03232147 0.1474702 0.10235102 -0.16398521 -0.11803512 -0.010455045 0.06508419 -0.042027675

lstm_layer.weight_hh_l0 f4 [200, 50]
00000000: b146 ad3d a980 543d 82c6 133e d1e8 e2bc
00000010: 6aef dbbc 0e4a 753c 2eb9 273e d20d 30bd
00000020: 26f1 3abe e4ac 42be bfc2 1abd 0bfb 363e
00000030: 51b6 b93d 5fb1 c6bd 4fcf 683e 1d42 6b3c
00000040: c2fc 943e 7be1 163d 19f3 b3bd 3076 0c3e
00000050: 5f42 89bc 6f9d 3abd 520d 0c3d 5f13 c4bd
00000060: 2abc c53c a99b e7bd b961 613e be21 d33c
00000070: cd20 133e 28d9 2a3e 54ca 89bd b305 d5bb
00000080: 3707 513d 0e0a a33d 083f b13d 822a 43bd
00000090: 5e8d ac3d 01c2 0ebe 9f40 a03c 0bce a6bd
000000a0: 76e2 353e d504 3abe 5569 3cbd 11fb 813d
000000b0: 6239 5bbe 29ae 183e 9565 bbbd b227 0cbe
000000c0: e761 09be 828d 2cbe c582 623c bfaf e1bc
000000d0: b578 8abd 42d0 013e bda8 9d3d 3125 42bd
000000e0: e280 133e a1a7 fb3c a0ca 073e f5a0 db3d
000000f0: edae b73c c7e1 d83c c022 69bd f977 e4bd
00000100: 10e4 be3b c24c a53d 96fe 8e3d e07f 6dbe
00000110: 44c6 35be c5db 0dbe fc33 36bd b02a 59bc
00000120: c4d1 7abe 46a5 4b3e 712e e03b 0e8b 3fbc
00000130: 1b54 373e 0db2 233d 62d3 ecbd c0fb a6bd
00000140: 1a2a d7bd 28f9 02be 1a27 b53d ef3a 283e
00000150: 534b 263d c740 bc3d c23f cabb 62ad 6ebd
00000160: e47f 513e 3246 8e3a 38ee ad3c 6663 16be
00000170: 1b12 97bd 1626 72bd 1529 3abe 8b5a 3bbd
00000180: 2e2d a5bd fa3c 89bb c301 71bd d896 06be
00000190: f263 99bd 4fb0 9d3d 8d6e 46bd ac36 fa3d
000001a0: ac3a 60be 32f8 b43d eb7c 433d e01d 743d
000001b0: 7af5 20bd 0e4d 103e 5c3b 81bc 2747 33bc
000001c0: b6b6 a3bd 10e9 41be 5229 f3bd a9dc 8ebd
000001d0: b705 19be f803 59bd 4a99 3fbc 6927 d0bd
000001e0: b4cd 5dbe 8370 5bbc 0f37 8ebe 1101 a5bd
000001f0: 0fca 49bd f6a3 08be 8a05 36bd 926e 02be
00000200: 1dc2 943d 3bee 283e f5f6 3ebd 901e 393e
00000210: a0d3 b43d 9390 47bd 8642 25bd f2c8 0ebe
00000220: ed61 84bd 3999 e2bc efd6 2dbe ee8e 153e
00000230: 18e3 74bd 9359 ca3d 256b 54be 32e6 2a3e
00000240: 594f d6bd f570 4d3e a1f4 353d fc47 773d
00000250: 6331 0cbe 9bbb 16be 2733 c7bd 040a 99bd
00000260: 1a7e 8c3d 4121 443d 061b d0bd e49c 93bc
00000270: d4fc bc3d 349d 8f3d 0283 8d3d f3e8 c33b
00000280: f517 29be dfc1 aa3d a444 0ebe bff7 d6bd
00000290: 9162 f23c 029f a33d aaaa 2c3e c1cd 58bd
000002a0: 2788 d5bc d3fa ecbd 5b28 a03d 7854 673e
000002b0: bec7 0f3d f3b3 293d eac9 543e 9704 7dbe
000002c0: be22 36bd e4db 733c 125c 843d 5efc 313e
000002d0: 55b1 253e c420 4dbc f7c8 37be 4122 44be
000002e0: 342a fa3d b15a aa3d a822 6e3d 9d64 8abd
000002f0: 4da5 9bbd e7a6 bfbd 5239 ea3d 82c9 933d
00000300: 6150 85bd 509c 043e bfd6 073e 1aae c13c
00000310: 0d4e d2bc c7fe 1dbe a3c2 28be 0c6d 5f3d
00000320: 3cec 77bd dd92 163d d254 e73d f514 913d
00000330: f235 9fbd 3e50 e33d a2df 013e 3c6c 29be
00000340: eaa1 0dbe c3f1 a03d 992c 31be e3ca 34bc
00000350: 10e6 a4bb 6294 bbbd a6ff 1e3c c4f6 9a3d
00000360: 8d36 063d 4332 183d 537b 883d 787f b0bd
00000370: 8634 4e3c 3d13 09be e158 b1bd 953f 0b3e
00000380: 95b3 0a3e b323 87bd 2dca 3b3d 736a 43be
00000390: 208e 1ebd db24 543d e015 e03d 3857 853d
000003a0: 6fa7 00be 1822 f7bd fcfe a73c 9bed a2bd
000003b0: 27f7 3e3c ccfe 21bd 40ed 59bd 5358 083e
000003c0: 545b 9c3d 2409 db3d 20b4 0a3e e0ed 81bd
000003d0: 3c52 c6bd 5489 12be 0f7c ce3c e0c9 303e
000003e0: 3487 ca3c c728 34bd 849b 203e bf1b 24be
000003f0: b76c 15be f358 b3bd 948f 32be 1a5a 463d
0.08460749 0.051880512 0.14431193 -0.027698906 -0.02684756 0.014971269 0.16379234 -0.04298193
-0.18256053 -0.19011265 -0.03778338 0.17869203 0.09067977 -0.097017996 0.22735332 0.014359024
0.2909909 0.03683613 -0.087866016 0.1371696 -0.016755281 -0.045560297 0.03419239 -0.09574007
0.024137575 -0.11308987 0.22009934 0.025772925 0.14367981 0.16684401 -0.06728044 -0.0065009235
0.05103227 0.07960902 0.086546004 -0.04764796 0.08425401 -0.13941194 0.019562064 -0.08144768
0.17762169 -0.18165906 -0.04599889 0.06346715 -0.21408609 0.14910187 -0.091502346 -0.13687018
-0.13416253 -0.16850856 0.013825123 -0.027549623 -0.06761304 0.126771 0.076982 -0.04739875
0.14404634 0.03071958 0.13260889 0.107240595 0.022422278 0.026474847 -0.056917906 -0.111556955
0.005825527 0.08071281 0.06982152 -0.23193312 -0.17751414 -0.13853367 -0.04448317 -0.013254806
-0.24494082 0.19887266 0.0068414737 -0.011690868 0.17903177 0.039964724 -0.115637556 -0.08153486
-0.10506077 -0.12790358 0.08845349 0.16428731 0.04059918 0.09192043 -0.0061721513 -0.05827082
0.20458943 0.001085466 0.021231756 -0.14686355 -0.073765 -0.059118353 -0.18179734 -0.045740645
-0.08065258 -0.004188177 -0.05883957 -0.1314348 -0.07489766 0.07699644 -0.048445273 0.12217459
-0.21897382 0.08836402 0.047726553 0.059598804 -0.039296605 0.14091894 -0.015775375 -0.010942257
-0.07993834 -0.18936563 -0.118731156 -0.06975681 -0.14943586 -0.0529823 -0.011694262 -0.10163767
-0.21660501 -0.013393524 -0.2777638 -0.08056844 -0.049264964 -0.13343796 -0.044438876 -0.12737492
0.07263587 0.16497128 -0.046622235 0.18078065 0.08829427 -0.04872186 -0.040346645 -0.13943842
-0.0646399 -0.027660953 -0.16976522 0.14605305 -0.059786886 0.09880366 -0.20743997 0.16689375
-0.10464353 0.20062621 0.04442275 0.060371384 -0.13690715 -0.14720003 -0.097265534 -0.074726135
0.068599895 0.047883276 -0.10161404 -0.018019147 0.09227911 0.07012406 0.069097534 0.0059786974
-0.16513045 0.08337759 -0.13893372 -0.104964726 0.029588016 0.07989313 0.16861978 -0.052930597
-0.026065899 -0.115712784 0.07820197 0.22590816 0.0351026 0.04143138 0.20780149 -0.24708782
-0.044466726 0.014883969 0.064628735 0.17381427 0.16180928 -0.012520019 -0.17947756 -0.19153692
0.12215081 0.08318079 0.05813852 -0.06757472 -0.07599888 -0.09358006 0.11436714 0.07216169
-0.06509472 0.12950253 0.13265513 0.023642588 -0.025671983 -0.15429221 -0.16480498 0.054547355
-0.060528025 0.036761153 0.11295475 0.07084075 -0.07773961 0.11099289 0.12682965 -0.16545194
-0.13831297 0.078586124 -0.17302169 -0.0110347 -0.0050323084 -0.09159161 0.009704506 0.07566598
0.032766867 0.03715731 0.06664147 -0.08618063 0.012585765 -0.13386245 -0.086595304 0.13598473
0.13545068 -0.06598606 0.045847107 -0.19083576 -0.03870976 0.05179296 0.10941672 0.06510776
-0.12563871 -0.1206705 0.020507328 -0.07955476 0.011655605 -0.039549634 -0.053204775 0.13314943
0.07634607 0.10695103 0.13545275 -0.06344199 -0.09683654 -0.14310199 0.02520564 0.17264509
0.024722673 -0.0439842 0.15684325 -0.1602621 -0.14592253 -0.087572 -0.17437583 0.04842577

lstm_layer.bias_ih_l0 f4 [200]
00000000: d981 003e 6928 2b3e e41d 9d3e 7312 df3d
00000010: 75a6 c13d c060 5cbd 357a 533e 1ddb d23c
00000020: d216 553e 4a7b 1fbd 5f2b 213d 169f 3c3e
00000030: 5f34 b63d 6828 4f3e 16b7 683e 3e54 29bd
00000040: 0d27 533e 835a 8b3e 8d65 293e 5700 81bc
00000050: 8718 09bd 65f4 723e 395b 3c3e 141b 39bc
00000060: 89fc 8ebd ad34 183e 8f85 a03e 8e39 093e
00000070: 628a 343e 2fc5 0b3e 62dc 4a3e efe4 053e
00000080: 8be8 ba3d 8d77 813e ac06 663e 37f1 4d3d
00000090: 7513 b03d f266 903d e338 2f3e 3660 82bc
000000a0: 704d 393e 953c 583e a2c2 013d 67eb 343e
000000b0: 71e0 7e3e edb8 73ba 445a 883e 501a 7ebc
000000c0: df80 053e 57bb 203d 217a 883d 876f 93bd
000000d0: f3e2 903c 93cb 373e 6c88 123d bc69 b83b
000000e0: 633e 4a3d 6d11 093e 3948 323d 81a7 103e
000000f0: 6975 733d 9da5 c93d ea21 433e 041f f23c
00000100: 7b7e 143e b0a9 9ebc 5f7e 303e 4ffc f03d
00000110: 8b52 5f3d 937b 563e 7c72 aa3d 6a4e 493e
00000120: 052c 893e af54 2b3e e099 3c3e af77 a73c
00000130: b96f 0e3e d6b1 7c3e 637f 1f3e 260a 4f3c
00000140: 305d 673e a504 f43d 322c f1bc be94 a33d
00000150: 98c7 7c3e 60b0 d23b ce02 be3d 9c94 2a3d
00000160: c0b4 68bd 4ba5 883d b9ac 413e 62ad 883d
00000170: 9b3f 033e 1530 aa3d b8ec 533c fbb2 d83d
00000180: 955b 183e 7d9b 5c3d 5979 5d3b 936b d23c
00000190: 7af9 c53d 5acf e23d 969f 9d3d 5b54 933c
000001a0: a583 2cbe 7fbc 8e3d 8de5 0fbd b3fa 68bd
000001b0: 69f8 e2bc c62b 2a3e fa0c 01bd bbc8 28bd
000001c0: c223 8dbd 7419 21be 6769 04bc 3cbb 943d
000001d0: 7cb9 d03d 7c9c 203e e646 44bd 37fa b8bd
000001e0: 5711 91bd 5e06 24be 995e 2abd 713d d1bc
000001f0: dbc1 12be f23d aabd 284e 49be c750 9a3d
00000200: 7574 053e 674d f93d d01c ee3d 355b 653e
00000210: e236 e5bd c0b2 303e b9e0 5a3d 983d 12bd
00000220: 8a0b 8abd d751 48be b6e5 58be d79a 353e
00000230: cc50 153e cc2a 123d 1278 3bbe 0ad7 b23d
00000240: d3a3 0f3d bb99 fb3d e638 353e 7cfb 13be
00000250: f33a 09be 3bea 8bbd 71fc 4c3e 2912 943e
00000260: 31dc 853e 8994 f83d 7b5c 423c 3ad2 863c
00000270: 5644 5e3d 7b1c 8b3e 91a6 ee3d 663a 0a3e
00000280: 9d1b 973e a4f3 433e b431 863d f54b 563e
00000290: c087 363e da54 3d3e 8c4c 3fbc e549 503e
000002a0: 3c6d 813e 5340 613e 62f6 2a3e a004 5c3e
000002b0: 4776 853d f676 713d f638 f93c 50f2 c03e
000002c0: b2cf e13d 03f4 913e 9a67 263e f9e9 db3d
000002d0: 8dbe 1f3e ca99 153d 3250 503d d695 223e
000002e0: 161d 6a3e 7c88 863d e64d 933d 105e 973d
000002f0: 2783 c1bc 36ee 813d 40e0 903d a59d 033e
00000300: 9048 bcbc d2b0 273e 854e ab3e db17 1d3e
00000310: b215 ef3d a6cc 853e ad9d 803e b8a4 7a3e
0.12549533 0.16714634 0.30686867 0.10892191 0.09455577 -0.053803205 0.20652087 0.025739247
0.20809487 -0.038935937 0.039348003 0.18420061 0.08896708 0.20230258 0.22726092 -0.041340105
0.20620365 0.27217492 0.16542645 -0.015747232 -0.033470657 0.23726042 0.18394174 -0.01129796
-0.06981761 0.14863844 0.31351897 0.13400862 0.17630914 0.13649438 0.19810632 0.13075612
0.09126385 0.25286523 0.22463483 0.05027887 0.08597461 0.07050885 0.17111544 -0.015915018
0.18095946 0.2111686 0.031679757 0.17667924 0.24890305 -0.00092972704 0.26631367 -0.015509203
0.13037442 0.03924116 0.06663919 -0.071990065 0.017686343 0.17948751 0.035774633 0.005627839
0.049375903 0.13385554 0.04352591 0.14126398 0.059438143 0.09846041 0.19055906 0.029555805
0.14501373 -0.019368023 0.17235707 0.11766874 0.05452208 0.20945577 0.083226174 0.19658819
0.26791397 0.16731523 0.18418074 0.020442812 0.13909806 0.24677214 0.15575938 0.012636697
0.22594142 0.119149484 -0.02944002 0.07987355 0.24685514 0.006429717 0.09277879 0.04164563
-0.056813 0.06672152 0.18913545 0.06673695 0.12817232 0.08309952 0.012934856 0.10581013
0.14878686 0.053859223 0.0033794253 0.025686061 0.096667245 0.110747054 0.07696454 0.01798456
-0.16847093 0.069695465 -0.035131026 -0.05687971 -0.027706342 0.1661826 -0.031506516 -0.041207056
-0.06891586 -0.15732366 -0.0080817705 0.072622746 0.10191628 0.15684694 -0.047919177 -0.090321
-0.070833854 -0.16018054 -0.04159412 -0.025541993 -0.14331762 -0.083125964 -0.1965872 0.07534938
0.13032706 0.121729665 0.11626589 0.22398074 -0.11192109 0.17255688 0.05343697 -0.03570327
-0.06740482 -0.1956247 -0.21181378 0.17734848 0.14581603 0.035685346 -0.18307522 0.08732422
0.035068344 0.12285181 0.17697486 -0.14451402 -0.13401394 -0.06831785 0.20018174 0.28920105
0.26144555 0.12137706 0.011862869 0.016457666 0.05426439 0.27170166 0.11652864 0.1349884
0.29513255 0.1913591 0.06552449 0.20927413 0.17825222 0.184894 -0.011675965 0.20340689
0.25278652 0.21997194 0.1669555 0.2148614 0.065167 0.05895134 0.030422669 0.3768487
0.11025943 0.2850648 0.16250458 0.10737986 0.15600033 0.036523618 0.05085773 0.1587747
0.22862658 0.06569001 0.07192592 0.07390988 -0.023622109 0.06344263 0.07074022 0.12853105
-0.02298382 0.16376045 0.33458343 0.15341131 0.1167406 0.26132697 0.25120297 0.24476898

lstm_layer.bias_hh_l0 f4 [200]
00000000: e881 473e 5ce6 8f3d 3bc3 a73d 8da4 ad3d
00000010: c923 8abd 71d1 7e3d 05dc 07bc ef31 0a3e
00000020: 82ef 9c3d 9f61 fb3c 0a0f 4d3e 2d43 9abc
00000030: 616b 1a3e f855 a0bc 0893 5d3e 89e7 d53d
00000040: 8409 923e 0caa 8a3e 9174 2d3e 0017 683e
00000050: 80f5 c2bd c06d 163e 00c3 703e 1d5e b8bc
00000060: e3f6 5c3d 52e4 853e 2d8a 023e 7e03 943d
00000070: fc32 543e 915e cebc c353 f83d 8e42 413e
00000080: 3d63 65bd bb69 893c f92b 423e ef8d d0ba
00000090: 42ce 2e3e fb7f 6f3e ece6 c13c 9bae 4b3e
000000a0: afa1 8abc 2ab9 973e e020 923e 422a 983e
000000b0: a428 913e 1bcd 823d 0bc1 6d3e 6415 003d
000000c0: 68aa 663c 1c51 623e 7ad5 473e cdc8 8a3c
000000d0: 7ce6 59bd 03e7 2c3d 7ec2 ae3d fedd a43d
000000e0: b516 093e 52db ea3b d782 2cbd 4e68 5d3e
000000f0: ec95 313e 37a2 223e e8ac 3e3d 5da4 153e
00000100: ea89 953d b9fb 243e 0559 483e 0e08 84b9
00000110: fe00 183e 1921 853e d0d9 2c3e e10b c03d
00000120: 9e58 113e f697 7e3e c031 4a3e 0400 0a3e
00000130: b98e cd3d a45a 9e3d 0cdf 5f3e 396e e33d
00000140: 0597 783e ff5d b23d cd0d d83d f899 f2bc
00000150: 14dd 1f3b 7185 413e da5d be3d 1aaa f03d
00000160: f34c 0c3e 8857 c43d d708 5b3e f3c0 c93c
00000170: 5962 dd3d 858f 72bd 3ec0 3e3e 1409 933d
00000180: fd30 253e 3441 49bd 0233 b53c 60fa c83d
00000190: 55b5 18bd b4fb 993a 48e9 df3d 376d 28be
000001a0: 8838 2abe 86b6 323e 8f7c 943d 76bb d9bd
000001b0: 5e91 4abd 9b9f 57bd 696f c8bd 8af1 18be
000001c0: 382e ab3d 3e2e 3dbe 3307 163e 547f a4bd
000001d0: 8bdf 01bd 4c4a f7bc c8ec 9fba 0a7e fdbd
000001e0: 9d8a 02be 207a 3ebe 0c9c f5bd f547 893c
000001f0: 5d3c 1bbd 1886 11be 0f60 8bbe 53e3 dcbc
00000200: ea7d fe3d ebb4 61bc 94eb 0c3e 3a1a b33d
00000210: 78ea 5f3d 3cb1 393e ae15 103e df6d 14be
00000220: 7f3d 7e3d af7b 2ebe 4f59 903c 00e2 073d
00000230: 9910 1abd 31f6 8b3d 639e 90bd 8820 103e
00000240: 863c 483d bc6b 9bbc fd85 053e 6048 51bd
00000250: ff49 8fbc f229 6cbd 1aea 003e c8a4 af3e
00000260: 211d 5b3e 0017 b1bb 34e9 3d3e 93b4 b5bc
00000270: d498 6b3e 3e5b 543e ae04 213e 34aa 3f3d
00000280: c6fb 863e 861c 8339 79ae 623e b459 d93c
00000290: 9537 1fbb 8535 673e 3a09 6a3e 7ead df3d
000002a0: 4041 973e 5328 1e3e fa77 793e d650 953e
000002b0: 220c d33d 3b6d 283e 9514 a03d 579b 853e
000002c0: 866a 333e 28bd 903d 394f 193d 4dec 503e
000002d0: 0abf b43d 399c 423d 88ee 213d ca4f 7c3e
000002e0: d014 663e 2622 d63d fe9e 7a3e 69ec 963c
000002f0: 348e 5fbc f678 413e 601a 8a3e e546 9b3e
00000300: c2fc 1d3e c29d 813e 2cd9 cb3d 8905 9b3d
00000310: d2ff 9c3d dd04 763e 7c53 313e 6ade 283e
0.19483149 0.070263594 0.08191534 0.08478651 -0.06745107 0.062211458 -0.008292203 0.1349561
0.0766287 0.030686198 0.20025268 -0.01883086 0.15080024 -0.019572243 0.21638119 0.104445525
0.28522885 0.2708286 0.16938998 0.22665024 -0.09519482 0.14690304 0.23511887 -0.022505814
0.053946387 0.26150757 0.12748022 0.072272286 0.20722574 -0.025191577 0.12125351 0.18873045
-0.056002844 0.016774049 0.18962087 -0.001591144 0.17070869 0.23388664 0.023669682 0.19890825
-0.0169228 0.29633456 0.28540707 0.2971974 0.2835132 0.06386777 0.23218171 0.0312704
0.014078714 0.22101253 0.19515029 0.016941452 -0.053198323 0.042212497 0.0853319 0.08050154
0.13387568 0.0071672583 -0.042116966 0.2162182 0.17342347 0.15882193 0.046551615 0.14613481
0.07301696 0.1611165 0.19565208 -0.00025183003 0.14844128 0.26001814 0.16879964 0.09377266
0.14193961 0.24862656 0.1974554 0.13476568 0.10036988 0.07732132 0.2186243 0.11105008
0.2427636 0.087093346 0.10549507 -0.029614434 0.0024393247 0.1889856 0.092952445 0.11751194
0.13701229 0.09587008 0.21390091 0.024628138 0.10809774 -0.059218902 0.18628022 0.07179466
0.16131969 -0.04913445 0.022119049 0.0981338 -0.037282307 0.0011747987 0.10933167 -0.16447912
-0.16623127 0.1745244 0.0725032 -0.106314585 -0.04945504 -0.052642446 -0.09786875 -0.1493589
0.08358425 -0.18474671 0.14651184 -0.080320984 -0.031707328 -0.030186795 -0.0012201304 -0.12377556
-0.1274819 -0.18601274 -0.11992654 0.016757945 -0.037899364 -0.14211309 -0.27221724 -0.026963865
0.1242636 -0.013776044 0.13761741 0.08745237 0.054666966 0.18134016 0.1407077 -0.14495037
0.062070366 -0.17039369 0.01762071 0.033174515 -0.037613485 0.06834067 -0.0706146 0.1407491
0.048885845 -0.01897227 0.13039394 -0.051094413 -0.017491339 -0.05765719 0.12589303 0.34305406
0.2139783 -0.005404353 0.18545991 -0.022180831 0.23007518 0.20737931 0.15724441 0.046793178
0.26363963 0.0002500752 0.22136869 0.026532032 -0.0024294604 0.2257901 0.22855082 0.10921763
0.2954197 0.1544507 0.24362174 0.29163235 0.103050485 0.16447918 0.07816426 0.26095077
0.17521104 0.07067329 0.03742907 0.20402642 0.088255 0.047512267 0.03953412 0.24639812
0.22468877 0.10455732 0.24474713 0.018423276 -0.013644744 0.18893799 0.26973248 0.30327526
0.1542845 0.25315672 0.099535316 0.07569415 0.07665981 0.24025293 0.17317003 0.16491094

out_layer.weight f4 [101, 50]
00000000: 5cfb 5f3d e105 0a3e bdb7 593e 64c3 1dbd
00000010: f839 0fbe 01ab 50bd 4c3f bd3b 1ade 803d
00000020: 6e8d e43d ac3f 303d dbdc 32be eb9d d6bd
00000030: e5ad 013c 207d 9ebd 188f 8b3e 053c 67bc
00000040: 9b98 8fbd 5d21 69be b228 d23c 7c54 bfbd
00000050: 107d 51be 99bb 87bd 9622 1f3e 9cdd 93bd
00000060: 8532 26be 1600 3cbe df0f 8abd 858e f4bd
00000070: 97cf 053e dbe4 dcbd 60e2 d53d 8ab1 a73d
00000080: 646b 70bd 0797 4a3e 0eb5 013e 781b 19bd
00000090: 2405 cc3c 7818 d2bd 3099 0dbe a105 3bbd
000000a0: 1bc9 053e a0ad 0d3e 2e15 d0bd af52 323d
000000b0: 25bf ba3d b653 e13d a982 413e f7f1 fe3d
000000c0: 7850 133e 13f0 54bd 855a 07be 5fe4 7a3d
000000d0: bbfe 183e c342 31be 812c 51bd c978 e63d
000000e0: 4e4c f9bd faa8 573c 4d5e 39bd 7298 93bd
000000f0: 47c0 9c3c aff1 e5bd f4ca 133e 6890 1ebe
00000100: a3b1 2fbc 146a afbd b22d 4b3d ca87 1ebe
00000110: f82d ca3d e2a3 2b3e 1170 8f3d c579 a03d
00000120: bc98 333e 2543 e63c 1529 78bd 635f 7bbd
00000130: f2f9 173c 8a87 1abe 7f30 103e 4c4c 2b3d
00000140: 6bf0 283e dae6 02bd fc75 bfbc 4083 283e
00000150: 39a2 febd e5a5 363e 8ec5 b4bd f930 d63c
00000160: 7964 38bd 0d89 92bd 116c e03d 3ebc cb3d
00000170: a600 b2bb 69bf 903c b1e9 4b3e dfae a13d
00000180: 34bf 973d ee13 643e 0c4d 76bd 0b7d 67ba
00000190: 1dd6 ca3b c4af 50be b63e c43d b613 8abe
000001a0: 5353 a83d 8d59 043e 8e56 533d 49c7 293e
000001b0: 93ae 5d3d 2859 45bc 8e3f ae3d 20e7 443e
000001c0: 247a 96bd 9ae0 13be 800d 4f3d 40d9 debc
000001d0: 9eb0 b5bd d57d 9f3d de52 bdbc b7ef 1f3e
000001e0: 69e1 c7bd 0861 1e3e 7edf c83d 34f6 1d3d
000001f0: 0724 c83b fd66 6abd 8b6e 103e 25b3 90bd
00000200: f53b fdbd afcd 1ebe 3171 1a3e c3eb 1b3e
00000210: 3641 9e3d f7ea 2abd c406 6bbd 0c52 083e
00000220: 9978 1fbe 3e82 21be 4936 9f3d 6b66 313e
00000230: fbac 4a3e 92cb 153e 8d9c e63d 60c1 febd
00000240: 4678 e1bc cc98 c23c 4ee2 013e f832 38bd
00000250: 0693 6bbd 9676 32bd c24a a23c 287b 4e3d
00000260: 2940 2dbe 9bf7 5bbe 1988 683d 1d78 283e
00000270: a750 6e3d ce5d 8b3d 32b0 4fbb 4f81 46be
00000280: 2feb bd3d 16ed 02be e68e 2cbc 4a14 10be
00000290: 4ed7 db3c 2260 543c 73be 61bd 9f9a 063e
000002a0: 8e42 9bbc eaa1 833b 5b12 2c3d 7eb1 63bd
000002b0: e4e4 e43d 7393 c8bd 0b62 67be 9002 59bc
000002c0: a088 bc3c e5fb 2abe 563c c4bc 8efd 17be
000002d0: 7c4f 4d3e 9730 1d3e 85d1 cb3c 8769 d2bd
000002e0: a7fe 31bd 8ada 20bd a2fb a3bd 562b a3bd
000002f0: 2678 13bd 8d20 b43d 7037 233e fd61 90bb
00000300: 1fcd 32be 1d8d 0cbc 0b34 bf3d b98b ce3d
00000310: 8154 c83d 63a7 c53c cdd4 a83c 70fc 723c
00000320: 304b 5d3d 50b1 b5bd 59b5 093d b73d ccbd
00000330: 4f81 a73d f494 b53c 4c2d a0bd e5e5 c43d
00000340: 4bfd bc3d 2a76 bc3c 6f89 983b b68a 20be
00000350: 86b8 103b a0cc 0cbe 3ecc ef3d 1226 0c3e
00000360: 5479 493e fa0c 38bd 344e 08be e43e 103d
00000370: c5d4 17bc bfa8 75bd 95fb 3a3e 9ba4 993d
00000380: 3758 c6bd e459 06be 1ba9 f5bd 01f3 edbc
00000390: 5b32 9cbd 9866 7dbd 5d6d a9bc 5a5d cfbd
000003a0: f882 40be 3304 29be 98d1 63be 6d12 a33d
000003b0: 7a45 babd 396a 2fbe bde9 a7bd 2d04 a0bd
000003c0: c0b1 6b3e 511c b03d 914f 033d cba5 f13d
000003d0: e8dd 893d 9e69 e33d 489c 0e3e bc74 3ebd
000003e0: ab34 0fbe 1fc0 f63d a56b e8bd ca03 67be
000003f0: 6cc1 bb3d 04c4 dabb b5e9 bc3d 1922 e5bd
0.054683074 0.13478805 0.21261497 -0.038516417 -0.13986957 -0.050944332 0.005775368 0.062923625
0.11159788 0.043029472 -0.17467062 -0.10479339 0.007914995 -0.077387094 0.2725761 -0.014113431
-0.07011529 -0.22766633 0.02565417 -0.09342286 -0.20457864 -0.06627578 0.15540537 -0.07220003
-0.16230209 -0.18359408 -0.067413084 -0.11941246 0.1306747 -0.10785838 0.10443568 0.0818816
-0.058696166 0.19784175 0.12666723 -0.037379712 0.024904795 -0.10258573 -0.13827968 -0.045659665
0.13064997 0.13835764 -0.1016029 0.043535884 0.09118489 0.11002295 0.18897499 0.12448495
0.14386165 -0.051986765 -0.13218124 0.061252948 0.14940922 -0.17310624 -0.051067833 0.11253507
-0.12172757 0.013162846 -0.045255948 -0.07206811 0.019134654 -0.11227738 0.14432889 -0.15484774
-0.010723504 -0.08565155 0.049604125 -0.15481487 0.09872049 0.16761735 0.07003797 0.07835726
0.17538732 0.028108189 -0.060586054 -0.061370265 0.0092759 -0.15090767 0.14081 0.04182081
0.16497962 -0.03195844 -0.023371689 0.16456318 -0.12433285 0.17836721 -0.08826743 0.026146399
-0.045017693 -0.071550466 0.10958112 0.09948014 -0.005432206 0.017669396 0.19913365 0.07894682
0.07409516 0.22273228 -0.06013207 -0.00088305835 0.006190075 -0.2037955 0.09582274 -0.26968163
0.08219018 0.12924786 0.051596217 0.16579928 0.054121565 -0.012045182 0.08508216 0.19228792
-0.07347515 -0.14441147 0.050549984 -0.027203202 -0.08871578 0.077876724 -0.023110803 0.15618788
-0.097597905 0.15466702 0.09808253 0.038564876 0.0061078104 -0.057227124 0.14104669 -0.07065419
-0.123649515 -0.1550815 0.15082242 0.15226655 0.07727282 -0.041727986 -0.0573795 0.13312548
-0.15573348 -0.1577234 0.07774026 0.17324226 0.1979255 0.14628437 0.112603284 -0.12439227
-0.027523171 0.0237545 0.12683985 -0.044970483 -0.05751326 -0.043570124 0.019811038 0.05041042
-0.16919006 -0.21481173 0.056770418 0.1645207 0.058182385 0.06805001 -0.0031690714 -0.19385265
0.09273373 -0.12785754 -0.0105321165 -0.1407024 0.026836064 0.012962373 -0.055113267 0.13144921
-0.018952634 0.0040171044 0.042009693 -0.05558919 0.1117647 -0.09793749 -0.22595994 -0.01324524
0.023014367 -0.16697653 -0.023954552 -0.14842817 0.20049852 0.15350567 0.02488018 -0.10274034
-0.043455746 -0.039270915 -0.080069795 -0.0796725 -0.036003254 0.08795271 0.15939116 -0.0044062124
-0.1746106 -0.008578566 0.09336098 0.10085244 0.09781743 0.024127668 0.020609284 0.014830694
0.054026783 -0.0887171 0.033620212 -0.09972709 0.081789605 0.022165753 -0.0782114 0.096141614
0.09227999 0.023005564 0.0046550552 -0.15677914 0.002208264 -0.13749933 0.11708878 0.13686398
0.1967519 -0.04493425 -0.13311082 0.035216227 -0.009267037 -0.059975382 0.18260033 0.07502099
-0.096847944 -0.13120228 -0.11995145 -0.029046537 -0.07626792 -0.06186542 -0.020682031 -0.10125227
-0.1879996 -0.16505508 -0.22247922 0.07962499 -0.09095283 -0.17130364 -0.08198879 -0.078132965
0.23017025 0.08599151 0.032058302 0.117992006 0.067317784 0.11104129 0.13926804 -0.046498045
-0.13984935 0.12048363 -0.113486566 -0.22560039 0.09167752 -0.006676199 0.092242636 -0.11188144

out_layer.bias f4 [101]
00000000: aa35 943b 4dfa fb3d e1a5 963c a2f8 8e3c
00000010: d2e4 623c f842 37bd bc1f 28be 4aa5 52bd
00000020: ce3c 303d e0ab 933d cafd 993d 3286 203e
00000030: df52 a03d b8d5 5e3d 0c88 933d 46b1 2f3d
00000040: 820d d2bd 77a2 243e 0dba e6bd 09b6 4cbd
00000050: da49 c43d 744a 4e3e 767b 023e 01fe 02bd
00000060: 4c93 4c3e 7135 503c ea16 ffbd fd99 d53d
00000070: a386 50bd 1511 a73d dc1b be3d 5701 4cbd
00000080: 2fdb 8dbd 565f c0bb c1eb b73c 6413 383e
00000090: 2f6f 3cbe cd8e c3bd 0ee1 fa3c 8e29 b7bc
000000a0: 979b b1bd 33b1 2e3d fa76 ac3c ab72 dfbd
000000b0: 492b c4bd 8026 38bd f08f a83d 5ccb ea3d
000000c0: ce19 b83d 8a18 6e3d 0e2b cf3d 3ad2 88bd
000000d0: 437d f83d c6de afbc a16d 173e 189b 803c
000000e0: f02b 3d3d d5ae 86bc 54d5 f8bc aacf 54be
000000f0: 0c28 3dbd 6039 8abc 654d d7bb 4fe4 b5ba
00000100: 181d 6c3d e224 c03d 1b48 113d 801a ae3d
00000110: c2c9 d9bd 71e3 b4bd 7f38 8a3d 34e2 7bbc
00000120: 3aa2 40be 92cd 573d 0a5d 473e 1958 d3bc
00000130: 8547 afbd 065f 753d 3152 90bd 2107 b83d
00000140: 338b ccbc 50f9 0f3e bbf3 633c a13b 1f3e
00000150: c067 b23d 807d 2d3d 9952 823d fdc3 b6bd
00000160: ef98 2ebe f7f7 e7bd 1052 f83b 1144 afbd
00000170: 8be1 03be 02cd cabc 6e41 35bd 31f7 2dbc
00000180: 1bce a73d d878 d93d 2f60 0dbe aa05 163d
00000190: a340 0abc
0.004522999 0.123036005 0.018389644 0.017452542 0.0138485 -0.0447416 -0.16418356 -0.051427163
0.043026738 0.07210517 0.075191095 0.15676191 0.078283064 0.054403037 0.07203683 0.04289367
-0.10256483 0.160776 -0.11265955 -0.04997829 0.095843986 0.20145589 0.12742409 -0.03198052
0.19978064 0.012708054 -0.124555424 0.104297616 -0.05090965 0.08157555 0.092826575 -0.049805965
-0.069265716 -0.00587074 0.022451283 0.17976147 -0.18401788 -0.095487215 0.030624893 -0.022358682
-0.086722545 0.04264946 0.021052826 -0.10910543 -0.095785685 -0.04495859 0.08230579 0.11464569
0.08989297 0.05812887 0.10115634 -0.066807225 0.12133267 -0.021468531 0.14787914 0.015698954
0.04618448 -0.016440788 -0.03037516 -0.20782343 -0.04618077 -0.016873062 -0.0065705054 -0.0013877245
0.057644933 0.09382035 0.035469156 0.08501148 -0.106341854 -0.088324435 0.06749057 -0.015373755
-0.18811885 0.05268628 0.19469085 -0.025798844 -0.08558563 0.059905075 -0.07046927 0.08985735
-0.02496872 0.14059949 0.01391309 0.1555009 0.08711195 0.042356014 0.063634105 -0.089241005
-0.17050527 -0.113265924 0.007578142 -0.085579045 -0.12879007 -0.024755958 -0.04425185 -0.010618017
0.081936084 0.10618752 -0.13806222 0.036626495 -0.008438262
