DeepModels/ckpts_precomputed/dkt/ASSIST2009/model.ckpt (torch, 68800 bytes, 7 tensors)

interaction_emb.weight f4 [202, 30]
0	0xbf0566c6	-0.52109945
1	0xbf238cab	-0.6388652
2	0xbf249dcb	-0.6430327
3	0xbebedab4	-0.37276232
4	0xbe0a08a5	-0.1347986
5	0x3f0347cc	0.5128143
6	0x3f815294	1.0103326
7	0x3fa2d993	1.2722648
8	0xbf532c67	-0.8248963
9	0xbe44e109	-0.19226469
10	0x3dd2b6c0	0.10288763
11	0x3fcf09f1	1.6174909
12	0x3e91d329	0.28481415
13	0x3fdde9f3	1.7337021
14	0xbf6ec4db	-0.9326913
15	0xbf8261df	-1.0186118
16	0xc0056f90	-2.0849342
17	0x3ea63088	0.324589
18	0x3f085eaf	0.53269476
19	0x3f9d7821	1.2302285
20	0xbe1eb8e8	-0.15500224
21	0x3f1f1004	0.6213381
22	0xbddab227	-0.10678511
23	0x3f20b923	0.62782496
24	0xbf859260	-1.0435295
25	0x3fb7c3e9	1.4356662
26	0x3eb3a7b7	0.35088894
27	0xbf93afbe	-1.1538007
28	0x3fa2d863	1.2722286
29	0x3dbca77d	0.09211633
30	0x3e0aa4e7	0.13539468
31	0xbf3236b6	-0.6961473
32	0x3f33db12	0.7025615
33	0x3d97e0c9	0.07415921
34	0x3f14c1f1	0.5810843
35	0xbf7e7ad6	-0.9940618
36	0x3f2a7924	0.66591096
37	0xbec289bd	-0.3799571
38	0xbf0f2717	-0.5591902
39	0xbe22dec8	-0.15905297
40	0xbf9e0186	-1.2344215
41	0x3f7187b1	0.94347674
42	0x3e83db6d	0.25753346
43	0xbf3e4610	-0.74325657
44	0xbf236e11	-0.63839823
45	0x3f81b8b6	1.0134494
46	0x3d9f959b	0.07792207
47	0x3fa85466	1.3150756
48	0x3fcf7730	1.6208248
49	0xbe7c5062	-0.24640039
50	0xbf42210f	-0.75831693
51	0xbe07a8b7	-0.13247953
52	0x3f8348c1	1.0256578
53	0x3f3bba3e	0.7333106
54	0x3ecaece1	0.3963385
55	0x3ffb5431	1.9635068
56	0x3edb3b5c	0.42818725
57	0x3feacb91	1.8343374
58	0x3effc152	0.4995218
59	0xbe368883	-0.17825513
60	0xbfc5fcb6	-1.5467746
61	0x3ce3d8a4	0.027813263
62	0x3f577e62	0.8417722
63	0xbfa5990f	-1.2937335
64	0xbc930515	-0.01794676
65	0xbf6ee45f	-0.93317217
66	0xbe46e1be	-0.19422051
67	0x3fdb8527	1.715001
68	0x3ffa5702	1.9557803
69	0x3e1956d8	0.14974535
70	0x3ebfe8af	0.3748221
71	0xbf8d1536	-1.1022098
72	0x3ab93c17	0.0014132288
73	0x3e477751	0.1947911
74	0xbea2ca68	-0.3179505
75	0xbf14da98	-0.5814605
76	0xc01ee410	-2.4826698
77	0xbf90bd34	-1.130774
78	0x3f4d0999	0.8009277
79	0xc010bb71	-2.2614405
80	0xbfc71c1f	-1.5555457
81	0xbf80a6aa	-1.0050862
82	0xbf385a93	-0.72013205
83	0xbd65f99d	-0.056146253
84	0xbfc44b80	-1.5335541
85	0x3f4c8f7c	0.7990644
86	0xbeeb5778	-0.4596517
87	0x3fa7b10e	1.3100908
88	0x3f35ef51	0.7106829
89	0x3ed55612	0.4166723
90	0xbf5ee94f	-0.8707475
91	0xbea35eea	-0.3190835
92	0xbf825579	-1.0182334
93	0xbe846a3f	-0.2586231
94	0x3ef885a7	0.4853947
95	0xbf5e4586	-0.86824834
96	0xbebc4e28	-0.36778378
97	0xbdb157ea	-0.086593464
98	0xbfdaea9e	-1.710285
99	0x3f0f3950	0.55946827
100	0xbf0f8e56	-0.5607656
101	0xbef71051	-0.48254636
102	0xbddd4230	-0.1080364
103	0x3e96ccb7	0.2945306
104	0x40078378	2.1173992
105	0xbf736a86	-0.95084417
106	0xbf5ba419	-0.8579727
107	0xbdab177b	-0.08354088
108	0xbeefb0d7	-0.46814606
109	0xbf7f5bf3	-0.9974968
110	0xbf434a4e	-0.76285255
111	0x3f4c6e5e	0.79855907
112	0xbfbe7cb5	-1.4881808
113	0x401b903e	2.4306788
114	0xbeda3b70	-0.42623472
115	0xbdcf4be7	-0.10121899
116	0x3f6b40b2	0.9189559
117	0x3ec2e7ef	0.38067576
118	0x3d9067ae	0.07051025
119	0x3ead26b2	0.33818585
120	0xbf90d553	-1.1315101
121	0x3e7a135c	0.24421448
122	0xbe9dadcc	-0.3079666
123	0xbf27e8db	-0.65589684
124	0xbeb81eee	-0.35961097
125	0xbfaeed4d	-1.3666168
126	0x3d8d6324	0.06903675
127	0xbeed8474	-0.46390116
128	0x3f499581	0.7874375
129	0x3e32b0b6	0.17450222
130	0x3f8d5f4c	1.1044707
131	0xbf9f8fee	-1.2465799
132	0xbeb07775	-0.34466138
133	0x3e1c4e8a	0.15264335
134	0xbf888c6d	-1.0667855
135	0xbed5302f	-0.41638324
136	0xbf8c42f0	-1.0957928
137	0x3e75cfe3	0.24005084
138	0xbfd095ed	-1.6295754
139	0xbf2c4786	-0.67296636
140	0xc036ac92	-2.8542829
141	0x3f7c7f85	0.9863208
142	0x3ed0b00a	0.40759307
143	0x3f838547	1.0275048
144	0x3f2fe192	0.6870357
145	0x3ef835b2	0.48478466
146	0xbf0d3f69	-0.5517488
147	0xbf8f962d	-1.1217705
148	0x3f20997d	0.62734205
149	0xbf13d125	-0.57741004
150	0xc0171d40	-2.3611603
151	0xbf8d24e9	-1.1026889
152	0xbddaabdf	-0.10677313
153	0x3f2e6c9e	0.68134487
154	0x3f41163c	0.7542455
155	0x3bc49ec7	0.006000373
156	0xbe118551	-0.14211012
157	0xbf015c68	-0.50531626
158	0xbf8b5a25	-1.0886885
159	0x3f5f9acb	0.8734557
160	0x40004023	2.0039146
161	0xbdc1b8cb	-0.094590746
162	0xbf410a85	-0.75406677
163	0x3fdb7a57	1.714671
164	0xbe2051b5	-0.15656169
165	0xbfe5cce3	-1.7953151
166	0x3f16db31	0.5892821
167	0x3ead2be3	0.33822545
168	0xbfa8c94d	-1.3186432
169	0x3f06a3db	0.52593774
170	0xbb0893b0	-0.0020839982
171	0xbf9559f4	-1.1668077
172	0x3f9ff0d8	1.2495375
173	0xbfaba2f1	-1.3409101
174	0x3f0f6151	0.5600787
175	0x3ce26740	0.027637124
176	0xbcbd0358	-0.023072883
177	0x3f1db7d9	0.61608654
178	0x3bed17dd	0.0072355107
179	0x3f0147e2	0.5050031
180	0x3e64af22	0.22332433
181	0xbe2aa71f	-0.16665314
182	0x3f54fa99	0.8319488
183	0x3f938cfa	1.1527398
184	0xbfa9f13c	-1.3276744
185	0x3ea3e90c	0.32013738
186	0xbf170cb0	-0.59003735
187	0x3eaf993f	0.34296605
188	0xbd389b26	-0.045069836
189	0x3fd1f084	1.6401525
190	0xbec36f14	-0.38170683
191	0xbfbd9f6b	-1.4814276
192	0xbf27b678	-0.655128
193	0x3eed4785	0.46343628
194	0x3ff63abd	1.9236676
195	0x3ee8352e	0.45353073
196	0x3fbfaed8	1.4975233
197	0xbf97edcc	-1.1869445
198	0xbd880847	-0.06642204
199	0x3fed8010	1.8554707
200	0x3e02dc11	0.12779261
201	0x3ea7b350	0.32753992
202	0x400273c1	2.038315
203	0x3e5313cd	0.20613022
204	0x3f3589cf	0.70913404
205	0x3ee90e93	0.45518932
206	0x3f0f9b2b	0.5609614
207	0xc022e355	-2.5451252
208	0x3f58ad2f	0.8463926
209	0xbf33bfcf	-0.7021455
210	0x3f10c7e4	0.5655501
211	0x40239733	2.5561035
212	0x3f67e7be	0.90587986
213	0xbe9bf448	-0.3045981
214	0xbd3406e2	-0.043951876
215	0xbe5736e8	-0.21017039
216	0x3f5b96e6	0.8577713
217	0x3c8f40b4	0.017486908
218	0x3fda8640	1.707222
219	0xbfb6ee5c	-1.4291492
220	0xbf15c84d	-0.5850876
221	0x3fec0755	1.8439738
222	0x3e8990b2	0.26868206
223	0x3f1c46ed	0.61045724
224	0x3e4ad3d1	0.19807364
225	0xbfb41892	-1.4069998
226	0x3ead0a8c	0.3379711
227	0xbf2c1b58	-0.67229223
228	0x3f791d45	0.97310287
229	0x3fee077a	1.8596032
230	0x3fbce81d	1.4758335
231	0x3fbcf703	1.4762882
232	0xbfd545b0	-1.6661892
233	0x3fa1b387	1.2632912
234	0x3e27cc6a	0.16386572
235	0xc019d137	-2.4033945
236	0x3f80f5aa	1.0074971
237	0xbff97209	-1.9487926
238	0xbed5bcf0	-0.4174571
239	0xbf0e9acf	-0.5570497
240	0x3dd6d4d3	0.10489812
241	0xbe4beedd	-0.19915338
242	0x3f6e722a	0.9314295
243	0x4003bebf	2.0585172
244	0xbed10370	-0.40822935
245	0x3ede6972	0.43439823
246	0x3ea7c2c8	0.32765794
247	0xbe9d35b9	-0.3070505
248	0xbe9f95ec	-0.3116907
249	0xbf817394	-1.0113397
250	0xbfbb678a	-1.4640973
251	0x3f288582	0.65828717
252	0x3feb1d4d	1.8368317
253	0x3faaa827	1.3332566
254	0x3e2245e7	0.15846978
255	0xbe70dee2	-0.23522523

lstm_layer.weight_ih_l0 f4 [120, 30]
0	0x3dc77191	0.09738458
1	0xbe84a59b	-0.25907597
2	0xbcf80880	-0.03027749
3	0x3e813bf5	0.25241056
4	0x3d606dc0	0.054792166
5	0x3d9d327f	0.07675647
6	0x3baa304d	0.005193746
7	0x3dd507b2	0.104018584
8	0x3dea7fc5	0.11450151
9	0x3e1d7125	0.15375192
10	0x3e6cca04	0.23123938
11	0x3e6f40ab	0.23364513
12	0x3d96ed15	0.073694386
13	0x3d85d887	0.0653544
14	0x3e878cf5	0.2647473
15	0xbe3c8183	-0.1840878
16	0xbe0702ac	-0.13184613
17	0x3d2c4cd7	0.042065468
18	0xbe399b9c	-0.18125767
19	0xbd669f18	-0.056304067
20	0xbd18d947	-0.037316587
21	0xbd72d8c0	-0.05928874
22	0xbeb51fdd	-0.35375872
23	0x3e50111c	0.20319027
24	0xbccb2392	-0.024797235
25	0xbdb4f8ff	-0.08836555
26	0x3da5672e	0.080763206
27	0xbe3d1b2b	-0.18467395
28	0xbe3116e7	-0.17293893
29	0xbe11f9b8	-0.14255416
30	0x3e108536	0.14113316
31	0x3d8b3b5e	0.06798433
32	0xbd89593d	-0.06706474
33	0xbead1075	-0.33801618
34	0x3e1a7e0b	0.15087144
35	0xbe619924	-0.22031075
36	0xbd80012d	-0.06250224
37	0xbdfba544	-0.12287381
38	0x3e9c9642	0.30583388
39	0xbdd1f5e9	-0.10251982
40	0x3e0533d5	0.13008054
41	0x3e0590a2	0.13043454
42	0xbe5622b7	-0.2091168
43	0xbe409ead	-0.1881053
44	0x3dee5a58	0.116383255
45	0x3d7a4aec	0.061106607
46	0x3bd4d552	0.0064951563
47	0x3e15b95a	0.14621487
48	0x3e5cb9bd	0.21555229
49	0x3de8d7d8	0.11369294
50	0x3d869d61	0.065729864
51	0xbdd352de	-0.1031854
52	0x3dbe53a5	0.09293298
53	0x3b7f1013	0.0038919493
54	0xbe378d7f	-0.1792507
55	0x3d2d8599	0.042363737
56	0x3d11b269	0.035570536
57	0xbdbd52ad	-0.09244285
58	0x3d897965	0.06712607
59	0xbe6c12ed	-0.23054095
60	0xbde124e3	-0.10993364
61	0x3de9872d	0.11402736
62	0xbe57e280	-0.21082497
63	0x3e7639d4	0.24045497
64	0xbd003597	-0.031301107
65	0xbc40d5e5	-0.011769746
66	0x3de6b464	0.112648755
67	0x3d77ffd0	0.060546696
68	0x3ddf9268	0.10916597
69	0xbd765b56	-0.0601457
70	0x3d9761d6	0.073917076
71	0xbd8233bc	-0.06357524
72	0x3e1e2bbc	0.15446371
73	0xbd1842d6	-0.037173115
74	0x3d1f58d5	0.038903076
75	0x3c874184	0.016510732
76	0x3e31b167	0.1735283
77	0x3e631c13	0.22178678
78	0xbdfc20a4	-0.12310913
79	0x3e89cc67	0.2691376
80	0x3e47aeac	0.19500226
81	0xbaea21e0	-0.0017862879
82	0x3e73fcd9	0.23826922
83	0xbd597c31	-0.053096954
84	0x3e2b1d75	0.16710456
85	0xbe88c2ff	-0.2671127
86	0xbdec2942	-0.11531307
87	0xbe6cafab	-0.23113887
88	0x3c1ad77b	0.009450789
89	0xbe128e08	-0.14311993
90	0xbcdce887	-0.026966346
91	0xbcac2f1f	-0.021018563
92	0x3e103b79	0.14085187
93	0x3d18189c	0.037132844
94	0x3e1ae163	0.1512504
95	0x3d3b97cd	0.045799065
96	0x3d2cb942	0.042168863
97	0xbe64b123	-0.22333197
98	0x3e01d215	0.12677796
99	0x3e1c4e3b	0.15264218
100	0xbed0ae5e	-0.40758032
101	0xbd31a4c6	-0.04337003
102	0x3dd400c2	0.10351707
103	0x3e823ab7	0.2543542
104	0x3e2e25cf	0.1700661
105	0xbda21c62	-0.0791557
106	0x3d990ae8	0.07472783
107	0x3e4c3e39	0.19945611
108	0xbe008673	-0.12551288
109	0x3e220c54	0.15825015
110	0xbea5adf9	-0.32359293
111	0xbdf3b09d	-0.11898921
112	0xbc378d44	-0.011203114
113	0xbc7b55ac	-0.01534025
114	0x3e16cc22	0.14726308
115	0x3cd2c7b3	0.02572999
116	0xbd231707	-0.039816882
117	0x3e234e52	0.15947846
118	0x3dd9c129	0.106325455
119	0x3b1f83dc	0.002434007
120	0x3cba1457	0.022714777
121	0x3cbd029e	0.023072537
122	0x3e170f78	0.14751995
123	0x3d664585	0.056218643
124	0xbe2a2f91	-0.16619708
125	0xbe48d0b1	-0.1961086
126	0xbd7a0fa1	-0.06105006
127	0x3c572664	0.013131712
128	0xba70a0a7	-0.00091792125
129	0xbe46412b	-0.19360797
130	0xbe19d48c	-0.15022486
131	0xbd8d85c3	-0.06910279
132	0xbd9976ab	-0.07493337
133	0xbd7bd239	-0.06147978
134	0x3e3eeedd	0.18645807
135	0x3d9e1b0a	0.07720001
136	0xbe3be78f	-0.18350051
137	0x3e6556ae	0.22396347
138	0x3e0d4cdf	0.13798855
139	0x3bb1b46e	0.00542312
140	0xbdc08d77	-0.09401982
141	0x3e637e13	0.22216062
142	0x3cd14d3e	0.025549527
143	0xbe1c7871	-0.1528032
144	0x3e524d8a	0.20537391
145	0x3e2bda39	0.16782464
146	0xbdc4259b	-0.09577485
147	0xbd8b7b96	-0.068106815
148	0xbe3c727c	-0.18403047
149	0xbc20cc6f	-0.009814366
150	0x3c033edd	0.008010593
151	0xbe43c1d1	-0.19116904
152	0xbe5dd893	-0.21664648
153	0xbdf40272	-0.11914529
154	0x3cc2bd93	0.023772037
155	0x3da25fa8	0.07928401
156	0x3d17b383	0.03703643
157	0x3e37755c	0.17915863
158	0xbe371711	-0.17879893
159	0x3ca18b12	0.019719634
160	0xbd8dd603	-0.06925585
161	0xbd4bbd15	-0.04974087
162	0x3e1928f4	0.14957029
163	0x3dd13dff	0.10216903
164	0x3d8a3c3e	0.067497715
165	0x3df64629	0.12025101
166	0xbe18af9f	-0.14910744
167	0x3c62494d	0.013811422
168	0x3d5a822d	0.0533468
169	0xbe6b8921	-0.2300153
170	0x3e06a0b8	0.13147247
171	0xbda7455a	-0.08167525
172	0x3ea95f9e	0.33080763
173	0x3c731dc2	0.014838638
174	0x3d139f89	0.036040816
175	0x3e2d0caf	0.1689937
176	0xbde9f0a2	-0.1142285
177	0x3b2a074b	0.0025944288
178	0xbd485197	-0.048905935
179	0x3d23c2e1	0.039980773
180	0xbe178ea4	-0.14800507
181	0x3e4702c8	0.19434655
182	0xbe88307c	-0.2659949
183	0xbd914a90	-0.070943
184	0x3cd8558c	0.02640798
185	0xbcdb2cfb	-0.026754847
186	0xbd79e69c	-0.061010942
187	0x3de54400	0.111946106
188	0xbe208320	-0.1567502
189	0xbe8d4bf4	-0.2759701
190	0x3d0380f8	0.032105416
191	0x3d91051a	0.07081051
192	0xbe403d7c	-0.18773454
193	0xbe46f871	-0.1943071
194	0x3e1beb12	0.15226391
195	0xbd3ab51d	-0.04558288
196	0x3d6c34aa	0.057667412
197	0x3d5b60e0	0.053559184
198	0xbd2cfa5a	-0.04223094
199	0x3da2965b	0.07938834
200	0xbe1a832f	-0.15089105
201	0xbdcbe040	-0.09954882
202	0xbd8918a1	-0.06694151
203	0xbd6f3d9f	-0.058408376
204	0xbcb7ea72	-0.02245066
205	0x3dd15ed9	0.10223169
206	0xbe040016	-0.12890658
207	0x3df81c89	0.12114818
208	0xbecc5bad	-0.39913693
209	0x3e62b1d9	0.22138156
210	0x3e2d6312	0.16932324
211	0xbdbe36c6	-0.09287791
212	0x3e16ca7b	0.14725678
213	0xbdcc0e0d	-0.099636175
214	0x3d262f1c	0.04057227
215	0xbbcee2a6	-0.0063136397
216	0x3d174295	0.036928732
217	0xbe6017b9	-0.2188405
218	0x3e0121d6	0.12610564
219	0x3e0b2f2e	0.13592216
220	0xbe1d5f0d	-0.1536829
221	0xbe9e1013	-0.3087164
222	0xbe911915	-0.2833945
223	0x3d6b4cff	0.057446476
224	0xbe67d421	-0.22639515
225	0x3e11c7e9	0.14236416
226	0xbd6f565a	-0.05843196
227	0xbdfed2ed	-0.12442575
228	0xbe78828a	-0.24268547
229	0x3d9847fe	0.074356064
230	0x3dedd026	0.11611967
231	0x3d4a666c	0.049414083
232	0x3d858ca7	0.06520968
233	0x3e6ed3dd	0.23323007
234	0xbd382e62	-0.04496611
235	0xbe412fdd	-0.18865915
236	0xbd108116	-0.035279356
237	0xbd96bde2	-0.07360436
238	0x3e132f95	0.1437362
239	0xbcce28e6	-0.025165986
240	0x3cc2c7c4	0.023776896
241	0x3e3a5302	0.18195727
242	0x3e0fb116	0.14032397
243	0xbe30707b	-0.17230408
244	0x3e2dbe57	0.1696714
245	0x3d653878	0.055962056
246	0x3db9cbad	0.09072051
247	0x3c171040	0.009220183
248	0x3c0373c0	0.008023202
249	0xbdbfad59	-0.09359235
250	0xbe1654b5	-0.1468075
251	0x3dfb945f	0.12284159
252	0x3dfc8ed1	0.123319276
253	0xbb44d495	-0.0030033935
254	0x3d70ae39	0.0587599
255	0x3d2ee191	0.042695586

lstm_layer.weight_hh_l0 f4 [120, 30]
0	0x3e8bc92c	0.2730192
1	0xbe77588e	-0.24154875
2	0x3e984d81	0.2974663
3	0xbe27c818	-0.16384923
4	0x3bc2bb8e	0.0059427684
5	0xbdc2fce2	-0.0952089
6	0x3da45e36	0.08025782
7	0xbe012fad	-0.12615843
8	0xbe4215de	-0.18953654
9	0xbe857e75	-0.26073042
10	0x3c72ef33	0.014827537
11	0xbe5bb535	-0.21455844
12	0x3e1b265a	0.15151349
13	0x3cc174fd	0.023615355
14	0x3de45f43	0.11150982
15	0xbe2ec956	-0.17068991
16	0xbe298cd0	-0.16557622
17	0xbebad137	-0.36487743
18	0xbd3f9b3d	-0.046778906
19	0x3dc663e7	0.096870236
20	0xbd628b81	-0.055308823
21	0xbe2a0c95	-0.16606362
22	0x3e83a6f9	0.25713328
23	0xbe11b4f0	-0.14229178
24	0x3daf1e60	0.085507154
25	0x3eb65923	0.3561488
26	0x3d6c67e1	0.057716254
27	0x3da7b0b9	0.08188004
28	0x3d0a8dbf	0.033826586
29	0xbe1583ac	-0.1460101
30	0x3d0623c6	0.03274896
31	0x3c646100	0.013939142
32	0x3e0030ab	0.12518565
33	0x3d840e47	0.06448036
34	0xbde99cd0	-0.11406863
35	0xbd1b9c34	-0.037990764
36	0x3e43aa6c	0.1910798
37	0x3d618848	0.05506161
38	0x3e0f40b9	0.13989533
39	0x3dd142a9	0.102177925
40	0x3e389253	0.18024568
41	0x3e3fca98	0.18729627
42	0xbde25290	-0.11050904
43	0xbdc48909	-0.0959645
44	0x3e01a267	0.12659608
45	0x3dca35e2	0.098735586
46	0x3e87bfbc	0.2651347
47	0xbe8cef19	-0.27526167
48	0xbe213aa0	-0.1574502
49	0xbd12f6df	-0.035879966
50	0xbd030b4c	-0.031993195
51	0x3e32dab1	0.17466237
52	0x3cc65232	0.024209116
53	0x3e37205b	0.17883436
54	0x3e3a1419	0.18171729
55	0x3e297a48	0.16550553
56	0x3d9cd30e	0.07657443
57	0x3dcc6247	0.099796824
58	0xbda07089	-0.078339644
59	0xbdfe7e76	-0.12426464
60	0xbe3c456e	-0.1838586
61	0x3e250d3c	0.1611833
62	0x3c41dba2	0.01183215
63	0xbe88fcfd	-0.26755515
64	0xbe23640b	-0.15956132
65	0x3c917fc9	0.017761128
66	0x3da2d334	0.0795044
67	0xbcced505	-0.02524806
68	0x3d28c513	0.04120357
69	0x3e8d7f0d	0.27635995
70	0x3e588f2b	0.21148364
71	0x3cf066df	0.029345928
72	0xbb476569	-0.0030425435
73	0xbdfa0c09	-0.12209327
74	0xbe283cb9	-0.16429414
75	0xbd465b7b	-0.048427086
76	0xbd024a66	-0.031809233
77	0xbd0ee546	-0.03488662
78	0xbc61de36	-0.013785889
79	0xbc938f9f	-0.01801282
80	0x3d67d20e	0.056596808
81	0x3de10257	0.109867744
82	0xbe02573d	-0.12728591
83	0x3e4eed66	0.20207748
84	0x3ea2dd15	0.31809297
85	0xbe00893a	-0.12552348
86	0x3d4f9b8a	0.050685443
87	0x3ec08725	0.37603107
88	0x3dded6bf	0.10880803
89	0x3e27baec	0.16379899
90	0x3da45c7d	0.08025453
91	0xbea737ae	-0.32659668
92	0xbe4bc30a	-0.1989862
93	0x3e7cf490	0.24702668
94	0xbd2e5c5e	-0.042568557
95	0xbcd9e831	-0.026599975
96	0xbd5983e1	-0.053104285
97	0x3d21d364	0.03950824
98	0x3e8585ae	0.26078552
99	0x3e1c1434	0.15242082
100	0xbdde23eb	-0.108466946
101	0x3e949bf6	0.2902524
102	0xbda908fb	-0.08253666
103	0xb9c43c49	-0.0003742895
104	0x3e42c597	0.19020687
105	0xbdab2116	-0.0835592
106	0x3eb3239e	0.3498811
107	0xbd374969	-0.044747744
108	0x3dd93e8d	0.10607634
109	0x3e52fd6a	0.20604482
110	0x3e258b70	0.16166472
111	0x3d75dd93	0.060025763
112	0x3e8488c7	0.25885603
113	0xbbce8767	-0.0063027623
114	0x3dca86d6	0.09888999
115	0xbdd0ed8e	-0.1020156
116	0xbde14a82	-0.11000539
117	0xbd6df166	-0.058091544
118	0xbe574e03	-0.21025853
119	0x3bee2713	0.0072678416
120	0x3e993f22	0.2993098
121	0xbd69f149	-0.057114873
122	0x3d4b1d68	0.04958859
123	0xbce127ff	-0.027484892
124	0x3e6609ea	0.2246472
125	0x3e176ee6	0.14788398
126	0xbd8467c7	-0.064651065
127	0xbe8d0873	-0.2754551
128	0xba1ec21f	-0.0006056148
129	0xbe580f10	-0.21099496
130	0x3de4b5ad	0.111674644
131	0x3e54ba77	0.20774256
132	0xbe08d30f	-0.13361762
133	0xbd80d56b	-0.06290706
134	0xbe946292	-0.28981453
135	0x3bd665b3	0.006542885
136	0xbe1c871a	-0.15285912
137	0x3e2e8756	0.17043814
138	0x3dd4d454	0.10392061
139	0x3e2fa6b9	0.17153443
140	0x3e2a5832	0.16635206
141	0xbe8721a2	-0.26392847
142	0x3eca5e27	0.39524958
143	0x3e273751	0.16329695
144	0x3dbda85f	0.0926063
145	0xbd8d41cc	-0.068973154
146	0xbe5e508e	-0.21710417
147	0x3c595e08	0.013267048
148	0x3d4c1205	0.049821872
149	0xbdefa4c4	-0.117013484
150	0x3e3bb835	0.18331988
151	0xbe6834dc	-0.22676414
152	0x3d915910	0.070970654
153	0xbda28d00	-0.0793705
154	0xbc010976	-0.007875791
155	0xbd230372	-0.039798208
156	0x3e89763a	0.26848012
157	0x3dbd6261	0.0924728
158	0xbe5aa3f3	-0.21351604
159	0xbd028f6f	-0.03187507
160	0xbe5cb9ee	-0.21555302
161	0x3eac7519	0.33683088
162	0x3c8413fd	0.016122812
163	0xbdbe5f6e	-0.092955455
164	0x3e5cb426	0.21553096
165	0x3de4d810	0.11174023
166	0x3e9f3eea	0.31102687
167	0xbe45d8a1	-0.19320919
168	0xbe01f2b5	-0.12690242
169	0x3bc9a34d	0.0061535
170	0x3e8be342	0.2732182
171	0xbe078036	-0.13232502
172	0x3df0025f	0.11719202
173	0xbeabf272	-0.3358341
174	0xbd75911f	-0.05995285
175	0xbe36e78b	-0.17861764
176	0x3d905d9c	0.070491046
177	0x3c9d4d0a	0.019201774
178	0xbd5934ee	-0.053028993
179	0x3d29e125	0.04147448
180	0x3e44c88b	0.19217126
181	0xbdd105c6	-0.10206179
182	0xbe135ff0	-0.14392066
183	0x3e515818	0.20443761
184	0xbdc1ccf8	-0.09462923
185	0x3e2a9a29	0.1666037
186	0x3e8f7f20	0.28026676
187	0x3e4e84f9	0.20167913
188	0x3d91a070	0.07110679
189	0xbe501af9	-0.20322789
190	0x3c19ce3b	0.009387548
191	0x3b5ddd68	0.0033853892
192	0x3dbdb5bb	0.09263178
193	0xbed3dfe7	-0.4138176
194	0xbce815b5	-0.028330663
195	0xbe15463d	-0.14577575
196	0xbe8292df	-0.2550268
197	0x3aecd3a2	0.0018068443
198	0xbeb28431	-0.3486648
199	0x3d72acbe	0.05924677
200	0x3d5c7ead	0.053831745
201	0x3e1a41a9	0.1506411
202	0x3b4787d3	0.0030445948
203	0x3d5e853f	0.054326292
204	0x3da2d842	0.07951404
205	0xba74b110	-0.00093342457
206	0x3e3566e4	0.17715031
207	0xbe98cb7c	-0.29842746
208	0x3e304f26	0.17217693
209	0xbe6de9e6	-0.23233756
210	0xbd195192	-0.037431307
211	0x3ddb9ca7	0.107232384
212	0xbda4d3aa	-0.08048184
213	0xbce1cc66	-0.027563285
214	0xbeb6362e	-0.3558821
215	0x3d9c75f0	0.07639682
216	0x3de09dcd	0.10967598
217	0x3e4f5192	0.2024596
218	0xbca17162	-0.019707385
219	0xbdf9d703	-0.12199213
220	0xbe291c5c	-0.16514724
221	0x3de9c09b	0.1141369
222	0xbd824fe2	-0.06362893
223	0x3d6515b3	0.055928897
224	0x3e7f2e22	0.24919942
225	0x3d89da2c	0.06731066
226	0x3df5cdc9	0.12002141
227	0x39d26f80	0.00040137395
228	0x3d34a477	0.04410216
229	0x3e9ce68b	0.3064464
230	0x3def98c7	0.11699062
231	0xbe8eece0	-0.27915096
232	0x3da53b58	0.080679595
233	0xbe3be3f6	-0.18348679
234	0x3e39555a	0.18098965
235	0x3daa3307	0.08310514
236	0xbe13b94c	-0.14426154
237	0x3c2cdabe	0.010550199
238	0x3e3fda72	0.18735674
239	0x3e400084	0.18750197
240	0xbdc14be7	-0.09438305
241	0xbdcb4f51	-0.09927238
242	0x3dbfafe5	0.09359721
243	0x3e153449	0.14570726
244	0xbe3d275d	-0.18472047
245	0x3dd5e643	0.104443096
246	0x3d344ae0	0.04401672
247	0x3dbd2bbe	0.09236859
248	0xbe8ec7a3	-0.27886686
249	0xbce59e80	-0.02802968
250	0x3bac0ebc	0.00525078
251	0x3dd2ed0e	0.10299121
252	0x3c6ce9ec	0.014460068
253	0x3cae81fe	0.02130222
254	0xbea83ffa	-0.3286131
255	0xbd945d41	-0.07244349

lstm_layer.bias_ih_l0 f4 [120]
0	0xbcb0b638	-0.021571264
1	0x3e7ba19c	0.24573368
2	0xbc43e34d	-0.011956048
3	0x3eaf9aca	0.34297782
4	0x3e8dc2dc	0.27687728
5	0x3e160562	0.14650491
6	0x3e43078d	0.19045849
7	0x3e16cd48	0.14726746
8	0x3d497e0b	0.04919247
9	0x3d5c56f6	0.05379387
10	0x3e7fe097	0.24988018
11	0x3da2bc6d	0.079460956
12	0x3c5f3fb9	0.0136260325
13	0x3e88c15b	0.2671002
14	0x3e01ce97	0.12676464
15	0x3de66e38	0.11251491
16	0x3dd751b1	0.10513628
17	0x3e9fa434	0.31179965
18	0x3e1904e0	0.14943266
19	0x3d7002dd	0.05859648
20	0x3dfdb295	0.123875774
21	0x3e4dc139	0.2009324
22	0x3ddea58c	0.10871419
23	0x3e9337ae	0.28753418
24	0x3e63fde7	0.22264825
25	0x3e9e8f94	0.30968916
26	0x3ea80ade	0.3282079
27	0x3e4b249e	0.19838187
28	0x3c9afabf	0.018918393
29	0x3e0aafc7	0.13543616
30	0x3e56e2dd	0.20984979
31	0x3e057848	0.13034165
32	0x3e74cd0c	0.23906344
33	0x3e836f70	0.25670958
34	0xbcce804e	-0.025207665
35	0x3e77ed2a	0.24211565
36	0x3eab1f0b	0.3342212
37	0x3df2ba9c	0.11851999
38	0x3cc33345	0.023828158
39	0x3e7a0803	0.24417119
40	0x3eaf9d02	0.34299475
41	0x3e543c19	0.2072605
42	0x3ddb35ea	0.10703643
43	0xbda45db8	-0.08025688
44	0x3d462afd	0.04838084
45	0x3eabca6c	0.33552873
46	0x3b9ba2b6	0.0047496213
47	0xbd013699	-0.03154621
48	0xbc17f268	-0.009274103
49	0x3d09c8be	0.03363871
50	0x3e708473	0.23488025
51	0x3dc6d97c	0.097094506
52	0xbcd232d2	-0.025658999
53	0x3de9b515	0.11411492
54	0x3c115028	0.008869208
55	0x3df533e4	0.11972788
56	0x3ed86614	0.4226538
57	0x3db62333	0.088934325
58	0x3c92a744	0.017902024
59	0x3e88b2ca	0.26698905
60	0x3e03b04c	0.1286022
61	0x3d5b4cef	0.053540166
62	0x3b0fe756	0.0021957955
63	0x3e9f57ef	0.31121776
64	0xbda8829c	-0.08228037
65	0x3e917638	0.28410506
66	0xbe002021	-0.12512256
67	0xbe684a2e	-0.22684547
68	0xba101477	-0.00054962136
69	0xbe87a5a7	-0.2649357
70	0xbc89e553	-0.016832983
71	0x3e75fd5e	0.24022433
72	0x3dfe248c	0.124093145
73	0xbdf30a98	-0.11867255
74	0x3c653ad3	0.013991076
75	0x3e4f43ce	0.20240709
76	0xbdf97ec4	-0.12182382
77	0x3c560e3c	0.013064917
78	0x3de71b61	0.11284519
79	0x3de8421a	0.11340733
80	0xbde08e80	-0.1096468
81	0xbe4421b2	-0.19153479
82	0x3bf73232	0.0075438255
83	0xbdc003f8	-0.09375757
84	0xbd13f9fc	-0.036127076
85	0x3e2e2cac	0.17009228
86	0xbe895f19	-0.26830366
87	0x3e2b0fbd	0.16705222
88	0xbe0168d2	-0.12637642
89	0x3ded6517	0.11591547
90	0x3ea6fe65	0.32615963
91	0x3e8f53ca	0.27993613
92	0x3eb8a05d	0.36059847
93	0x3e9ddebb	0.30833992
94	0x3e393808	0.1808778
95	0x3e057e61	0.13036491
96	0x3ef1a631	0.47197106
97	0x3e0794a1	0.13240291
98	0x3e56a066	0.20959625
99	0x3ec28e42	0.3799916
100	0x3da8c7f8	0.08241266
101	0x3db639d9	0.08897752
102	0x3d92ccf1	0.07167996
103	0x3e4bb6ef	0.19894002
104	0x3d614ebb	0.055006724
105	0x3e0d1277	0.13776575
106	0x3eb08e3a	0.3448351
107	0x3cd3a599	0.025835799
108	0x3e976f89	0.29577282
109	0x3e1b41d1	0.15161826
110	0x3ea3d029	0.3199475
111	0x3e015f1f	0.12633942
112	0x3ec243e7	0.3794243
113	0x3e46dc22	0.19419912
114	0x3eed097b	0.46296296
115	0x3e911dcf	0.28343055
116	0x3eabea19	0.3357704
117	0x3e1ccc97	0.1531242
118	0x3d198fb8	0.037490577
119	0x3e01628a	0.12635246

lstm_layer.bias_hh_l0 f4 [120]
0	0x3e2155e5	0.15755422
1	0xbd4b0827	-0.04956832
2	0x3e0ec0a8	0.1394068
3	0x3e4e48a8	0.20144904
4	0x3ea2f7f6	0.31829804
5	0x3e4059b4	0.18784219
6	0x3e3f71e8	0.18695796
7	0x3d92a278	0.07159895
8	0x3e5d6eb0	0.21624255
9	0x3e1b6477	0.15175043
10	0x3e77d8fe	0.2420387
11	0x3e9f0f32	0.3106628
12	0xbc45eded	-0.012080652
13	0x3e3b796c	0.18308038
14	0x3e69c6f7	0.22829805
15	0x3e331d50	0.1749165
16	0x3d284df9	0.041089986
17	0x3e2bd7da	0.1678156
18	0x3dd7ec10	0.10543072
19	0x3e346a07	0.17618571
20	0x3e21b635	0.15792163
21	0x3ebb8180	0.36622238
22	0x3eb10193	0.34571514
23	0x3dce8ef5	0.10085861
24	0x3e2d3a6d	0.16916819
25	0x3dff89e7	0.12477475
26	0x3ef915b7	0.4864938
27	0xbc11d575	-0.00890099
28	0x3e6b8278	0.22998989
29	0x3e7770bd	0.241641
30	0x3d35797a	0.044305302
31	0x3eaca3e8	0.337188
32	0x3e4e4138	0.20142066
33	0x3e1950c2	0.14972213
34	0x3e012a9c	0.1261391
35	0x3de7db10	0.1132108
36	0x3eaa3907	0.33246633
37	0x3e66a139	0.22522439
38	0x3e0eb56e	0.13936397
39	0x3c4ccefb	0.01250052
40	0x3dfbcd56	0.12295024
41	0x3d2dd7f4	0.042442277
42	0x3e85af84	0.2611047
43	0x3e333c13	0.17503385
44	0x3d0add1b	0.03390227
45	0x3d2034e1	0.03911293
46	0xb8b7110d	-8.729296e-05
47	0xbc86c9ba	-0.016453613
48	0x3e4cbc30	0.19993663
49	0x3e6d2456	0.23158392
50	0x3ea1856c	0.31547105
51	0x3e6d1a81	0.23154642
52	0x3db7de3d	0.089779355
53	0x3e14c5a1	0.14528514
54	0x3d3be282	0.04587031
55	0x3db4d061	0.088288076
56	0x3e19a44b	0.15004079
57	0x3ea0e70d	0.31426278
58	0xbc08a990	-0.008341208
59	0x3e84575f	0.2584791
60	0x3de377dc	0.11106846
61	0xbe502d56	-0.20329794
62	0xbe232543	-0.15932183
63	0x3dde1e5d	0.10845635
64	0xbe4fd8d1	-0.20297553
65	0x3e9d7217	0.30751106
66	0x3e088c4c	0.13334769
67	0x3ca1b7e9	0.019741016
68	0xbdaf8410	-0.08570111
69	0x3cdfe2f1	0.027329894
70	0xbdb5ad22	-0.08870913
71	0x3e5525db	0.20815222
72	0x3e16f1af	0.14740632
73	0x3d20ae50	0.039228737
74	0xbde552e4	-0.11197451
75	0x3c35b5d2	0.011090713
76	0x3d3c4a4b	0.04596929
77	0xbe0caabe	-0.13737008
78	0xbae79eff	-0.0017671286
79	0x3e6c6b89	0.23087896
80	0x3e045b7f	0.12925528
81	0xbc152201	-0.009102345
82	0x3e63a50f	0.22230934
83	0x3d7f7f1a	0.062377073
84	0xbe055218	-0.13019598
85	0x3e1aeff4	0.15130597
86	0xbe9f2209	-0.31080654
87	0xbd3b7656	-0.04576715
88	0x3d03a981	0.032144073
89	0x3e02b3d6	0.12763914
90	0x3de531a5	0.111911096
91	0x3e93fc44	0.289034
92	0x3e7eb29f	0.24872826
93	0x3e2d896f	0.16946958
94	0x3eae1a53	0.3400446
95	0x3e16024f	0.14649318
96	0x3ea5259c	0.32255256
97	0x3ea04512	0.31302696
98	0x3e359b50	0.17735028
99	0x3ea824e6	0.3284065
100	0x3d57eeef	0.0527181
101	0x3e2b9f0d	0.16759892
102	0x3e6173fe	0.22016904
103	0x3e7a2bdc	0.24430794
104	0x3e18ce61	0.14922477
105	0x3e52ef24	0.20599037
106	0x3d89f0b3	0.06735363
107	0x3ea6ad3e	0.32554048
108	0x3e73d05c	0.23809952
109	0x3e5f5bc0	0.21812344
110	0x3ee66be7	0.45004198
111	0x3e5f7d12	0.21825054
112	0x3ee7f2da	0.4530247
113	0x3d8f0782	0.06983854
114	0x3e1b0fcb	0.15142743
115	0x3d6844aa	0.05670611
116	0x3ebec996	0.37263173
117	0x3da99e7d	0.08282182
118	0x3e9d0d9f	0.30674455
119	0x3dcc56e3	0.0997751

out_layer.weight f4 [101, 30]
0	0xbe8adf67	-0.27123567
1	0xbdbc9ca7	-0.092095666
2	0xbe015bc7	-0.12632667
3	0x3e5e460e	0.21706411
4	0x3de78123	0.11303928
5	0x3d20d878	0.03926894
6	0x3c4beb3e	0.012446223
7	0xbe261d2b	-0.16222064
8	0x3cccd025	0.025001595
9	0xbe40b68e	-0.18819639
10	0xbe7d378f	-0.24728225
11	0xbdaa36a6	-0.083112046
12	0xbbd0e037	-0.0063743847
13	0x3b12c889	0.002239736
14	0xbd1ff20b	-0.03904919
15	0x3e9070d4	0.2821108
16	0xbc83f2de	-0.016107019
17	0x3e4dd5c7	0.20101081
18	0x3e2986dd	0.16555353
19	0x3eba1c87	0.3634989
20	0xbe174fd3	-0.14776544
21	0xbd8bd8d8	-0.06828469
22	0xbd8e2299	-0.06940193
23	0x3e19063a	0.14943781
24	0xbdc2d22d	-0.09512744
25	0xbe5baabd	-0.2145185
26	0xbe5e888f	-0.2173178
27	0x3e6a7b35	0.22898562
28	0xbdbbd971	-0.09172333
29	0xbe1c94ef	-0.15291189
30	0xbe1c8181	-0.15283777
31	0x3de6f9a6	0.112780854
32	0x3e09cbeb	0.13456695
33	0x3e09838f	0.13429092
34	0xbd771ab2	-0.060328193
35	0x3dd4b8c2	0.10386802
36	0xbe035f75	-0.12829383
37	0xbd038d1c	-0.032116994
38	0xbe616d2f	-0.22014306
39	0x3cdc2f21	0.026877942
40	0xbde1a5fa	-0.11017986
41	0x3dc366d8	0.095411
42	0x3daa0a19	0.08302707
43	0xbd775881	-0.06038714
44	0x3c836932	0.016041372
45	0x3e599e32	0.21251753
46	0xbe99b775	-0.3002278
47	0x3d502e07	0.050825145
48	0xbd10fcd8	-0.03539738
49	0x3e836227	0.25660822
50	0x3d4629fe	0.04837989
51	0xbe6ef267	-0.23334657
52	0xbe44223c	-0.19153684
53	0x3e94305a	0.2894314
54	0xbc6460f1	-0.013939128
55	0xbe0c079c	-0.13674778
56	0x3cc902f1	0.024537535
57	0x3e14cb86	0.14530763
58	0x3e3ce8f6	0.18448243
59	0x3deb9f83	0.11505034
60	0xbe893e70	-0.2680545
61	0x3daccb4e	0.08437215
62	0x3e28cb66	0.1648384
63	0xbd3e89a2	-0.046517976
64	0x3daf1d08	0.08550459
65	0x3e503fc2	0.20336822
66	0xbe783034	-0.24237138
67	0x3d79a2e6	0.060946368
68	0x3ddeba3d	0.10875366
69	0xba20457e	-0.0006113871
70	0x3e30146d	0.17195292
71	0x3d384d5e	0.044995658
72	0xbd50e622	-0.05100072
73	0x3e9d5b6f	0.3073382
74	0xbe52015c	-0.20508331
75	0x3e9364d3	0.2878786
76	0xbccd5588	-0.025065199
77	0xbe038020	-0.12841845
78	0xbe0c48f2	-0.13699701
79	0x3d6e80a2	0.058228143
80	0x3e8ae157	0.27125046
81	0xbe2582e3	-0.1616321
82	0x3d755ccb	0.059902947
83	0x3c4738c3	0.012159529
84	0xbd8746de	-0.06605314
85	0x3cc1763a	0.023615945
86	0xbe693398	-0.22773588
87	0xbd974506	-0.07386212
88	0xbe5d176d	-0.21590967
89	0x3d8d3e2a	0.068966225
90	0xbbb71dab	-0.0055882535
91	0xbccdf37b	-0.025140515
92	0xbe4fb83a	-0.2028512
93	0xbdfab842	-0.12242176
94	0xbd99d6e7	-0.075116925
95	0x3d16a425	0.036777634
96	0xbe42e788	-0.19033635
97	0xbeb0810e	-0.3447346
98	0xbc5c428e	-0.013443602
99	0xbcbcea3a	-0.023060907
100	0xbd2ded91	-0.04246289
101	0x3eb830b8	0.3597467
102	0xbe25d1a8	-0.16193259
103	0x3e8715f6	0.26383942
104	0xbe90c803	-0.28277597
105	0x3e91ad60	0.28452587
106	0xbe5c3593	-0.21504812
107	0xbdb9ac50	-0.09066069
108	0xbc680948	-0.014162369
109	0xbdad570d	-0.08463869
110	0x3e70659c	0.23476261
111	0x3e1c30c6	0.1525298
112	0x3c87d051	0.016578825
113	0x3d69051c	0.05688964
114	0xbde0af9d	-0.109709956
115	0x3d4a40e1	0.04937828
116	0x3c4e6768	0.012597896
117	0x3d8aac53	0.067711495
118	0xbe1ebb35	-0.15501101
119	0xbdb1a492	-0.086739674
120	0xbd32d37f	-0.04365873
121	0x3c9ee4b5	0.019396165
122	0xbc800224	-0.01562602
123	0x3d69f3d2	0.05711729
124	0x3e2f1d89	0.1710111
125	0x3e0527b0	0.13003421
126	0xbe8d69a5	-0.27619663
127	0xbdae91b4	-0.085238844
128	0xbd7f0448	-0.062259942
129	0xbd7cc471	-0.06171078
130	0x3d28785f	0.04113042
131	0xbbe91943	-0.007113607
132	0x3e4fe467	0.20301972
133	0xbe345873	-0.17611866
134	0xbd858760	-0.06519961
135	0x3e7ea316	0.248669
136	0x3ce48876	0.0278971
137	0xbbf19967	-0.0073730233
138	0x3db93547	0.09043365
139	0x3e1d9555	0.15388997
140	0x3ed9b5bb	0.42521462
141	0x3e3a1075	0.1817034
142	0xbe3dce46	-0.18535718
143	0x3d551a23	0.05202688
144	0xbe25d543	-0.16194634
145	0x3b9a25ca	0.004704212
146	0xbda0c8e7	-0.07850819
147	0x3e27491b	0.16336481
148	0xbdf9e8bf	-0.12202596
149	0x3da75b10	0.08171666
150	0xbc471640	-0.012151301
151	0x3d24c736	0.040229045
152	0x3d9e32eb	0.077245556
153	0x3e5265cf	0.2054665
154	0xbd9a77c7	-0.07542377
155	0x3b355158	0.0027666893
156	0x3d9a0ccd	0.07521973
157	0xbc851dad	-0.016249502
158	0xbc2d3a95	-0.010573049
159	0xbe4a63f9	-0.19764699
160	0x3d3a03ed	0.0454139
161	0xbc8b1cd4	-0.01698152
162	0xbd946875	-0.07246486
163	0xbde3216c	-0.11090359
164	0x3e70d365	0.2351814
165	0xbd8c47bf	-0.06849622
166	0x3e18b1a0	0.14911509
167	0x3e21568d	0.15755673
168	0xbdb0451d	-0.08606932
169	0x3e0b3473	0.13594227
170	0xbbe869a0	-0.0070926696
171	0xbcf4c213	-0.029877698
172	0xbdda94a1	-0.1067288
173	0xbe933662	-0.28752428
174	0xbc8f29c2	-0.017475966
175	0x3e6bed0b	0.23039643
176	0x3db6cc54	0.08925691
177	0x3df34cbd	0.11879871
178	0x3e4afd6c	0.19823235
179	0x3e105a97	0.14097057
180	0x3d130940	0.035897493
181	0x3e201f68	0.1563698
182	0xbc980aaf	-0.018559782
183	0xbb24b6e1	-0.0025133418
184	0x3d9e7559	0.07737226
185	0x3c2f2e82	0.010692241
186	0x3dbc2e05	0.09188465
187	0xbe7991a7	-0.24371968
188	0x3c3b275c	0.011422958
189	0x3e4834a6	0.19551334
190	0xbd116c1a	-0.035503484
191	0x3daabb02	0.0833645
192	0x3dacb0b7	0.08432143
193	0xbe035398	-0.12824857
194	0x3d90d157	0.070711784
195	0xbe50684f	-0.2035229
196	0x3eafb782	0.34319693
197	0x3d7cf7c3	0.06175972
198	0xbd31862b	-0.043340843
199	0xbc8589c3	-0.016301041
200	0x3e8bbd0f	0.27292678
201	0xbc874f0d	-0.016517187
202	0x3e5d6aa2	0.21622708
203	0xbe8489b1	-0.258863
204	0xbe83c373	-0.25735053
205	0x3d97521b	0.07388707
206	0x3e6abfe0	0.22924757
207	0xbe1966c6	-0.14980611
208	0xbe3f53bf	-0.1868429
209	0x3d003a0c	0.031305358
210	0x3e0f4fe4	0.1399532
211	0x3d979b20	0.074026346
212	0x3ca7fcba	0.020506252
213	0xbb2bf2d9	-0.0026237278
214	0x3c12f7e6	0.008970236
215	0x3e39e177	0.18152414
216	0xbe061232	-0.13092878
217	0x3e0fcebe	0.1404371
218	0xbe4832bd	-0.19550605
219	0xbd014299	-0.031557653
220	0xbd667626	-0.05626502
221	0x3d5eee2f	0.05442637
222	0x3e843b37	0.25826427
223	0xbdd697cf	-0.10478174
224	0x3e25be43	0.1618586
225	0xbdd64099	-0.1046154
226	0xbdb68839	-0.08912701
227	0xbe28ade3	-0.16472583
228	0x3cb7b1c0	0.022423625
229	0x3e3ab864	0.18234402
230	0xbd12983f	-0.035789724
231	0x3dc59492	0.09647478
232	0xbebfff11	-0.37499288
233	0x3e539e85	0.20665939
234	0x3c8a7c03	0.016904837
235	0x3cce89f8	0.025212273
236	0xbe2a9770	-0.16659331
237	0xbd9f6d0a	-0.077844694
238	0x3e02e9a5	0.12784441
239	0x3ca4ce8c	0.02011802
240	0x3e751572	0.23933962
241	0x3e887318	0.2665031
242	0xbe41da9b	-0.18931048
243	0xbcdb409e	-0.02676421
244	0xbecac20f	-0.3960118
245	0x3dd4bb03	0.10387232
246	0xbedf9fb9	-0.43676546
247	0xbdd1765d	-0.10227654
248	0xbe0811eb	-0.13288085
249	0x3e12cfea	0.14337125
250	0x3cdc06a7	0.02685864
251	0x3e185194	0.1487487
252	0x3dd3a49b	0.103341304
253	0xbdc3263e	-0.095287785
254	0xbe00da88	-0.12583363
255	0x3e7918a2	0.24325803

out_layer.bias f4 [101]
0	0x3e418932	0.18899992
1	0x3e13173f	0.14364336
2	0x3ab2698e	0.001361178
3	0x3e106a4a	0.14103046
4	0xbbd11a02	-0.006381274
5	0x3cf8b8fd	0.030361647
6	0x3c837165	0.016045282
7	0x3b19e786	0.0023483946
8	0x3e8e1c3c	0.27755916
9	0x3d0cd3e8	0.034381777
10	0xbde56b6c	-0.1120213
11	0x3e444918	0.19168508
12	0x3e13ec4b	0.14445607
13	0xbdd3fbaf	-0.10350739
14	0x3d59f3c0	0.053210974
15	0x3d4ff724	0.0507728
16	0xbde40c19	-0.1113512
17	0x3de1e5f7	0.110301904
18	0xbd837697	-0.064191036
19	0x3dd120c1	0.102113254
20	0x3e33d075	0.17559989
21	0x3de61849	0.11235101
22	0x3cfaad52	0.030600224
23	0x3cd5de09	0.026106851
24	0x3d62e0ab	0.05539004
25	0x3ce6d7fc	0.028179161
26	0xbdc46bdf	-0.09590887
27	0x3d552462	0.05203665
28	0xbe6f0a21	-0.23343708
29	0xbdeec6f2	-0.116590396
30	0xbced42e6	-0.028962564
31	0xbe4849a0	-0.19559336
32	0x3e07475a	0.13210812
33	0x3e136b87	0.14396487
34	0xbd59ab48	-0.053141862
35	0x3e3eb4ae	0.18623611
36	0xbde95a68	-0.11394197
37	0xbd552646	-0.052038454
38	0xbd3298e8	-0.043602854
39	0x3dc06662	0.09394528
40	0x3c6e133f	0.014530956
41	0x3e4f0931	0.2021835
42	0xbd0af349	-0.03392342
43	0xbd89624b	-0.06708201
44	0xbe08e257	-0.13367592
45	0x3d13f8fb	0.03612612
46	0x3bcbf38b	0.006224101
47	0x3e5a5ea4	0.21325165
48	0x3e17aba8	0.14811575
49	0xbc4038f6	-0.011732331
50	0x3e072359	0.13197078
51	0xbda96e55	-0.08272997
52	0xbc80d105	-0.015724668
53	0xbd7e5d99	-0.06210098
54	0x3e459eec	0.19298905
55	0x3d5f7624	0.054556027
56	0x3dbd73dc	0.09250614
57	0x3e538e8f	0.2065985
58	0x3dfbba0e	0.122913465
59	0xbe816fbd	-0.25280562
60	0x3d32a6aa	0.043615974
61	0xbcb2109f	-0.021736441
62	0xbda393dd	-0.07987187
63	0xbd472398	-0.04861793
64	0x3d631697	0.055441465
65	0xbce24720	-0.027621806
66	0xbd464f4f	-0.04841548
67	0xbdd50b5b	-0.104025565
68	0x3d6ea4c2	0.058262594
69	0xbe1cb540	-0.15303516
70	0x3e002882	0.12515453
71	0xbc8a6a90	-0.016896516
72	0xbdc07c31	-0.09398688
73	0xbd8d289e	-0.06892513
74	0x3e1d5387	0.15363894
75	0xbe212355	-0.15736134
76	0xbe7d45e0	-0.24733686
77	0xbbcf1083	-0.006319107
78	0x3d0b28bf	0.033974405
79	0x3e8a8a00	0.2705841
80	0xbc196470	-0.009362325
81	0xbd4a2d98	-0.049359888
82	0xbdb47fb9	-0.08813424
83	0xbe035721	-0.12826206
84	0xbd856157	-0.06512707
85	0x3d349f64	0.04409732
86	0x3dcef97e	0.101061806
87	0xbcd41b1d	-0.025891835
88	0xbe54af67	-0.20770036
89	0xbc9f6fad	-0.01946243
90	0x3e6b4507	0.2297555
91	0xbe1f7f0d	-0.1557581
92	0xbe0f0e79	-0.13970365
93	0xbcd52654	-0.026019253
94	0xbd1a0ee9	-0.037611876
95	0xbdbb7242	-0.09152652
96	0x3e9dcdb0	0.3082099
97	0xbe1ae84a	-0.15127674
98	0xbe5df476	-0.21675286
99	0xbd5d055c	-0.05396019
100	0x3e533bf6	0.20628342
