DeepModels/ckpts_precomputed/sakt/ASSIST2009/model.ckpt (torch, 410745 bytes, 16 tensors)

P f4 [100, 100]
000000 37 dc 0f 3e 5c 4c ad be 8e 0d 5b 3d 1d 26 41 3d
       0.14048849 -0.3384732 0.053479724 0.04715549
000010 0b 8b af bd 6b 33 84 3e d0 92 82 3e de bd 07 be
       -0.08571442 0.2582048 0.25502634 -0.13256022
000020 68 e9 e0 bc ee 66 d5 bd 3f d1 dc 3d 11 2c eb 3e
       -0.027455047 -0.10420023 0.10782098 0.45932057
000030 5b 6d 1d be 8b 6a 37 be 51 2d 9a 3d d1 4d 46 be
       -0.15373747 -0.17911737 0.07528175 -0.19365622
000040 1f 81 b8 3d e5 09 ae be 77 16 40 3e 23 8b 32 be
       0.09009003 -0.33991924 0.1875857 -0.17435889
000050 6f ed bb 3d 46 73 7c 3d dd f9 a1 3d ed d0 97 bd
       0.09176146 0.06163337 0.07908986 -0.07412896
000060 5d ab 55 3e 97 e1 ae 3e 63 d3 30 3e 4c f8 b8 3e
       0.20866151 0.34156486 0.17268138 0.36126935
000070 d7 65 e4 3e 9f 62 1e 3f dc 16 95 be 11 db 0e 3e
       0.44608948 0.61869234 -0.29119003 0.13950755
000080 cc a2 22 3c ba 59 75 3e c7 bb 85 3d ba 63 a0 bc
       0.009926509 0.23960009 0.06529956 -0.019578803
000090 23 71 c4 3d 24 f0 4f 3e ff 15 93 3e fd a0 6f 3e
       0.095918916 0.2030645 0.2872772 0.23401256
0000a0 cc 57 8c 3e 44 b3 4c be 3f 04 95 3d 17 12 e1 3e
       0.27410734 -0.1999026 0.072762005 0.43959114
0000b0 3b 04 81 be 31 91 ff 3d 9f 53 16 3e 3d db 7b bc
       -0.2519854 0.12478865 0.14680336 -0.015372095
0000c0 5c 97 bc be 06 79 55 be f4 86 1a be 48 40 76 bd
       -0.36834228 -0.20846948 -0.15090543 -0.060119897
0000d0 d9 50 42 bd cf 52 09 3e ae 34 0d bd d5 a8 8e be
       -0.047440384 0.13410495 -0.034474067 -0.27863184
0000e0 c3 59 51 3c c4 c5 3d 3e 91 0c e1 be c0 a2 28 be
       0.0127777485 0.18532473 -0.439549 -0.16468334
0000f0 bf 72 58 bd 89 6a 35 be d2 8a 4d be 5a 7c 67 bd
       -0.052843805 -0.17716421 -0.20072487 -0.056515075
000100 b3 14 9c bb 11 96 54 be 39 52 94 bb 8b d2 1b be
       -0.0047632097 -0.20760371 -0.0045264033 -0.15217035
000110 8f 1d bc 3d 77 d1 f6 be 2d e8 05 3c 6e 6f ee bd
       0.09185325 -0.48206684 0.008173031 -0.11642347
000120 f2 2f 0c bd f4 54 31 3d 97 a8 dd 3e 1d 27 47 3e
       -0.03422541 0.04329391 0.43292686 0.19448514
000130 9d 57 94 be f3 84 1f 3e f1 48 e9 3e fc d0 c4 3e
       -0.28973094 0.1557806 0.45563462 0.38440692
000140 d3 6a 34 3e 05 c4 f0 3d 45 eb e7 3e 88 f9 9f 3d
       0.17618875 0.11756138 0.45296684 0.07811266
000150 5d 9e ce be 4c d8 80 3b c0 cd af bd df 00 57 be
       -0.40355197 0.0039320346 -0.085841656 -0.20996426
000160 06 de 36 be bd c4 86 3d df ff 28 bf 6c 6b c5 3d
       -0.17858133 0.065804936 -0.6601543 0.0963963
000170 ed bd cc 3e 50 d9 8a 3e ba bc 61 3c ac 81 a8 be
       0.39988652 0.2711892 0.013777906 -0.32911432
000180 0e 49 19 bd a8 75 c6 3d b3 d5 90 bd 7b 73 ee 3b
       -0.037423186 0.0969041 -0.0707201 0.00727695
000190 ed 77 83 be 05 c5 0c 3e 2e 98 50 be 34 a6 16 3e
       -0.25677434 0.13747032 -0.20370552 0.14711839
0001a0 a5 d3 d4 be a6 07 5e 3e 49 99 5a be f2 dc ce 3b
       -0.41567722 0.21682605 -0.21347536 0.00631296
0001b0 23 f2 b7 bc 84 0b 1e 3e dd 94 11 bd 10 a3 17 3d
       -0.022454327 0.1543408 -0.035542358 0.037020743
0001c0 5a 3e 51 be 89 59 09 bf ae 72 40 be 25 56 3c be
       -0.20433941 -0.53652245 -0.18793747 -0.18392237
0001d0 ac 49 51 3d c9 d0 85 be f0 2d 01 3e 61 b5 12 3d
       0.05109565 -0.26135853 0.1261518 0.035817508
0001e0 d9 ef 98 3e ec 71 0a bd 68 67 50 3e 16 e3 64 be
       0.2987049 -0.03380005 0.20351946 -0.22352251
0001f0 82 8f 77 3e 57 5d 76 be 7e 2b 39 3e 97 34 09 3e
       0.24175838 -0.24059044 0.18082997 0.13398968
000200 c7 54 46 3e ba 87 36 bd 20 52 7a be 28 0f 2e bd
       0.19368277 -0.044563033 -0.2444539 -0.042494923
000210 53 10 14 3e 08 99 c2 3d c3 68 7c bd 6a de 28 3e
       0.14459352 0.09501845 -0.061623346 0.16491094
000220 56 92 7a 3d c4 5a a2 3d 9f e7 47 3e eb 76 81 bd
       0.061174713 0.079274684 0.1952195 -0.0632151
000230 98 06 78 3e 1c 09 d5 be 51 d1 5c bd 14 9b 02 3c
       0.24221265 -0.41608512 -0.053910557 0.007971544
000240 02 ce 5d be 1c 70 b2 bb 0b a6 44 3e 64 fa 7d bd
       -0.21660617 -0.0054454934 0.19203965 -0.06200637
000250 d1 71 a3 bd 1b ef 1e be 5f 84 48 be 98 8a 89 3e
       -0.07980693 -0.15520899 -0.19581746 0.2686355
000260 a7 88 5b be 41 54 5e 3e 7d 9c 36 be df 78 51 be
       -0.21438847 0.21711828 -0.17833133 -0.20456265
000270 86 b0 f7 bc 28 e8 a6 3d 47 e5 ca bd 63 dc d8 bd
       -0.03023554 0.08149749 -0.099070124 -0.105889104
000280 3a 9e 0e be 02 16 80 bd 46 b8 92 3d 42 89 7a 3d
       -0.13927546 -0.06254198 0.071640536 0.061166056
000290 64 b3 ca 3c 22 c8 f1 bc a3 fa 1b be 11 2b 04 bd
       0.024743743 -0.029514376 -0.15232329 -0.032267634
0002a0 e8 dc 68 3e b5 b7 e8 bd cc 05 b9 be 1b 5b 50 be
       0.22740519 -0.11363164 -0.36137235 -0.20347254
0002b0 53 7b 2c be 8c 36 94 3e 61 36 0b 3d 42 93 28 3e
       -0.1684392 0.28947866 0.033987407 0.16462424
0002c0 ec 04 1f 3e 5a 6f 92 3e 2e 46 26 3e ae 37 b9 3e
       0.15529221 0.2860058 0.16237709 0.36175293
0002d0 73 15 ae 3b 4d 27 81 be 95 25 c8 3d ff 16 01 3e
       0.0053126155 -0.25225297 0.09772793 0.12606429
0002e0 8f c5 0e bc c7 51 2e 3e 11 fc ff bb 2c 4f 80 3d
       -0.008714094 0.17023383 -0.007812031 0.06265101
0002f0 4a 35 83 3e 5d 6d e6 be de bc 99 bd 69 97 0c 3d
       0.25626594 -0.45005313 -0.07506727 0.034324083
000300 e4 44 a3 3d c9 b4 fa 3e a5 25 70 3e 34 a1 c0 3a
       0.07972124 0.48966053 0.2345186 0.001469648
000310 69 33 6c 3e 98 eb 05 bf c6 03 70 3b ce 33 27 be
       0.23066486 -0.5231261 0.0036623343 -0.16328356
000320 e5 c4 9b 3c 2b 7d 3d 3e d2 c2 8c 3d 8e 60 94 3a
       0.019014785 0.18504779 0.068730965 0.001132028
000330 3e 4b 35 be 38 bd ac 3e 2a de 38 3e d8 89 fe be
       -0.17704484 0.33738112 0.18053499 -0.4971454
000340 fd 4a e6 be 14 b0 74 be b6 0f 34 3e 12 c4 8a bd
       -0.44979087 -0.23895293 0.17584118 -0.06775679
000350 d6 ab 80 be f9 88 45 be 28 cb 25 be a6 d6 e1 bd
       -0.251311 -0.19290532 -0.16190779 -0.11027269
000360 ef 5b c3 bd be 02 bc bd 9c 45 1f 3e ff 15 3a 3e
       -0.09539019 -0.091802105 0.15553898 0.18172453
000370 79 4f 55 bd 62 1f 20 3d c3 68 47 bd 8b 10 07 bd
       -0.052077744 0.03909243 -0.048683893 -0.03297476
000380 f1 0d 07 3e 43 0b 8c bd ee b8 91 3e 0c f0 9c 3e
       0.13188912 -0.068380855 0.28461403 0.3065189
000390 02 59 d2 bd d7 1f bb bd 0b 2f 00 3e 31 e5 51 bd
       -0.10270883 -0.09136932 0.12517945 -0.051243965
0003a0 fe 84 1e 3e d0 a8 af 3d eb e4 46 be 68 f4 d1 3d
       0.1548042 0.0857712 -0.19423263 0.10251695
0003b0 5e 93 28 ba aa db de 3d a3 f2 7a bd af 6c 2c 3d
       -0.0006430651 0.10881741 -0.061266553 0.042095836
0003c0 2f 65 0f be 92 e0 b1 be d7 b5 1c be cc 86 16 bc
       -0.14003442 -0.34741646 -0.15303741 -0.0091874115
0003d0 40 da 0d 3e 5c fc 08 3e 8b 86 a4 bd 85 e6 92 bd
       0.13852787 0.13377517 -0.080334745 -0.07172874
0003e0 8a ce 30 bd ff 29 f8 3d d8 0d b9 bd 84 40 00 3e
       -0.04316572 0.12117385 -0.090358436 0.12524611
0003f0 c2 cc 71 bc f1 f9 55 3d fa 4c 16 3d bc c4 f9 3d
       -0.014758291 0.052240316 0.036694504 0.12195727

M.weight f4 [202, 100]
000000 8c 08 a9 3e 62 15 13 3f 71 75 b1 be 19 88 ba 3f
       0.33014333 0.574545 -0.34659913 1.4572784
000010 05 90 71 3e 03 90 02 bf e1 c4 ca bd 09 bd 31 be
       0.23590095 -0.51000994 -0.09900833 -0.17357267
000020 ae bb 7c bf 6b 7a 07 bf 58 11 17 3f 77 91 52 3e
       -0.98723876 -0.5292117 0.5901084 0.20563303
000030 ae 34 b7 be 82 71 df 3e 41 a7 9f 3f 5d 44 5a 3f
       -0.3578238 0.43641287 1.2472917 0.85260564
000040 7e 1d dd 3f 00 56 9f 3e ce da b5 be e1 06 ef 3f
       1.7274625 0.311203 -0.35518497 1.8673974
000050 67 9c 9a 3f 42 8b 2d bf 82 70 ae bf b5 d7 5b be
       1.207898 -0.67790616 -1.3628085 -0.21469004
000060 62 ae 92 bd 92 c8 90 be b0 f4 b8 bf 34 0b 2c 3f
       -0.07162167 -0.28278023 -1.4449673 0.67204595
000070 1e e5 27 3e 3f 15 79 3f 0e 01 98 3f 05 05 19 bf
       0.16395995 0.97298044 1.1875322 -0.59773284
000080 54 a8 ec 3f 9c 83 c1 3f 2d b5 ae 3f a7 f7 10 3f
       1.848887 1.5118289 1.364904 0.5662789
000090 3b c2 3e 3e bb db 67 bc 43 86 27 bf 41 83 3f bf
       0.1862878 -0.014151509 -0.6543924 -0.7480965
0000a0 47 99 c7 bf 45 34 f4 3e 74 e7 cc 3f db e3 14 bd
       -1.5593652 0.47696128 1.6008134 -0.036350112
0000b0 3a 69 46 bf 72 28 df be e8 ef 05 bf c6 93 1d 40
       -0.77504313 -0.43585545 -0.5231919 2.4621444
0000c0 65 a2 a2 be 3f 5a ab 3d 59 bc c5 bd d5 61 14 3f
       -0.31764522 0.083668225 -0.09655065 0.5796178
0000d0 35 13 fd 3f dc 0c 94 be 21 4d ab 3e d1 95 4b 40
       1.9771487 -0.2891606 0.33457282 3.181019
0000e0 be 2d 95 bf 5f 91 ba bf 61 3f 6b bf 44 a4 0e be
       -1.1654584 -1.4575614 -0.91893584 -0.1392985
0000f0 b1 f7 0b bf 4f cc 47 bf 91 07 a2 be 2a 92 72 bf
       -0.5467482 -0.78046125 -0.31646398 -0.9475428
000100 f4 9f 48 bf 4e b3 33 3f ea d4 07 bf ca 15 9d bf
       -0.7836907 0.7019547 -0.53059256 -1.2272274
000110 7f ed 8a 3d 7b b3 f5 bf 24 c2 c8 be 0d e5 cd 3e
       0.0678358 -1.9195398 -0.39210618 0.40213814
000120 07 35 af 3f b7 47 9d bf 1b 88 08 bf d7 5a a1 be
       1.3688058 -1.2287511 -0.5333268 -0.31514618
000130 1c 0b af 3f 62 0a d7 be a6 cb 82 3f 18 cf c3 be
       1.3675265 -0.4200011 1.0218399 -0.38243937
000140 00 b0 71 bf 2e 2e 5b bf f9 51 a4 3e cb c4 88 3f
       -0.9440918 -0.8561734 0.3209379 1.0685056
000150 a5 38 40 3e 25 bb a2 3f 11 70 08 bf 80 11 a8 3e
       0.18771608 1.2713362 -0.53296 0.3282585
000160 00 45 08 3f 5e 58 46 bf 5a f4 1f 3f c4 95 0e 3f
       0.53230286 -0.7747859 0.62482226 0.55697274
000170 c2 c3 7d 3f a8 01 01 3f 45 35 bd be e5 68 8a bf
       0.9912683 0.5039315 -0.36954704 -1.0813261
000180 02 c1 63 be 9c bc b8 3f f2 8e 0e be d4 ad be bf
       -0.22241595 1.4432559 -0.13921717 -1.4896798
000190 db f9 d5 3e af dd 89 bd fe 5d f8 bf f3 7f 62 3e
       0.41792187 -0.06731736 -1.9403684 0.22119121
0001a0 93 0e cd be 64 8b d8 be d1 aa b7 3f a4 7e b0 3f
       -0.40050182 -0.42293847 1.4349004 1.3788648
0001b0 2f c1 c5 3f ae ef 25 3f 52 fa 13 c0 14 43 a1 be
       1.544958 0.6481885 -2.3121533 -0.3149649
0001c0 3a 30 0f 3e 33 4f bd be 53 2f 62 bf be 05 93 bf
       0.1398324 -0.36974487 -0.8835346 -1.1486127
0001d0 26 e8 48 3f 68 24 d2 ba 01 4b 14 be 6f c5 c3 bf
       0.7847923 -0.0016032578 -0.14481737 -1.5294627
0001e0 39 51 37 bf 17 47 c3 be 25 53 97 3f 7b 76 1d bc
       -0.7160831 -0.38140175 1.1822249 -0.0096107675
0001f0 f4 8e c4 be fc 16 03 3f 54 c0 37 bf e9 88 d4 be
       -0.38390315 0.51206946 -0.71777844 -0.41510704
000200 18 41 49 3f 4c 11 a5 bf 2a 14 a5 3f 30 6f 01 bf
       0.7861495 -1.2895904 1.2896779 -0.50560284
000210 b8 e0 36 bf 27 df d0 bf 2b ce 2f 3f 92 d8 ad 3e
       -0.71436644 -1.6318101 0.6867396 0.33954293
000220 2f 58 b7 bf 5e d8 46 bf 0b e0 bc 3f 5f 44 b4 3e
       -1.4323786 -0.776739 1.4755872 0.35208413
000230 c4 5b 62 3f f7 80 46 3c 77 8f 4a 3e 5e 50 b1 3d
       0.88421273 0.012115709 0.1978129 0.08657907
000240 c3 0a 13 3e b6 2f 81 3f a9 41 28 3f 59 a2 91 bd
       0.14359574 1.0092685 0.6572519 -0.071110435
000250 40 8a 18 3f b7 d5 18 3f 3b df 8a 3f d6 74 4d 3f
       0.5958595 0.597011 1.0849375 0.802564
000260 ef 99 e7 3f c3 27 f4 be 1b d5 d9 bf 9d 8a cf 3b
       1.8093852 -0.47686586 -1.701816 0.0063336627
000270 76 6d d9 3f 54 7f db bd 18 2e 6a bf 84 d1 2b c0
       1.698653 -0.10717645 -0.91476583 -2.6846628
000280 3f 1d 8d 3f 14 42 1c 3f 3f 01 b2 be 8b 24 0f c0
       1.102455 0.6103833 -0.34766576 -2.2366054
000290 68 30 64 3f 6c c3 a2 bf 1c c3 ea bd b7 fa 7c bd
       0.8913636 -1.2715888 -0.114629954 -0.061762538
0002a0 0c b6 09 c0 61 9e 11 3f 75 30 ba be 6d 5e 69 bd
       -2.1517363 0.5688229 -0.36365095 -0.056974817
0002b0 c4 9f bc 3e be 4d 74 be 77 2c 38 bf b5 4f 13 bd
       0.36840641 -0.23857781 -0.7194285 -0.035964686
0002c0 00 42 2d bf 5c 2d 75 bf 8e fc b2 3f 63 85 c0 3d
       -0.67678833 -0.9577234 1.3983324 0.094004415
0002d0 dd 9c 9f bf 29 e5 d1 3f 97 23 29 3f 6b 69 32 3f
       -1.2469746 1.6398059 0.6606993 0.69692105
0002e0 d0 56 db bc 8b b4 76 3d 93 36 6b bf 6e a7 b8 bf
       -0.026774794 0.060230773 -0.9188015 -1.4426095
0002f0 f0 21 46 bf db bc 0a bf 8b fa 0b bf e7 b1 3f be
       -0.77395535 -0.5419442 -0.54679173 -0.18720208
000300 de 6f ef 3f 99 14 7a bf 43 ad de bf bc 9b 2b bf
       1.8706014 -0.9768768 -1.7396625 -0.67034507
000310 90 24 d0 3e ec e6 93 3f c9 a7 54 3f ae 3a 12 bf
       0.40652895 1.1554847 0.8306852 -0.5712079
000320 49 5d 95 3f 91 63 2e c0 13 cd 18 3f 42 64 bc bf
       1.1669093 -2.724827 0.5968792 -1.4718096
000330 6f 24 ac bf 52 44 1a be 46 ab a6 bf 34 c7 4a be
       -1.3448619 -0.15065125 -1.3021019 -0.19802552
000340 bc 91 4f 3e cb 8a 5a bf a9 e0 c4 bf 36 54 3b bf
       0.20270437 -0.8536803 -1.5381061 -0.7317537
000350 15 15 93 3f 58 4e b2 be 5e 22 e3 3f 9e ca 97 bf
       1.1490809 -0.34825397 1.7744863 -1.1858709
000360 70 41 09 c0 d2 75 62 3e cc 12 a7 be 6b f5 a0 bf
       -2.144619 0.22115257 -0.32631528 -1.2574896
000370 90 08 60 be 47 42 7d 3d e6 14 f2 bf 83 88 14 bf
       -0.21878266 0.061830785 -1.8912628 -0.580208
000380 b0 55 01 40 2a 90 81 bd 26 20 3a be 5c 18 f6 3f
       2.020855 -0.06326325 -0.18176326 1.9226184
000390 31 b4 98 3e 31 d8 70 be 5c 85 2f bf 0c 31 e2 3d
       0.29824975 -0.2351997 -0.68562865 0.11044511
0003a0 c2 67 bb 3f b5 4d 8f be 63 36 67 bf 6c e5 11 3f
       1.4641039 -0.27988973 -0.9031736 0.56990695
0003b0 11 ac 1b 3f 2a 09 7a bf 2b 86 52 bf d9 ec 9a 3b
       0.6080943 -0.97670233 -0.82235974 0.0047279415
0003c0 21 82 41 bf a2 f7 a8 be a7 3f 28 3f 08 42 db be
       -0.75589186 -0.3300143 0.65722126 -0.42823815
0003d0 dd ec c7 bf 26 f7 df bf 5c b2 e1 bf cf 7b 2a bf
       -1.561916 -1.7497299 -1.7632556 -0.66595167
0003e0 33 b2 15 bf 9f ac 07 bd d8 ff 00 bf 11 29 09 3f
       -0.58475035 -0.03312361 -0.50390387 0.5357829
0003f0 8e f2 1e 40 eb 5f 10 3f b3 52 d4 3f aa 89 4b 3f
       2.4835544 0.5639636 1.6587738 0.79506934

E.weight f4 [101, 100]
000000 5d fd b3 3e a1 f7 73 bc bd a5 b6 3e 1e d7 29 bf
       0.35154238 -0.014890582 0.35673323 -0.6634387
000010 7f 9f a4 3e 2c 18 a4 3f 8d 91 c2 3e fa 07 d8 bf
       0.32152936 1.2819877 0.3800167 -1.6877434
000020 83 71 35 bd ae ac 9c 3f b5 b8 f9 bf 6a 4a 5c 3e
       -0.044297706 1.2240198 -1.9509493 0.21512762
000030 d9 35 a3 bf f2 67 bf 3e 10 83 6b be e1 f6 68 3f
       -1.2750808 0.3738399 -0.22999215 0.9100171
000040 dc 61 89 3f ae e9 15 c0 e2 cf e1 be df 2c a1 be
       1.0732989 -2.3423877 -0.44103914 -0.31479546
000050 43 84 e6 3f d1 9f 41 3f 55 95 73 3e 0a 0e 0e 3f
       1.8009113 0.75634485 0.23787434 0.5549017
000060 95 3e 4f 3f a1 2d 3a 3f fd 60 da be 98 55 da bf
       0.8095487 0.72725874 -0.4265212 -1.7057371
000070 df a5 ca bf 16 fe 71 3f dc a8 4c 3f f3 cc 7c 3c
       -1.583187 0.9452833 0.7994516 0.015429723
000080 78 93 7c 3f 72 5c 7b 3f e6 c9 6c 3f 50 21 ab 3d
       0.9866252 0.98187935 0.9249557 0.08355963
000090 57 16 3e bf 2d 9e c0 be ca 16 d2 bf a2 67 4b 3f
       -0.7425284 -0.3762068 -1.6413205 0.79455006
0000a0 94 91 71 3f d8 2e b1 be df 7a 0d bf 57 ee 07 3f
       0.9436276 -0.3460605 -0.5526561 0.5309805
0000b0 a2 53 b6 3f 9e b4 4a bf 4b a7 93 be 06 c6 75 bf
       1.4244273 -0.7918185 -0.28838572 -0.96005285
0000c0 f9 22 87 bf 44 a6 93 bf 3e 4c 07 c0 fa 69 8f bf
       -1.0557548 -1.1535115 -2.1140285 -1.1204216
0000d0 20 de 9b 3e e1 48 c7 3d c6 7c b6 3d 47 ba 85 3f
       0.30442905 0.097306974 0.089105174 1.0447472
0000e0 c2 23 f2 3e 9a 32 2b bf 2a 0e 9c 3f 35 dc 63 bf
       0.47292906 -0.66874087 1.2191823 -0.89007884
0000f0 cb 9b 4d be 5a 34 c8 3f d2 8b de 3e 48 c1 5c be
       -0.20078962 1.5640976 0.4346605 -0.21558106
000100 18 89 3e be be 88 25 bf 3d 90 3d 3f 09 b3 f0 be
       -0.18606985 -0.64661777 0.74048215 -0.47011593
000110 32 42 c8 3f e6 10 0d bf 9a 0e f9 3e b8 c9 0f 3f
       1.5645201 -0.5510391 0.48643953 0.56167173
000120 1a fc 1b bf 9a d9 1d be 38 26 4f 3f 98 18 e8 bf
       -0.6093155 -0.1541504 0.8091769 -1.8132505
000130 82 4d 72 3f c6 60 02 bf 85 b3 73 3f 03 bc 81 bf
       0.9464952 -0.50928915 0.951958 -1.0135502
000140 e9 f3 ac 3e c8 05 df bf 7d cc 81 3f be aa 1c 3f
       0.3377984 -1.7423639 1.014053 0.6119803
000150 fb 39 e5 3e 87 30 ac bf 6c 22 49 bc 84 fa 44 3f
       0.44770798 -1.3452309 -0.012276273 0.76944757
000160 04 a9 82 bf 82 33 c9 be e9 15 5e bf c5 d1 50 3f
       -1.020783 -0.3929711 -0.8675218 0.8157008
000170 51 49 c6 3f 27 09 8d 3e 8b 66 1a 3e 9c d7 bf bf
       1.5491124 0.27546045 0.1507818 -1.4987674
000180 c7 53 31 3f 91 2d bb 3f f4 c2 df 3f bd 48 ff be
       0.6926846 1.4623281 1.748137 -0.49860182
000190 88 c3 19 3f cd dc 57 3f 0d d3 17 3e 22 22 bf bf
       0.6006398 0.8432129 0.14826603 -1.4932292
0001a0 dc 72 83 3e 66 09 3f 3e b6 6e 98 be 6d fe 73 be
       0.25673568 0.18655929 -0.29771966 -0.23827524
0001b0 e2 bc d5 be dc 10 87 3c 25 87 8b 3e f5 29 dd be
       -0.4174567 0.016487531 0.27251545 -0.43196073
0001c0 d9 c6 a1 3f ba 6e ca be 96 b0 a4 bf 53 4e b4 bf
       1.2638808 -0.39537603 -1.286639 -1.4086403
0001d0 dd e1 db 3f bd 3a 4f 3e c0 05 33 3f 46 2f 83 be
       1.7178303 0.2023725 0.6993065 -0.25622004
0001e0 f0 bc 85 bf 0e 07 24 be 67 06 93 3e b8 96 c8 3f
       -1.0448284 -0.16018316 0.28715822 1.5670996
0001f0 2a ec 9b 3e 04 a3 fd be b0 43 58 3e b3 6b 4f 3f
       0.30453616 -0.49538434 0.2111957 0.8102371
000200 b6 e0 48 3f 6b 0f 49 bf f2 37 29 bf ba 8d b8 bf
       0.7846788 -0.7853915 -0.6610099 -1.4418252
000210 4f 92 b5 bf 34 11 aa 3f 7b 55 4a 3f 7c 08 80 bc
       -1.4185275 1.32865 0.7903668 -0.015629046
000220 a9 e0 99 bf c3 20 f9 be c3 26 ed 3e b4 6f e2 3d
       -1.2021686 -0.48657808 0.46318635 0.11056462
000230 ee 09 0a 3f fa d3 d4 3e 49 b6 1f 3f 8d 6f 0a 40
       0.539214 0.41567975 0.6238752 2.1630585
000240 29 33 7f bf f8 74 a1 be 3d 25 6a be 6f 21 0a bf
       -0.9968744 -0.31534553 -0.22865768 -0.53957266
000250 21 2e c1 be f1 f0 f2 3e 99 1e e4 bf d0 eb d5 be
       -0.37730506 0.4744945 -1.7821838 -0.41781473
000260 48 5a 3e bf 40 a3 43 bf ac 22 07 40 a9 6c c2 bf
       -0.7435651 -0.76420975 2.1114912 -1.518941
000270 f0 38 d2 bf 12 42 d3 bf 32 83 e8 3f 53 71 a5 3e
       -1.6423626 -1.6504538 1.8165038 0.32313022
000280 4a a3 a5 3d d6 77 76 bf 18 01 21 3f 22 39 92 bc
       0.080877855 -0.96276605 0.62892294 -0.017849509
000290 9c af bb bf 42 34 d3 3e 83 e4 04 40 cc 08 d5 3e
       -1.4662967 0.41250807 2.0764472 0.41608274
0002a0 e4 c3 4a 3f ba bf c6 be 76 81 43 be 9a 65 d2 3e
       0.79205155 -0.3881815 -0.19092354 0.4109314
0002b0 f1 78 28 bf 3f 89 28 3f ff 10 06 40 1f 30 c7 bc
       -0.6580954 0.6583442 2.0947874 -0.024314938
0002c0 76 fe 26 bf 58 e4 5e 3f 68 e9 a1 bf 6f bb 2f bf
       -0.65232027 0.87067175 -1.2649355 -0.68645376
0002d0 0c a0 2f bf 32 fa 42 3f ae 4d b8 3f c0 9b 42 bf
       -0.6860359 0.7616302 1.4398706 -0.76018906
0002e0 be e9 9c 3f 6d 76 e8 3e 01 98 72 bf a2 cd c2 bf
       1.2258832 0.45402852 -0.9476319 -1.5219004
0002f0 a0 c7 06 3f 54 78 b9 3e 26 c0 a8 3f ae ce 1a 3f
       0.52648354 0.36224616 1.3183639 0.6047162
000300 f1 93 a7 be db d5 88 3c ee 78 1d 3e 8b 8f 6b bf
       -0.32730058 0.016703537 0.15378162 -0.92015904
000310 36 b8 aa be c6 e9 51 3f 90 0d 30 3e c1 16 97 3d
       -0.33343667 0.81997335 0.17192674 0.07377387
000320 09 e8 db be ba d9 c3 3e cb a2 da bf ad df 1b bf
       -0.42950466 0.3825205 -1.708093 -0.6088818
000330 45 c5 8c 3f cc 2d 0e 3f 4c 71 9f 3e dc c5 2a be
       1.0997702 0.5553863 0.31141126 -0.1667704
000340 25 05 ee 3d ee f7 b5 3e f4 9d bf be dd 2c 82 3f
       0.11622075 0.35540718 -0.37425196 1.0169941
000350 81 fc 83 3f c8 f4 48 bf ca 93 98 3f e1 bf 80 bf
       1.0311433 -0.78498507 1.1920102 -1.0058557
000360 e8 ad d0 bf 36 a9 46 bf 29 d9 6d bd 63 51 27 bf
       -1.6303072 -0.77601945 -0.05806843 -0.6535856
000370 59 e0 8e bf d6 59 6d bf d5 88 9d 3c af 42 9e 3f
       -1.1162215 -0.92715204 0.019230286 1.23641
000380 a1 ce 12 bf 49 af 1e 3f bd 45 9d bd 27 8e 3b 3f
       -0.5734654 0.61986214 -0.07679317 0.7326378
000390 03 ce 8a bf 6f 5e a6 bd bd ac a4 3f de 0c 52 3f
       -1.084412 -0.081234805 1.2865216 0.82050884
0003a0 46 a5 fb bf 1d 56 bf bf 34 e5 b9 bd 1d 3b 5e bf
       -1.9659812 -1.4948155 -0.0907692 -0.8680895
0003b0 53 61 a5 3f c3 b2 af bf a9 59 17 bf d8 d8 8c 3f
       1.2920326 -1.3726429 -0.59121186 1.1003675
0003c0 c0 4c 99 3f eb 50 18 3e 8b 45 9d 3f 75 4c 9e bf
       1.1976547 0.14874618 1.2286848 -1.2367083
0003d0 77 8a 99 be 2e 75 e0 3e 9c a7 92 3f 93 87 9a bf
       -0.29988453 0.438394 1.14574 -1.2072624
0003e0 47 f5 00 bf e5 b1 9b bd 75 7a c1 bf af a3 7c 3d
       -0.50374264 -0.0760229 -1.5115496 0.06167954
0003f0 c2 14 8c 3f d9 ea 1f 3f b2 54 1b 40 f1 84 be 3f
       1.0943835 0.62467724 2.4270444 1.488432

attn.in_proj_weight f4 [300, 100]
000000 d8 c5 74 3d ea 19 b5 bd d2 53 77 3d ef 72 c7 3c
       0.05975899 -0.08842833 0.06038267 0.024346797
000010 c3 e4 b5 3d bc c3 45 bd 60 40 dd bd f5 c4 9b 3d
       0.088815235 -0.04828237 -0.10803294 0.07605926
000020 2d 05 fb bd 56 29 05 be c3 61 bf bc 0d 28 be bd
       -0.122568466 -0.1300405 -0.023362046 -0.09284983
000030 f4 18 a9 3d 82 fb 76 bd dd dc a6 3d 57 8e 52 3c
       0.082567126 -0.06029845 0.08147595 0.012851319
000040 68 db 1d bd a0 86 a6 3d 06 80 db 3d 56 39 09 bd
       -0.03853932 0.081311464 0.10717778 -0.033501945
000050 b4 33 22 3c 8d a5 ec bd 0a 44 45 be 4d fe 11 be
       0.009900022 -0.11555014 -0.19264236 -0.14257164
000060 69 bb eb bd 15 f6 14 3e 10 f3 64 3d 50 c5 26 3e
       -0.11510355 0.14546998 0.055895865 0.16286206
000070 c9 e2 ad 3d f0 4b 55 be 44 c5 b6 3d 18 33 e1 bd
       0.084905215 -0.20829749 0.08924344 -0.109960735
000080 6e 64 89 3d e3 4d 6b 3d 49 53 fe 3d 96 ef 24 3d
       0.067086086 0.057447325 0.12418229 0.04026755
000090 ec 3a 0d 3d 8f 9a b7 3c 35 8a 8a 3c db 80 7b bd
       0.03448002 0.022412566 0.016911605 -0.061402183
0000a0 da e1 fd bd 6b b6 8d 3c 54 ba 06 3e 36 b6 4b 3c
       -0.123965934 0.017298898 0.13157016 0.012433579
0000b0 a6 d1 d7 bb 61 71 7e 3d a0 83 14 be c8 e8 18 bc
       -0.0065862713 0.062119845 -0.14503336 -0.009332843
0000c0 d8 97 1f bd 24 1e 3c 3d bb 00 29 3d 1c 15 af bc
       -0.03896317 0.04592718 0.041260462 -0.02137237
0000d0 c6 80 35 be 61 ac aa 3d 0e 36 44 3c 50 a2 a5 3d
       -0.17724904 0.0833366 0.011975778 0.08087599
0000e0 61 a9 92 3d 24 31 47 bd 51 80 84 bd e4 49 15 3d
       0.07161213 -0.04863085 -0.06469787 0.03644742
0000f0 45 6f ea bd ea 7b 10 be 19 b7 a2 3d 12 d6 2c bc
       -0.11447004 -0.1410977 0.07945079 -0.010549085
000100 d3 bf 01 be c5 02 81 3b 01 a5 0b bd 7a 56 07 3e
       -0.12670831 0.0039370977 -0.034092907 0.13216582
000110 24 52 82 3e 4b 69 1e be 74 d3 b2 bc 3d 9c 2c bc
       0.25453293 -0.15469854 -0.021829344 -0.010535297
000120 8a 86 02 be 68 98 27 3c 8b 35 40 3e f8 2b b1 bd
       -0.12746635 0.010229208 0.18770425 -0.086509645
000130 b6 49 85 3d 01 c2 f3 bc 50 e6 1e 3e 4c 8a 86 bd
       0.065082 -0.029755594 0.15517545 -0.06569347
000140 df 76 90 bd 8f 5e a9 bb df 83 07 3e 6c cd 1c 3d
       -0.07053923 -0.005168743 0.13233899 0.038281843
000150 c6 ed 74 3d 09 a2 9a 3d a3 4d 1d bb 58 37 5f bd
       0.05979707 0.07550437 -0.0024002574 -0.05449614
000160 b5 9d b0 3c 28 3d e1 bc 7c 8b 26 3c 43 41 38 bd
       0.021559576 -0.027494982 0.010165092 -0.044984113
000170 e1 4b 9b bd c8 19 f0 bd 25 ae 2f bb c9 50 c2 bd
       -0.07582832 -0.117236674 -0.002680668 -0.09488065
000180 38 66 65 bd 2f 46 db bd 9a 20 fc bd eb d9 f1 3d
       -0.056005687 -0.10706746 -0.12310906 0.11809143
000190 a4 7f 39 3c 9a ef 95 3d 62 2d b1 bd 21 4e 85 3d
       0.011321936 0.07321091 -0.08651234 0.065090425
0001a0 b8 1a 96 3d a1 20 34 3d 57 20 aa bc b6 c0 28 be
       0.07329315 0.04397643 -0.020767374 -0.16479763
0001b0 5e 9f 41 bd 53 59 f1 3d b7 22 da bc f6 b0 07 be
       -0.047271125 0.11784615 -0.026627881 -0.13251099
0001c0 11 f0 2b 3e 43 99 90 bd 4d 7e 2d be 82 5e a9 3d
       0.16790797 -0.07060482 -0.16942711 0.08269979
0001d0 52 f4 f4 bd c2 12 22 bd 58 e1 cd bd a5 93 1d 3d
       -0.11960663 -0.03956867 -0.100527465 0.038470883
0001e0 d5 5c 28 bb fa 89 40 3d 19 80 87 3d b8 2e 0b be
       -0.0025690098 0.047006585 0.066162296 -0.1359204
0001f0 18 46 d3 bd ae 65 f4 bb 49 c1 09 bc d7 02 b1 3c
       -0.10316104 -0.00745841 -0.008407899 0.0216078
000200 47 51 d1 3d 54 9f 01 3e 64 30 69 bd 87 a2 f9 3d
       0.102205805 0.12658435 -0.056930915 0.12189203
000210 9b a5 82 bc 39 c5 a9 3c c4 cc e5 3d fc 1e 82 3d
       -0.015948107 0.020723926 0.112206966 0.06353566
000220 6b 5c 81 bd f7 79 28 bd 63 1c a9 bd 57 46 0c be
       -0.063164555 -0.04113194 -0.082573675 -0.13698708
000230 0b 5f 98 3d e8 10 ac 3c d7 5d 12 be b6 5f da 3b
       0.07440003 0.021004155 -0.1429361 0.0066642417
000240 17 01 60 3e 26 19 27 3e 5a 58 dd bd bc 8a 06 be
       0.21875416 0.16318187 -0.10807867 -0.1313886
000250 1d eb 39 bc ec cc 0f bd 52 bb b6 bb e0 24 d1 3c
       -0.011347559 -0.035107538 -0.0055765295 0.025530279
000260 c7 c5 80 3d 6f 85 1a be 30 47 9c 3d 03 87 1a be
       0.06287723 -0.15089963 0.076307654 -0.15090565
000270 b8 17 9b 3d fc 07 c3 bb 5d 0e 0d bd 16 5b 8a 3d
       0.07572883 -0.0059518795 -0.034437526 0.067556545
000280 ef e1 ef 3c e7 83 a1 3b a0 e6 b6 bd be 38 de bd
       0.029282538 0.004929054 -0.08930707 -0.108506665
000290 1d ab 90 3d 84 cc 02 be eb 5c 25 be b6 25 db bc
       0.07063887 -0.12773329 -0.16148727 -0.02675138
0002a0 8d 75 12 be fd f4 e1 3c 85 46 76 bd 55 11 8a 3d
       -0.14302655 0.02758264 -0.060125846 0.06741587
0002b0 9a b7 ea 3d 1b bb b1 bd 74 de e9 bd e4 ae f5 bc
       0.114608005 -0.08678266 -0.11419383 -0.02999062
0002c0 22 3b 09 be 73 7d e4 3d 6e 53 8e 3d f4 0e 15 be
       -0.13401464 0.1115674 0.06949507 -0.14556485
0002d0 59 51 07 3e 15 d0 be bc dc 0f a3 3d f5 cd 47 bd
       0.13214625 -0.02329258 0.07962009 -0.0487804
0002e0 ff 1b 4e bc 74 df 7c bd 54 a9 10 3e b2 f9 de bc
       -0.012579917 -0.06173654 0.14127094 -0.027218673
0002f0 7a 10 de 3d 73 23 10 3d 7f 82 a3 bd 62 09 36 3e
       0.108429864 0.035190057 -0.079838745 0.17777017
000300 9a 52 09 bd b8 5b 2a 3d f1 25 01 be 91 ca e7 bc
       -0.03352604 0.041591376 -0.1261213 -0.028294833
000310 73 b5 00 be b0 76 0c 3d cd e2 ac bd 0c de 0f bd
       -0.12569217 0.034292877 -0.08441696 -0.03512387
000320 d0 a8 c7 3d a0 52 22 3d d2 06 9d bd d4 12 96 bd
       0.09748995 0.03962958 -0.076673165 -0.0732781
000330 e5 a7 1e 3d 41 8a 17 bc a8 e7 3e 3e ce c5 ca 3c
       0.038734335 -0.009249271 0.18643057 0.024752524
000340 c6 85 f7 bd 56 84 bc 3c e1 be ba 3d 46 ef 2d 3d
       -0.12086062 0.023012321 0.091184385 0.042464517
000350 be 77 c7 3d 74 f5 fa 3d 8d d1 92 3d c3 83 3c be
       0.09739636 0.12253848 0.07168875 -0.18409638
000360 2c c5 a0 3d b2 6e 9e bd 9a 9d 0c 3e 2c 73 4a bc
       0.078501076 -0.07735957 0.13731995 -0.012356561
000370 6a 19 73 3c e3 d5 fb bc c0 6e 90 bd 6d a2 8f 3d
       0.014837602 -0.030741638 -0.07052374 0.07013402
000380 6a b1 b5 bd 7a 35 c7 3d 15 73 43 bd 9f 63 2b 3d
       -0.0887173 0.09726997 -0.047717173 0.041843053
000390 c7 dc 51 3d 18 7a ab 3d 03 5e 27 bd 13 9e 98 bd
       0.05123594 0.08372897 -0.04086114 -0.07452025
0003a0 6b f0 df 3d 67 c9 3c 3d a4 2f b5 bd 05 c6 bb bd
       0.10934528 0.04609051 -0.08846977 -0.091686286
0003b0 a7 5b cd 3d a5 06 d9 3d 47 7e d3 3d 09 15 ef bd
       0.10027247 0.105969705 0.1032682 -0.11673934
0003c0 29 27 e1 bd 40 39 0a bc 18 89 56 bc 46 ff 17 bd
       -0.10993797 -0.008436501 -0.013094209 -0.037108682
0003d0 67 21 f2 bc 4c 51 9e bd 7f cf 11 3e 5b 30 19 3e
       -0.029556943 -0.0773035 0.1423931 0.14959852
0003e0 b3 2f 92 3c 53 60 fc 3d d6 77 d5 bc 5b ea 1f bd
       0.01784501 0.1232306 -0.026058119 -0.03904186
0003f0 49 1c 12 3d 26 83 1b 3e 18 99 35 3e da 66 3d 3c
       0.035671506 0.15186748 0.17734182 0.011560166

attn.in_proj_bias f4 [300]
000000 96 07 d4 bc d2 ab 1b bd 03 a5 bb 3d 04 f6 91 3d
       -0.025882524 -0.038005657 0.09162333 0.07127002
000010 fa db 4a 3d f4 67 ce 3b 20 a8 05 bd 24 a6 2c 3d
       0.049526192 0.0062990133 -0.03263104 0.04215063
000020 9c c2 6e bc 89 7a 88 3d ea 31 48 3d 67 3b 74 3c
       -0.014572766 0.06663997 0.048875727 0.014906741
000030 01 6a b5 3d 13 fb 56 bd 83 c9 04 bd 66 be 03 3d
       0.08858109 -0.052485537 -0.03241874 0.032164
000040 ad 49 0b 3d 12 a8 6b 3d b4 1e 10 3d 82 ce f1 3c
       0.03400581 0.05753333 0.03518553 0.029517416
000050 d2 3f 43 3d a2 75 f2 3c 59 2e 03 be 18 57 97 3d
       0.047668286 0.029597107 -0.12810649 0.07389659
000060 aa 96 b2 3d 42 c3 83 bb a3 45 9a bd 47 13 85 bd
       0.08720143 -0.0040210793 -0.075328134 -0.064978175
000070 80 a6 8e 3c fc fc 8c bc a8 aa 17 bd 6c 93 b5 bc
       0.017413378 -0.017210476 -0.037027985 -0.022165023
000080 08 66 6c 3c 49 50 73 bd e7 83 db bc 37 72 b8 bc
       0.014428623 -0.059402738 -0.026796294 -0.0225154
000090 ca ed b3 bc f2 0e 1b 3d 0a f3 8e ba e3 de 47 bb
       -0.021963973 0.03785605 -0.0010906172 -0.003049784
0000a0 5b 85 c4 3d 7d 58 a6 3c 5d 04 80 3d 41 a9 08 3d
       0.09595748 0.020305866 0.06250832 0.033364538
0000b0 67 42 00 3c 3c d7 c5 bc c8 31 fc 3c ca 64 37 3d
       0.007828332 -0.024150483 0.030785456 0.044773854
0000c0 48 21 bb 3d 9a 2e ee 3c 81 df 2d 3d e0 19 6a bc
       0.09137207 0.029074956 0.042449478 -0.014288396
0000d0 c8 af 2b bd 7f 23 a9 3d 3f f2 2c 3d c8 0c b0 3c
       -0.041915685 0.082587235 0.04222321 0.02149047
0000e0 95 8f a7 3c d0 34 f7 ba be 47 87 3d 91 dd 89 bd
       0.020454207 -0.0018860344 0.066054806 -0.067317136
0000f0 8f 85 9c 3d d8 8e 9e bd 7a 80 56 bd b8 0e 23 3d
       0.07642662 -0.07742089 -0.05236862 0.03980896
000100 3d e8 71 3d ec bf 6f bc 4b a1 5e bd 07 9f cf 3d
       0.05905937 -0.01463316 -0.05435304 0.10137754
000110 60 fe 01 3d c9 90 47 3b 23 a6 86 3c 9e d6 fd bb
       0.03173673 0.003045129 0.016436642 -0.0077465316
000120 56 b3 83 bb 83 23 12 3c 9d f3 e6 bc 99 c7 8a 3d
       -0.0040191812 0.0089195995 -0.028192336 0.067763515
000130 81 ac af bc 76 4d d3 bd f3 22 fe 3c 25 75 0a bc
       -0.021444561 -0.10317509 0.031022524 -0.008450781
000140 bb f6 d0 bd 4f 3a 77 bd 93 bd 47 bd cd cb af bd
       -0.1020331 -0.06035834 -0.048764776 -0.08583794
000150 57 45 8c 3d d4 67 f5 bb 0e 42 78 3d 4d a8 6a bd
       0.06849163 -0.007489184 0.06060987 -0.05728941
000160 8e 24 98 bc a1 7a f4 3d 3a 0b 24 bc b5 bd 0f 3d
       -0.018572118 0.11937452 -0.010012442 0.035093028
000170 fb d3 ba 3d ad ec 0c bd fa 8a b9 3d 55 98 ac bd
       0.09122463 -0.0344054 0.09059711 -0.084274925
000180 b3 d8 99 bb 81 e4 6c 3d de 1e 4d bc 1b d0 d9 3c
       -0.004695022 0.057835106 -0.012519566 0.02658849
000190 5d c0 01 b9 0e 7d 96 38 05 a1 92 b8 a3 1a 33 38
       -0.0001237406 7.1758506e-05 -6.991815e-05 4.2701733e-05
0001a0 e9 bd 74 38 84 c6 20 38 30 68 03 b8 15 31 81 b7
       5.8351e-05 3.8331855e-05 -3.1329866e-05 -1.5400854e-05
0001b0 e1 2a ee 38 80 53 09 b8 a7 ee ce b7 2c 3e 3f b8
       0.00011356711 -3.274111e-05 -2.4668245e-05 -4.559585e-05
0001c0 1d d0 87 b8 89 8d 0b 38 69 9c 93 37 e1 1e 0c 39
       -6.476066e-05 3.3271997e-05 1.75966e-05 0.00013362944
0001d0 ba 33 05 b8 ba e4 c8 38 8a c1 10 39 48 35 65 37
       -3.1757845e-05 9.579347e-05 0.00013805009 1.3661869e-05
0001e0 fa 69 ac b8 f6 03 4c b7 f6 d1 36 38 91 70 5b 38
       -8.221339e-05 -1.216027e-05 4.3587723e-05 5.2318504e-05
0001f0 70 c1 d4 b8 59 f9 19 b8 fd b1 bd b7 ca c9 88 b8
       -0.00010144978 -3.6710266e-05 -2.2613438e-05 -6.5225715e-05
000200 6b 2a c2 37 e5 0f 5c 37 ab e0 ec 38 58 a3 fc b8
       2.3146355e-05 1.3116723e-05 0.000112952046 -0.000120467215
000210 56 87 d5 b7 d8 aa 85 b7 47 ea 01 39 a3 19 a1 38
       -2.54546e-05 -1.593439e-05 0.00012389674 7.6818535e-05
000220 6a a2 40 37 e0 0e db 38 df 65 0d 38 b0 a9 0d b9
       1.1481907e-05 0.000104455044 3.3711895e-05 -0.00013510021
000230 5e 9a 01 38 e3 a9 91 b7 1d 94 4e b7 37 90 37 b8
       3.0899762e-05 -1.7364457e-05 -1.2313042e-05 -4.376491e-05
000240 f0 20 62 34 00 33 07 b7 c9 ce 4f b8 0a 57 3e b8
       2.1059873e-07 -8.058501e-06 -4.954523e-05 -4.538059e-05
000250 38 bd be 38 70 b7 3d b9 69 f8 6e b8 d7 71 b7 b7
       9.095151e-05 -0.0001809278 -5.697497e-05 -2.186831e-05
000260 84 a3 af 37 e0 56 9c b8 7c 1d 79 38 43 a5 3f b7
       2.0937769e-05 -7.4548414e-05 5.9393686e-05 -1.1422965e-05
000270 91 93 20 39 7b 69 9b 35 ec a5 8e b8 07 54 4e b6
       0.00015313762 1.1579099e-06 -6.801993e-05 -3.0745302e-06
000280 4b f5 a7 b8 99 b1 ce b8 04 d1 c7 b8 5f 39 2b b8
       -8.00887e-05 -9.8559256e-05 -9.527992e-05 -4.0823008e-05
000290 e1 2c 2c b9 fd 28 0b 37 4a f8 00 b7 09 ad e2 37
       -0.00016419917 8.294589e-06 -7.687204e-06 2.7021875e-05
0002a0 5a 36 38 39 66 18 af 38 77 b7 49 37 dc 12 41 38
       0.00017567855 8.349195e-05 1.202325e-05 4.603235e-05
0002b0 9d c3 d6 36 fc dc f6 b8 ab 98 8c 38 a5 89 a1 37
       6.4004694e-06 -0.00011771356 6.704157e-05 1.9256791e-05
0002c0 f8 a8 61 37 58 52 87 38 1e 45 bd 36 87 92 5b b7
       1.3450386e-05 6.452639e-05 5.6406852e-06 -1.3087533e-05
0002d0 bf 67 b2 38 01 6a 12 36 75 df c2 38 16 d6 92 38
       8.5070256e-05 2.1817398e-06 9.292263e-05 7.001699e-05
0002e0 da da 73 37 99 4b 1a 38 69 dd f9 b8 d6 fe 9c b8
       1.4534884e-05 3.6786867e-05 -0.00011914486 -7.4861266e-05
0002f0 2d d5 27 b8 1f 6d d1 38 40 1f be 38 3d 6e 0a b6
       -4.0014438e-05 9.986222e-05 9.065727e-05 -2.062777e-06
000300 bc f9 2c 34 2a 0f 88 b7 f0 a8 37 39 17 82 bb 38
       1.6109601e-07 -1.6219525e-05 0.00017515174 8.941086e-05
000310 65 ab 46 b8 0d 62 4e b7 76 e4 b2 36 fa dd 09 b8
       -4.7366502e-05 -1.2301386e-05 5.3314097e-06 -3.2870077e-05
000320 bf 77 bd 3b 14 19 fa bb 8c 13 f8 3b cd 49 15 bd
       0.005782097 -0.007632384 0.0075706895 -0.036447335
000330 07 c8 10 3c 26 94 0b 3c 80 00 59 3c 3d 33 ac ba
       0.008836753 0.008519208 0.013244748 -0.0013137829
000340 25 2c 31 3c 85 88 87 bc 65 0a 96 bc 44 01 29 bc
       0.0108137475 -0.01654459 -0.018315503 -0.010315243
000350 d5 68 ba bc f0 c9 0f bd 95 fb ae 3c c6 ca a3 ba
       -0.022755066 -0.035104692 0.021360198 -0.0012496344
000360 2c c6 df bc 51 d8 70 3b e5 03 80 3c 8a da 15 bc
       -0.027316175 0.0036750028 0.015626857 -0.009146342
000370 b3 37 0f bc e7 d4 94 bc 9f 77 98 bc cb 4e 66 bc
       -0.008741307 -0.018167926 -0.018611727 -0.014056872
000380 7d 69 1b 3b 8b dd 9c bb 45 7b 5d 3d 30 17 48 3b
       0.0023714 -0.004787152 0.054072637 0.00305314
000390 12 da bd 3c 36 34 e5 bc af 9d b7 ba ef 76 0c 3b
       0.023175273 -0.027978998 -0.0014008785 0.0021433195
0003a0 83 51 e3 bb 62 27 10 37 6f f3 f5 bc 23 46 22 bc
       -0.006937207 8.592238e-06 -0.030023305 -0.009904417
0003b0 28 02 14 3c b2 ea b9 b9 ad df 47 3d 34 ef 64 3c
       0.009033717 -0.0003546081 0.0487973 0.013973046
0003c0 e7 70 ce 3b 70 50 b0 3c 85 d7 8f 3c c8 8a 50 3c
       0.00630008 0.02152273 0.017558822 0.0127284005
0003d0 20 97 03 bc b5 4b a1 3c 5d 2d e2 39 c7 16 5f bc
       -0.0080316365 0.01968942 0.00043139877 -0.01361627
0003e0 6d b7 e1 3b b7 43 89 3c 0b bf 87 3c bf 15 0e 3d
       0.006888321 0.016755922 0.016570589 0.034688707
0003f0 2f 8e dc bc 54 65 8b bc 19 d7 a5 3c 3c 4f 05 3c
       -0.026923267 -0.01701609 0.020244168 0.008136567

attn.out_proj.weight f4 [100, 100]
000000 5f 94 86 3d a6 76 b6 3c 19 49 b6 ba 08 3c 30 3d
       0.06571268 0.022273373 -0.0013907283 0.043026
000010 c5 1a db bc ed 2a 93 bd 06 91 ad bd 51 72 3d 3d
       -0.026746163 -0.07185922 -0.08474927 0.0462516
000020 7b fd 7e 3d da ab c3 bd 15 d0 07 3b 62 af c8 3d
       0.062253457 -0.095542625 0.0020723392 0.097990766
000030 10 f1 c8 b9 d4 42 b4 bb 73 9a 89 bd cc 57 47 3d
       -0.00038326578 -0.0055011306 -0.06718912 0.048667714
000040 e0 bb 97 3d be 1d e6 bc 1e 4e ba 3d 5d 75 e5 3c
       0.07408881 -0.028090354 0.09096931 0.028010065
000050 20 78 ca bd 9a b8 16 3c 49 a5 df bc b8 4e 05 3e
       -0.09886193 0.009199286 -0.027300494 0.1301831
000060 c2 6d ae bc 20 c8 57 bd ba 39 3e 3d 06 f8 20 bd
       -0.021292571 -0.05268109 0.04644177 -0.039299034
000070 ef 6d 62 bd 94 f2 49 3d 6e 27 9b 3c e4 39 03 3c
       -0.055280622 0.049303606 0.0189397 0.008009408
000080 7d 20 84 3d 64 15 0a 3d ac a1 32 3d 5c 83 64 bd
       0.06451509 0.033711806 0.043611214 -0.055789337
000090 5b 23 a9 3c 1a 0b 57 bc 14 df 75 3d 37 c1 53 3d
       0.020646742 -0.013125205 0.060027197 0.051697936
0000a0 03 cf e1 bc 46 85 2b 3d 44 1a ed bd 12 22 9e bd
       -0.027564531 0.041875146 -0.115772754 -0.07721342
0000b0 34 e0 a6 bc 08 7c 15 3c 5f b5 82 3c 07 64 23 3d
       -0.02037058 0.00912381 0.015955625 0.039890315
0000c0 68 2f 42 bc a4 ab b4 3b be 0a 70 3d 83 4c 9e bd
       -0.011852123 0.005513625 0.058603995 -0.07729437
0000d0 df 04 00 3d 64 e7 88 3d b9 22 13 3c 1f 2b e1 bc
       0.031254645 0.06684759 0.0089804465 -0.027486382
0000e0 d0 dc 11 3d 29 f6 7e bc 1c 19 c9 ba f1 35 e6 bc
       0.035610974 -0.015561619 -0.0015342566 -0.028101893
0000f0 cd ae 85 bb a8 53 68 3c d2 cb a2 3d 28 ab f9 bd
       -0.004079676 0.014180101 0.07949032 -0.121908486
000100 6a 0d 9e bc 68 4b d5 3a 15 7c c5 bd b4 09 c2 bd
       -0.019293506 0.0016273083 -0.096428074 -0.09474507
000110 99 9b 4a 3d c9 98 80 bc 8b ec 21 3c e2 1d a6 bd
       0.049464796 -0.015697854 0.009883056 -0.081111684
000120 f8 bc 98 bc 12 fe a3 3d d6 f8 5a bd d4 18 c4 3d
       -0.018644795 0.080074444 -0.053459965 0.09575048
000130 e8 ca 1d bd c5 4a 4b 3d 5e 1e 9f bd a5 31 4f 3d
       -0.038523585 0.049631853 -0.07769464 0.050584454
000140 6e a7 7d 3c f0 7d a0 bd 4d fc 77 3d b7 96 34 3d
       0.015481813 -0.07836521 0.060543347 0.044089045
000150 a1 88 03 3e 3b d4 5b bd d2 4f 8f 3d ae 46 ec 3b
       0.12845089 -0.053669196 0.069976464 0.007210574
000160 fa 44 39 bc 91 65 e4 bc 81 53 67 3d e0 a9 c9 bc
       -0.011307949 -0.027880462 0.05647612 -0.024617136
000170 de 7b 6e bd b0 14 bc bd 1a 9a 8c bc 3d 4b cd 3c
       -0.058223598 -0.09183633 -0.017163325 0.02506029
000180 88 72 16 3e b1 46 33 bc fe a9 78 bd e4 34 96 3b
       0.14692128 -0.010942147 -0.060708992 0.004583942
000190 9c 7a ac 3d 16 34 0d be b6 6d 49 bd 58 8a 8c bc
       0.084218234 -0.137894 -0.049176894 -0.017155811
0001a0 e3 3c b7 3a e0 d3 3a 3c 86 c9 f7 3c c8 9e 20 3c
       0.0013979938 0.011403054 0.030247461 0.009803481
0001b0 03 0e f4 bd c1 45 21 bc 05 1a f3 3c e6 86 91 3c
       -0.11916735 -0.009843291 0.029675493 0.01776452
0001c0 34 1c 00 3d 92 9e 9c bd 5d de 3d 3c 52 86 3d 3d
       0.031276897 -0.076474324 0.01158866 0.046270676
0001d0 97 2e d5 bc 5f b2 e0 bd 14 19 d2 3d b7 0e 72 bc
       -0.026023192 -0.109715216 0.102586895 -0.014774016
0001e0 38 74 87 bd 46 09 05 be 76 2d eb bb 27 2e 15 bd
       -0.06613964 -0.12991819 -0.00717705 -0.036420967
0001f0 67 bb 05 be f3 9a 8c 3d 37 0a 80 bd 95 8d 8d 3c
       -0.1305977 0.06865492 -0.06251948 0.017279426
000200 06 4c 7e 3d dc 4c 48 3d ee 6d 24 3e b9 db 4c bd
       0.06208422 0.048901424 0.1605756 -0.05001423
000210 98 07 e4 3a be 9e 58 3c 37 93 59 bc 76 d7 47 3c
       0.0017397283 0.013221441 -0.013279728 0.012197366
000220 0f ec a6 bc c4 ee 0a bb f2 20 8b 3d 5e 9b 87 3b
       -0.020376233 -0.0021199444 0.06793393 0.0041383943
000230 05 1a a6 3d 44 29 21 be d7 de f6 bd 53 13 ff bd
       0.081104316 -0.15738398 -0.12054222 -0.12454858
000240 90 a9 71 bd 0e 9e 27 3c 4a 2e 09 39 4a 47 4b bb
       -0.058999598 0.010230554 0.00013082582 -0.0031017833
000250 33 1d 86 bd eb d4 c1 bd b4 bf b5 3d a2 08 dc 3c
       -0.06548538 -0.09464439 0.08874455 0.026859585
000260 3e 09 1b bd dc c9 bf 3d 88 75 79 bd ea 36 0e bd
       -0.03785061 0.093646735 -0.060903102 -0.03472034
000270 7b 49 26 bd f8 74 0e be a3 d8 1f bd d5 35 00 be
       -0.04059742 -0.13911808 -0.03902496 -0.12520535
000280 71 7a 5d 3d ed 06 2a bd 09 5a eb bc 2b 05 b9 bd
       0.054071847 -0.04151051 -0.028729456 -0.09034189
000290 a7 87 9a 3c 21 22 00 be 0f 95 ac bc d3 e5 9e 3c
       0.018863512 -0.12513019 -0.02106717 0.019396698
0002a0 69 5d b9 3d 50 3d 0c 3e f6 2d c0 3d 55 d3 13 bc
       0.0905102 0.13695264 0.09383766 -0.009022553
0002b0 08 ef 26 bc 9d 9a 34 3d 5e e3 31 bd 87 43 0f ba
       -0.010188825 0.044092763 -0.043429725 -0.00054650794
0002c0 c2 62 87 bd f7 04 87 bc ca 40 38 bd b3 b4 e1 3d
       -0.066106334 -0.01648186 -0.044983663 0.11020794
0002d0 b5 43 34 3b bc 88 88 3d c1 3e f7 bb 14 ab 96 3c
       0.0027506177 0.06666705 -0.0075453226 0.018392123
0002e0 17 84 c8 3c 96 c2 90 3d de b9 ed 3b d4 9e 4b bd
       0.024477048 0.07068364 0.007254823 -0.049712017
0002f0 98 7c 17 bd b5 f4 b6 3c 90 47 7d 3d 8f 60 c1 bd
       -0.036984056 0.022333482 0.061835825 -0.09442245
000300 ff ca c6 bc 86 cb 4d bd 2f 3e 76 bd 98 3e c7 3d
       -0.024266718 -0.050242923 -0.060117897 0.09728736
000310 f1 eb 6b 3d b8 32 65 bd 2d 14 7d 3d 38 80 c5 3d
       0.057598058 -0.055956572 0.06178682 0.096435964
000320 f1 f9 49 bd 16 17 71 bd 9f dd b1 3c a1 e7 b8 bd
       -0.04931063 -0.058859907 0.021712122 -0.09028555
000330 14 4f 2d bd b5 42 f0 bb 73 19 46 3d ee 51 d4 bb
       -0.042311743 -0.007332171 0.048364114 -0.0064794933
000340 81 74 9f bb 51 f1 b3 bd da 47 86 bd 43 15 13 3d
       -0.0048661833 -0.08786262 -0.06556673 0.03590895
000350 ef 72 f8 3c 2d 7b 9c bc 06 d3 2e 3d 1d be 8a bd
       0.030328242 -0.019101704 0.042681716 -0.067745425
000360 a1 71 00 3d ec e5 52 bd fb 5a 9d bd e0 d6 63 3c
       0.031358365 -0.0514888 -0.07683369 0.013906211
000370 61 36 11 bd 95 53 2c bd 9f 22 cd 3d 13 0f d3 3d
       -0.03545225 -0.042071898 0.10016369 0.103056096
000380 0b 63 94 bc 08 0b 75 3d 20 6c 2d bd b6 31 b6 bc
       -0.018113634 0.059824973 -0.042339444 -0.0222405
000390 f4 f7 82 bd 20 8d 8e 3d 45 06 fc 3d 61 b1 e9 3d
       -0.063949496 0.06960511 0.12305883 0.114107855
0003a0 51 00 29 bd b6 b6 a3 3d 05 07 4e 3d a1 a2 a6 3d
       -0.041260067 0.07993834 0.050299663 0.08136488
0003b0 ef b9 da bd ef 60 e9 bc 3a ab 41 3c f3 51 51 3d
       -0.10679995 -0.028488604 0.011820609 0.051103543
0003c0 48 ec 12 3c 0f bd 47 bd e3 ed 01 be a9 db 38 bd
       0.008967467 -0.048764285 -0.12688403 -0.04513136
0003d0 89 15 75 3d a2 8f d5 bd 72 e5 27 bd 79 0a 20 3d
       0.05983499 -0.104277864 -0.0409903 0.039072488
0003e0 18 70 7a 3c bf f7 a3 3b 3c 53 68 3d ef 41 84 3d
       0.015285514 0.005003899 0.056720003 0.06457888
0003f0 36 9a a5 3d c9 ea 00 3e 4e a8 38 bc cd 4c a4 bd
       0.08086054 0.12589563 -0.011270596 -0.08022461

attn.out_proj.bias f4 [100]
000000 a9 76 9e 3b fb 65 97 3c 88 0a 4a 3b 8e b5 45 3c
       0.0048359227 0.018481245 0.003082903 0.012067212
000010 c7 2a a2 bb c4 b8 13 bc 33 88 ae bc 28 89 5f 3d
       -0.004948947 -0.0090162195 -0.02130518 0.05457416
000020 c5 24 c2 bc 3c 66 86 bc de e8 f1 3b cb 54 bd 3c
       -0.023699174 -0.016406171 0.0073824963 0.023111722
000030 78 16 ab bc d6 8d 96 bc 46 07 a2 3c 93 37 77 3c
       -0.020884737 -0.01837818 0.019778859 0.0150889335
000040 b8 fd da bc 1a 95 d2 bc 64 df 5d 3b 85 c9 ea bb
       -0.02673231 -0.025705863 0.0033855075 -0.0071651363
000050 bd f0 05 3d 40 74 ac 3c 49 35 35 3a 5e 2b 96 3b
       0.03270029 0.021051526 0.0006912542 0.0045828065
000060 05 2a e2 3c 70 a7 ea 3a aa cc d3 3b 03 95 b6 bc
       0.027607927 0.0017902683 0.006463607 -0.022287851
000070 82 27 e1 bc 24 d8 2a bc b2 1f f8 b8 11 81 39 3b
       -0.02748466 -0.0104275085 -0.00011831465 0.002830569
000080 c8 8c bb 3b b0 f2 22 bc 10 a2 0e 3c 4c ff af 3b
       0.0057235695 -0.0099455565 0.008705631 0.00537101
000090 5e 6b e8 bc 6e 90 24 bc 6d 68 b0 bc ee f0 30 3c
       -0.02837151 -0.0100442 -0.02153417 0.01079963
0000a0 ac 83 b9 3a fe 94 3b 3b 83 b4 d4 3c 4b 46 ab bc
       0.0014153621 0.0028622742 0.025964981 -0.020907542
0000b0 df 1f 22 bd e1 9e 85 bb 2b 76 f9 b9 f3 13 04 bc
       -0.039581176 -0.0040777777 -0.00047581023 -0.008061397
0000c0 e2 52 4c bc 4f 75 89 bc 31 6b 54 3c d4 06 59 bc
       -0.012470933 -0.01677957 0.01296501 -0.013246257
0000d0 f1 62 0b 3b e2 5e 79 bc 08 fe 29 3d 0d e6 ac 3c
       0.002126869 -0.015220376 0.04150203 0.02110579
0000e0 21 5f 6e 3d 6e f9 3d bc 53 9f b0 3c fc da 7c 3b
       0.05819619 -0.011595113 0.021560347 0.0038582673
0000f0 64 9c e1 bc 7e 27 9c bd 07 ae af bb 73 e6 53 3d
       -0.027540393 -0.0762472 -0.005361322 0.051733445
000100 52 93 5b 3c 39 82 52 3c bf ec 3e bc d1 b1 b1 3d
       0.013401823 0.01284843 -0.011653124 0.08676494
000110 f0 64 c1 bc fb b4 10 bc 97 d7 eb bb a1 34 8e 3c
       -0.023607701 -0.008832212 -0.007197331 0.01735908
000120 da 25 7d 3c 63 a0 cc 3c 6c b5 54 bc 83 a9 ec 3a
       0.015450919 0.024978822 -0.0129827075 0.001805589
000130 3b f3 85 3b fe 63 c7 bb c0 46 30 bd 05 06 85 3b
       0.004087833 -0.006084918 -0.043036222 0.0040595555
000140 89 3c de 3a 83 21 cc bc 31 9f d8 3c 52 95 ff ba
       0.0016955297 -0.024918323 0.026443096 -0.0019499457
000150 b9 a5 a0 bc c9 89 76 3c 8a e3 68 bc 35 01 ee 3d
       -0.019610273 0.015047499 -0.014214406 0.11621324
000160 0a f2 ce 3c 8c 70 ac bd 04 d7 1a 3c de 80 b3 3c
       0.025261898 -0.08419904 0.009450678 0.021912035
000170 37 9f 19 bd 99 c0 83 3c 10 b3 d3 bc e9 f8 4c bc
       -0.037505355 0.016083049 -0.02584222 -0.012510517
000180 cb c7 4b 3c 01 a8 4a 3b b1 06 23 3b 36 68 49 bc
       0.012437771 0.0030922892 0.0024875815 -0.012292912

attn_layer_norm.weight f4 [100]
000000 c2 9c 84 3f e4 60 7c 3f 07 60 7d 3f 77 27 82 3f
       1.0360339 0.98585343 0.9897465 1.0168294
000010 ef e3 7f 3f 8e b0 79 3f 15 05 76 3f ea cd 81 3f
       0.99957174 0.97535026 0.96101505 1.0140965
000020 28 12 7b 3f 75 ca 82 3f 66 48 7e 3f 3b 4b 84 3f
       0.9807458 1.0218035 0.9932922 1.0335459
000030 29 3a 7a 3f 9d f4 79 3f f3 b7 7d 3f 50 9c 86 3f
       0.97744995 0.97638875 0.9910881 1.0516453
000040 a4 3c 84 3f 7c 0f 8e 3f b0 29 7e 3f 18 94 82 3f
       1.0331006 1.1098475 0.9928236 1.0201445
000050 9b fc 6c 3f 75 58 83 3f 55 59 73 3f 4c f4 79 3f
       0.92572945 1.026137 0.95058185 0.9763839
000060 02 7e 81 3f 96 5d 7f 3f a4 f9 7b 3f 24 c4 7e 3f
       1.011658 0.99752176 0.98427796 0.99518037
000070 64 f2 7c 3f 79 f6 86 3f 6c ad 85 3f ac 26 6d 3f
       0.9880736 1.0543967 1.0443549 0.92637134
000080 39 55 78 3f d3 ec 7f 3f ff 53 7c 3f b3 c0 7d 3f
       0.9700504 0.9997074 0.9856567 0.9912216
000090 f0 32 8b 3f 57 28 81 3f b7 12 7d 3f fa ee 81 3f
       1.087492 1.0090436 0.9885668 1.0151055
0000a0 7b 09 74 3f 6d 77 7d 3f 73 ea 82 3f f2 5f 82 3f
       0.95326966 0.99010354 1.0227798 1.018553
0000b0 c3 e3 83 3f 8c 0b 82 3f 5e 71 77 3f 1c b7 7f 3f
       1.0303882 1.0159774 0.9665736 0.9988878
0000c0 26 61 82 3f 25 7b 80 3f 18 98 82 3f 3a 72 83 3f
       1.0185897 1.0037581 1.0202665 1.0269234
0000d0 58 8d 79 3f f5 21 80 3f 73 4f 75 3f 79 8f 83 3f
       0.974813 1.0010363 0.95824355 1.0278159
0000e0 34 e3 7c 3f 1d 32 79 3f c1 5d 81 3f 81 30 77 3f
       0.98784184 0.9734209 1.0106736 0.96558386
0000f0 81 d9 80 3f 76 e5 83 3f 99 16 77 3f 12 52 85 3f
       1.0066377 1.0304401 0.96518856 1.0415671
000100 bf b8 79 3f 5e 32 87 3f 34 ef 7b 3f 22 89 94 3f
       0.97547525 1.0562246 0.9841187 1.160435
000110 b6 3d 81 3f 17 df 79 3f 63 78 87 3f ee cb 85 3f
       1.0096958 0.97606033 1.0583614 1.0452859
000120 17 4b 71 3f 84 a2 79 3f a9 8d 8a 3f ed f1 78 3f
       0.94255203 0.97513604 1.0824481 0.9724415
000130 b0 4e 88 3f 4d 6f 82 3f 73 62 83 3f 89 64 86 3f
       1.0649014 1.0190216 1.0264419 1.0499431
000140 eb 55 71 3f 84 6f 7d 3f a5 ce 83 3f 7e 39 86 3f
       0.94271725 0.98998284 1.0297438 1.0486295
000150 67 4c 84 3f 81 68 79 3f 98 25 83 3f fb a0 85 3f
       1.0335816 0.97425085 1.0245848 1.0439752
000160 e9 f2 7f 3f 8a ae 91 3f 47 51 84 3f 28 05 82 3f
       0.99980026 1.138139 1.0337304 1.0157824
000170 aa 9f 86 3f 18 5e 83 3f 7d 6b 85 3f 60 23 78 3f
       1.0517476 1.026309 1.0423428 0.9692898
000180 41 a5 84 3f 82 4f 79 3f 0c 84 82 3f c2 9b 7c 3f
       1.0362931 0.97386944 1.0196548 0.9867517
