DeepModels/ckpts_precomputed/sakt/ASSIST2009/model.ckpt (torch, 410937 bytes, 16 tensors)

P f4 [100, 100]
00000000: a756 953e d8ad 32be d0e1 c53d c7ef 49be
00000010: fd12 eb3d 8b29 333e 38a1 f5bd 4256 a13d
00000020: 7cb0 1a3e 5ef0 6f3d 3539 0c3d af63 ffbd
00000030: c643 8ebe bd37 bf3d 3da5 463e 2177 603e
00000040: b3ba 503e a510 eb3d 39d7 0cbe aed9 49be
00000050: 5670 cdbd a246 2cbe f6d7 be3e 5e28 d53d
00000060: 3ff8 dc3e bfa9 55be 6802 b3bc 1986 efbd
00000070: c17a 053c 9e15 0c3e babb 713d e534 3e3d
00000080: 6213 1f3e 9f16 193e 79cb 983c f710 22be
00000090: e4cb 3cbe dcac 5cbe 66f8 0bbe c284 4dbd
000000a0: 0359 4bbe eb89 61bd 9a76 cfbe f19c c03e
000000b0: a042 26ba d157 88be 113c 6cbe c6d0 753d
000000c0: 5183 343e 7037 573d a7d1 0b3e 1454 543d
000000d0: 891c 1fbe a213 a9bd 4410 ed3d 7234 b83e
000000e0: 501c d7bc cb5b a93e 2a3a 37be 23d6 063e
000000f0: 3d48 61bd 96cc 823e e5d8 0ebe 6d6f 9e3d
00000100: 4230 4abe 6563 2c3d 2e4a 19be df6a 81be
00000110: 42df 043d 2f9a 58be 28b9 d8bc 64d9 dd3d
00000120: 8dbd 4b3d 5764 b1bd 0b9e f23d 1d69 dc3e
00000130: b82c 9d3d f163 2dbe 91ba a9be a0ef c33c
00000140: 99aa 87bd 44a7 ee3d cea8 123e f9a0 86be
00000150: b668 a83d 6cb9 a33e ffd6 4d3e 7474 b1be
00000160: 4227 26bd b9b9 68be 73ef 913e 68b1 b9bb
00000170: fa66 42bb b802 6c3e 08c5 02be fbc5 c3bb
00000180: dcfc 6a3d 98ce 003e 0d01 453e 8075 b0bd
00000190: e102 41be f0be ac3d 9dd1 533d f28b 093e
000001a0: 12e1 603e 48ab d33e 8af1 2dbd a534 5e3e
000001b0: 62a7 123e 441c af3e f993 dd3d 0867 68be
000001c0: 58a7 07bd 2934 d3be 8801 5e3d ce99 653d
000001d0: 47f8 1bbe 2032 f83a 7557 403e c56e 21be
000001e0: a1c4 013e b857 803e ea15 5c3e 56cc 90be
000001f0: 6e79 173e ae2a d33d 7417 94bc d5eb 50be
00000200: f71d 87bd 98fd 003d 2c67 4ebe fbd3 0e3e
00000210: 8e92 03be 3ce8 863e 4a0e a93e 242b 953e
00000220: b7b8 2fbc 2af0 16be 6fdb babc be8d 75bc
00000230: bf91 0ebe ca13 c43e 7b44 cdbe d10d 4a3e
00000240: 4d7e 9c3e e94b 77bd fe2b 06be 1c0e c3be
00000250: 2527 aa3d 652b 7b3d e5a2 9f3c 73da ae3d
00000260: 41e6 723a 077a 06be cca2 723d e29e c83d
00000270: b442 7a3e 67cf 223d 8157 943c e993 b33c
00000280: dbbb 743d ef28 aa3b 6f5c 453c 9404 abbe
00000290: 8ff4 fe3c bb72 f33c 4f54 b13e 4923 2dbd
000002a0: 8cbc 75bd 5950 573c 85e4 a4bd 76e3 183e
000002b0: 5c54 923e 27ca 32bc 9e04 0fbe be57 70bd
000002c0: b7be 63be 94d9 f4bc 0084 46be 8185 963e
000002d0: 443b a8bd 9a18 aa3d 527a c53d bec9 e2bc
000002e0: 7fab 19be f326 7abe 2fb2 99bd cf4e b1bd
000002f0: f2f4 3e3d 91cf 74bd 5e58 47be d8d8 2c3e
00000300: 45eb b43d a274 07bc cd1f 123e f696 27bd
00000310: 66a4 0c3e 6931 06be 0a1c 2a3e f2b0 e2bd
00000320: 2865 f6bb 14e1 4ebc de36 273e 0211 b83d
00000330: 2f3b 853e 9416 543d d13b b73d be46 563e
00000340: 4c45 2a3e 9dd0 3b3e 9e12 203e 4dfa 52bd
00000350: cd68 263c db38 4c3d f1e9 b03e 4f30 283e
00000360: 4fbc 89be 2712 0fbe bd13 b6bc e1fe 8bbd
00000370: 0ae2 923d a59b d8be 7cf0 003e 9623 633c
00000380: ae37 833d 4f3b 46be 8dea 8d3c 91d0 31be
00000390: ce42 53be 04ad 70bd 5354 21be 6240 1e3d
000003a0: e8fa 4ebe 48cf 17be 6deb be3c d970 00be
000003b0: 0cc8 64bd bc36 483c 9038 9d3d a10f 553c
000003c0: 4b2c 51be 490c 7a3e abc2 033e 00f2 143e
000003d0: 0b99 4b3e 5e1f 34be 5ea2 673d 412e 1abe
000003e0: d146 283e 51f4 273e 20e3 c3bb 69d6 94bd
000003f0: 6b81 5e3e 7519 a8bb ec06 cb3c 6efa 213e
0.29167673 -0.17449129 0.09662211 -0.19720374 0.11478231 0.17496316 -0.11993641 0.078777805
0.15106386 0.05857884 0.034234244 -0.12470185 -0.27786082 0.09336803 0.19398971 0.21920444
0.2038372 0.11477784 -0.13753976 -0.19711944 -0.10031192 -0.1682382 0.3727414 0.1040809
0.43158147 -0.20865534 -0.021851733 -0.11695499 0.008146943 0.13680121 0.05901692 0.046437163
0.15534738 0.14950036 0.01865171 -0.15826784 -0.18437153 -0.21550316 -0.13668975 -0.050175436
-0.19858174 -0.05506317 -0.40520173 0.37619737 -0.00063423254 -0.266295 -0.23069789 0.060013555
0.17628218 0.052543104 0.13654195 0.051837996 -0.15538229 -0.08255698 0.11575368 0.35977513
-0.026258618 0.33077845 -0.17893282 0.13167624 -0.055000532 0.25546712 -0.13949926 0.077360965
-0.19744971 0.042086978 -0.14969704 -0.2527685 0.032439478 -0.21152566 -0.026455477 0.108324796
0.049741317 -0.086617164 0.118465506 0.43048945 0.07674545 -0.16932656 -0.3315015 0.023917973
-0.06624336 0.11652997 0.14322206 -0.26294687 0.08223097 0.31977403 0.20101546 -0.3465916
-0.040564783 -0.22727098 0.28502998 -0.0056669004 -0.002966343 0.23047912 -0.12770474 -0.005974529
0.05737005 0.1257881 0.19238682 -0.08616161 -0.18848754 0.08434856 0.051713575 0.13432291
0.21960858 0.41341615 -0.042466678 0.2169977 0.14321664 0.34201252 0.10819239 -0.22695553
-0.033118576 -0.41250733 0.05420068 0.056054883 -0.15231429 0.0018935837 0.18783362 -0.15764911
0.12672664 0.25066924 0.21492735 -0.28280896 0.14792415 0.10310875 -0.01807759 -0.20402463
-0.06597512 0.031491846 -0.20156544 0.13948052 -0.12848875 0.26349056 0.33018714 0.29134476
-0.010725192 -0.14740053 -0.022809712 -0.014987407 -0.13922785 0.38296348 -0.4009131 0.19731833
0.3056511 -0.060375128 -0.13102719 -0.38096702 0.083082475 0.06132068 0.019486854 0.0853776
0.0009265878 -0.13132487 0.059237286 0.097959295 0.24439508 0.039748576 0.018108131 0.021921115
0.059749465 0.005192868 0.012045964 -0.3340193 0.031122474 0.029717794 0.34634635 -0.04226998
-0.059994265 0.013141715 -0.08051399 0.1493052 0.28579986 -0.010912455 -0.13966605 -0.058677427
-0.2224072 -0.029888906 -0.19386292 0.2939873 -0.08214429 0.083054736 0.096424714 -0.027684089
-0.15006827 -0.2442892 -0.07504689 -0.0865761 0.046620317 -0.059768263 -0.19467303 0.16879594
0.088339366 -0.0082675535 0.14269944 -0.040915452 0.13734588 -0.13104786 0.16612259 -0.11068906
-0.007519383 -0.012626905 0.16329524 0.08987619 0.26021716 0.051779345 0.08946956 0.20925424
0.16627997 0.18341298 0.15632102 -0.051508237 0.010156822 0.04985891 0.34553483 0.16424678
-0.2690148 -0.13971768 -0.022226209 -0.06835724 0.0717202 -0.42306247 0.12591738 0.013863465
0.064071044 -0.19358562 0.017323757 -0.17364718 -0.20630953 -0.05875875 -0.15754823 0.03863562
-0.202129 -0.14825165 0.02330562 -0.12543048 -0.055854842 0.012220081 0.07676804 0.0130042145
-0.20427053 0.24418749 0.12867229 0.1454544 0.198826 -0.1759009 0.05655133 -0.15056707
0.16433264 0.16401793 -0.005978003 -0.07267458 0.21729057 -0.005129988 0.024783574 0.15818188

M.weight f4 [202, 100]
00000000: cfa2 ca3e 1a63 953e d746 d03e e077 92be
00000010: 2e62 52bf d139 833f c460 bb3e 578f 253e
00000020: 653f 18bd 628d 39bf 2537 82bf 4642 293f
00000030: 4380 18c0 9823 98be 11d0 dd3c a2d4 123f
00000040: 9e40 203f 4238 4d3f d9d4 1cbf fd79 4dbf
00000050: d219 76bf f69d 48bf d71d acbf 237b edbe
00000060: 8130 7dbf 5ded 06bf 9db3 083f 8b49 a43e
00000070: 8214 34bf 4135 34bf 30b7 45bf c558 833e
00000080: adf5 79bc b554 f73e 192d fbbf c709 433f
00000090: 7f56 813f 1803 f33e ba27 7cbf 0f42 513d
000000a0: 7ed7 343f 64e4 49bf 614e b53f d304 a7bf
000000b0: 6cc4 07c0 2b56 cbbf 2ff7 ebbe a98e 08bf
000000c0: b862 bdbf 105b 7ebe 228b bd3f a799 e9be
000000d0: e0e7 f8be 6fa7 033f d9c2 8c3e 7c61 f4be
000000e0: 1f3f a63e 3145 61bd 99e1 993e 98c4 a23e
000000f0: cb63 4cbf 9ce2 bd3e 2436 873f 2afc b03e
00000100: ccd7 0f3f b078 0ac0 faac 32bf 2d7b ca3e
00000110: 9368 d0be 7147 dd3e b0f1 8bbf 470b 583f
00000120: 11f4 abbf 8c18 f6bf 1b49 a8bf c50c bebd
00000130: 9aa9 8f3f 32d7 01bf 1430 f9bf 6688 f5be
00000140: 78c9 27c0 d91e f1be d188 bdbf 63d8 913f
00000150: 2064 8f3e 1b72 323f 488a 8b3c 1a92 26be
00000160: d4d6 f13e 413c 8ebe d0f2 51bf 4289 e2be
00000170: 277c b1bf 4685 0140 44f0 fa3f 6d1c 7b3f
00000180: b7ca 0bbe 8dd0 723f 59f6 543e a8fd ddbe
00000190: dd78 5f3f 76cf 09c0 ee5b a0bf 8d7b 3b40
000001a0: ea5a 813f 5618 853f 229b 87be 90af 47be
000001b0: c9d4 53be 6f38 57be 16e7 33bf 3c04 9abf
000001c0: 6a0c 093f 7a65 78bf e5f6 283f 6ba1 1640
000001d0: 0914 17bd efd7 e7be b03e b9bf 87c2 4b3e
000001e0: 5eef bc3c 37b1 60be dd11 8bbe 6643 0abf
000001f0: ffc3 333e 51ed 8b3f ac82 d43e efcd d2bf
00000200: 0b1d 393f 4010 8fbe 229a 51bf 16b8 063f
00000210: c8e6 243f 54d0 1e3f 1273 f0bb ddd0 ce3e
00000220: f2c6 903f fe0a 7ebf 64a9 903e 0328 aebf
00000230: 7efc 643e 4c8d 22bf fba0 23bf 61ce b1be
00000240: 6c33 fabe 1f6a 8d3f aaa7 7b3f 92e0 30be
00000250: bbff 783f dcde ad3e 9a79 013f d582 bfbf
00000260: a59a aabe f481 913f ad81 2fbe 45e6 ca3f
00000270: 930f 27bf d99a 8fbf 7fa2 103f 5656 a8bf
00000280: 075d 583f 64cd fabd fc2f c9be 4fdc 5d3f
00000290: 6c1a d83f b64f c13f 4dd0 0b40 9b91 c53e
000002a0: 0a5b 8d3f 21d3 afbf 1601 a73f f5fb 33bf
000002b0: 2bfa 823f d9af 043f ec42 e83d 6720 963f
000002c0: a972 1b3f 1e77 80bf 5755 19bf 5441 283d
000002d0: 6a5b cebe 5eaf 4d3f edbf 8c3f cef4 88bd
000002e0: d2f7 f03e 0505 09c0 f108 4bbf 4c50 a5be
000002f0: 5504 a1bf 2598 4e3f d05e 3b3f 138f 14c0
00000300: 2503 1640 7935 68bf f3eb 09bf 3cd3 aebf
00000310: 3b96 48bf 47e8 0ebf 1951 8fbf 6a0e e9be
00000320: b3d3 e0be d8ef 8c3f 6f8f 143f a5b0 d53f
00000330: 71c4 9bbf 9580 47bf e583 753e 2914 8dbd
00000340: eec2 3fbf 33bf 9cbd f165 52bf d47e 59bf
00000350: 39ec 4d3f 9d3b 643f 89d0 d6bf a966 203f
00000360: 832c 66be 4bc8 adbf d52b 6dbe d54b 08c0
00000370: 3fa8 333f 504e a1be 2908 3c3f e07b 3ebf
00000380: e995 63be 1dbf 923f 2bc3 9b3f ec60 8cbf
00000390: 2e0e a63e 2679 10bf 1506 1dc0 2c9f 093c
000003a0: 19f6 0fbf 8a78 fabe 64d5 9bbf e8c3 dabf
000003b0: 09ea 95bd 4294 5e3b c998 aabf b2dd ebbe
000003c0: 4725 c23f 05b2 043f 04c5 d13e 3813 8bbe
000003d0: 2701 b7be 4cbb 683f 1505 22c0 28ce 11be
000003e0: d31a ffbe 818f 8d3f 0dad ea3e 3ccb 06c0
000003f0: c804 10bf ced7 983f dbec 853f 1d6c ce3e
0.39577338 0.2917717 0.40679047 -0.28607082 -0.8218106 1.0252019 0.36597264 0.16167961
-0.037169833 -0.7248136 -1.0173079 0.6611675 -2.3828285 -0.29714656 0.027076753 0.573557
0.625986 0.8016397 -0.6126228 -0.80264264 -0.9613315 -0.7836603 -1.3446606 -0.46383008
-0.98902136 -0.5270594 0.5339907 0.3208736 -0.7034379 -0.7039376 -0.77232647 0.25653663
-0.015256328 0.48306814 -1.9623138 0.76186794 1.0104522 0.47463298 -0.9849812 0.05108839
0.70641315 -0.7886412 1.4164544 -1.3048347 -2.1213636 -1.5885671 -0.46087024 -0.5334268
-1.4795752 -0.24839425 1.4808085 -0.4562504 -0.48614407 0.5142736 0.27492407 -0.47730625
0.32470033 -0.054997627 0.3005493 0.31790614 -0.7983977 0.37086952 1.0563397 0.34567386
0.56188655 -2.1636162 -0.6979519 0.395471 -0.40704784 0.43218568 -1.0933132 0.8439221
-1.3433858 -1.9226241 -1.314731 -0.09279779 1.1223633 -0.50718987 -1.9467797 -0.47955626
-2.6216717 -0.47093847 -1.4807378 1.1394161 0.28006077 0.6970536 0.017033711 -0.16266671
0.47234213 -0.27780345 -0.8201113 -0.44245344 -1.3866013 2.0237594 1.9604573 0.9809025
-0.13651548 0.94849473 0.20797099 -0.43357587 0.872938 -2.1532874 -1.2528055 2.929416
1.010587 1.0398052 -0.26485544 -0.19500566 -0.2068664 -0.21017621 -0.70274484 -1.2032542
0.5353457 -0.9702984 0.6600173 2.3536022 -0.03688434 -0.45281932 -1.4472256 0.19898425
0.023063358 -0.21942602 -0.27162066 -0.5400909 0.17555235 1.0931798 0.41505945 -1.6469096
0.7230994 -0.27942085 -0.81875813 0.5262464 0.64414644 0.62036633 -0.007337936 0.40393725
1.1310713 -0.9923552 0.28254235 -1.3605961 0.22361943 -0.6349685 -0.6391751 -0.34727767
-0.48867357 1.104801 0.9830271 -0.17273167 0.97265214 0.3395909 0.50576174 -1.4961802
-0.3332111 1.1367784 -0.17139311 1.5851523 -0.6525814 -1.1219131 0.5649795 -1.3151348
0.8451695 -0.122462064 -0.39294422 0.8666429 1.6883063 1.5102451 2.1845887 0.3858765
1.1043408 -1.3736306 1.3047206 -0.7030633 1.0232595 0.5183082 0.11340889 1.1728638
0.6072183 -1.0036352 -0.59895843 0.041077927 -0.40304118 0.80345714 1.0996071 -0.06687318
0.47064072 -2.1409314 -0.7931052 -0.32287824 -1.2579447 0.80700904 0.7319155 -2.3212326
2.343942 -0.9070659 -0.53875655 -1.3658214 -0.78354234 -0.5582318 -1.1196624 -0.4551881
-0.43911514 1.1010695 0.5803136 1.6694533 -1.2169324 -0.77930576 0.23976095 -0.06888611
-0.74906814 -0.07653656 -0.821868 -0.8495915 0.8043857 0.8915346 -1.678239 0.62656647
-0.22477917 -1.357675 -0.23161252 -2.1296284 0.701786 -0.3150506 0.7344995 -0.7440777
-0.22225155 1.1464573 1.2168936 -1.0967078 0.32432693 -0.5643486 -2.4534962 0.008399766
-0.5623489 -0.4892009 -1.2174497 -1.7091036 -0.07320029 0.003396288 -1.3327876 -0.46067578
1.5167626 0.51834136 0.40970623 -0.271631 -0.35743067 0.9091079 -2.5315602 -0.14238799
-0.49825153 1.1059419 0.45835152 -2.1061544 -0.56257296 1.1940858 1.0462908 0.4031686

E.weight f4 [101, 100]
00000000: 6c4e 4ebf f151 3bbe c1b0 013f 550f 333f
00000010: 13a7 0f40 e283 32be b06a 113f cf1d 083e
00000020: e103 283d dd79 2bbf 36c7 743e 4d1e ba3e
00000030: 247f 6dbf 0db9 853f e6e7 49bf f146 2b3f
00000040: 023c 53bf a1ef 693f 78ed 433e d374 18be
00000050: 60aa b73d e7d8 0bbf 895e aebf 779b 0b3f
00000060: ed73 2abd c10f 093e 7454 9fbe c077 e2be
00000070: 2d96 273e 7077 673f df9e 00c0 e2a1 8ebf
00000080: 13c3 abbe 68a4 94be 5e06 3dbf e901 f8bf
00000090: e41c 143f 397f 913f 7e95 acbd 96c3 3bbf
000000a0: 2654 3b40 1940 6c3d edfa cabe f29b 05bf
000000b0: f8f6 813d 9663 88bf 1e0e 08bf fad1 683e
000000c0: 60aa b7bf 49ce 73bf fd73 bbbe 7d16 053f
000000d0: 683e 9f3f 543a 4dbf 4608 c63f bab4 963f
000000e0: 2bfb c83e c2b5 973f f9cc c9be 6801 0dbe
000000f0: 3174 9bbe 122e 9abe 40bc 0f3f af1d 48be
00000100: f8c0 7c3f e410 453f c2ec a4bf f50f e8bd
00000110: 2fa4 7a3f 849f 563f ad12 733c 1c1d 7dbf
00000120: 0c99 b4bf ebfd 7d3e 1448 283f cce9 ddbe
00000130: f4c2 9abf f1c4 28bf 7198 ccbe 4519 90bf
00000140: 59fd 1f3e 3a83 0d3e b48c c33f 954d c8bf
00000150: 37d3 a1bf 42bb 94bf 9ea3 943f 7797 453e
00000160: 35ca 0bbe ccfd 0dbf f6e2 563f 55d7 29bd
00000170: ed26 2f3f fa2c 983f d456 a93f 24cb 413e
00000180: 8740 393f c74a 063e 904e 323f a0c5 983f
00000190: c765 2bbe 3bd1 f1be cfd9 593f e6a3 193f
000001a0: 5dd1 5b3f be4f 55bf 6083 89bf 9331 29c0
000001b0: ba05 6fbe e286 ce3e 4cc5 49ba e335 0c40
000001c0: 20d2 f13e a6aa 913f 235d ce3d dc3c 0abf
000001d0: 6d3e d73f 5950 d83f 8d3d 76bd 662c 80be
000001e0: 62ee 1d3d 7f62 e33e 80e7 ef3f af91 943d
000001f0: 8eb8 b23f 69ec 76bf 4e09 dabe 9bc4 6abd
00000200: 14ce a13d 913a 863e fdb0 9cbf fe3f 89be
00000210: 4868 c63f 80dd b33e 420e 5abf ae8b cfbf
00000220: bfc1 b6bd d002 4a3f e9f4 28bf a79b 64bf
00000230: 83bd b0be 2e87 ebbf 7e2a e03e a244 19bf
00000240: 74cc 093f 4b66 983e 8d73 193f 5386 033f
00000250: d4ca 1fc0 a8d2 753f 4111 433f 5c16 3bbf
00000260: 3dc5 df3e 828c a43e c969 ba3e 597f aabe
00000270: 6aae c63e 919f ee3e 7e3d 07c0 2b00 04be
00000280: 29a9 1140 e91e 343e e035 8c3d 3bb8 cf3d
00000290: 31bb 9d3e d855 a8be 5007 bf3f 7032 3abf
000002a0: 92a0 bdbe 4a01 643f ccad a73e 50cd 0ebf
000002b0: 162f c13f 1ef9 d9bf bdb1 ab3e 61ff 5b3f
000002c0: 9cfe 0f3f 777b 46be 08b4 7b3f aed2 3bbf
000002d0: 3e00 88bf f9ff 3bbf d986 a2be fcd3 0cc0
000002e0: de36 9bbf f330 0740 6eda f93d 85df 92bf
000002f0: b100 93be cc50 843c ce85 1540 f684 69bd
00000300: 5e89 4e3f 6bd6 05bf 3025 33bf b4f7 1040
00000310: 888a 773f 887a d2bf ac4b 48bf 0957 8abe
00000320: b264 28bf a7dd 5b3d a30f c93f 8961 2ebf
00000330: b552 47bf 3fdc 7c3f 6d84 aa3e e6ee 26bf
00000340: 37ad b5bf dc2e f43f 72de 6a3e 0b19 ed3f
00000350: dd3c 2dbe 0a83 3abf d5aa 653f 877b a2be
00000360: c617 eebd 9e98 083f 292a 943f aa34 b63e
00000370: 0dbc df3d f91e a13b e119 72bf 175f 9d3f
00000380: 81bb f5be 13b6 85be 994d 0e40 de7e db3e
00000390: 7d6a afbf fbf9 d5be a947 debf de5a 30bf
000003a0: 409a fbbf 780a 163f 34a8 203f e09f 1fbe
000003b0: d4d6 22bf abd6 df3e da2b 603d 3c48 05bf
000003c0: 4a4f d83f 94be 9c3e ffc7 cebf 1223 efbe
000003d0: c9a5 b2bf 5c51 f83f 54be 183f 604e e93f
000003e0: 25fa 84bf cbdf 7d3f e442 31c0 15e0 b9be
000003f0: 665b 933c 5b4e ffbd 3118 35bf 93c8 acbe
-0.8058841 -0.18292977 0.5066033 0.6994527 2.2445724 -0.17433122 0.5680342 0.13292621
0.041019324 -0.66982824 0.23904118 0.36351243 -0.92772126 1.0447098 -0.78869474 0.66905123
-0.8251344 0.9138127 0.19133556 -0.14888315 0.08968043 -0.5462784 -1.36226 0.54534096
-0.04161446 0.13384916 -0.3111912 -0.44231987 0.16365881 0.9041662 -2.0096967 -1.1143153
-0.33547267 -0.29031682 -0.7383784 -1.9375583 0.57856584 1.136695 -0.08426951 -0.73345315
2.927011 0.057678316 -0.39644566 -0.5219108 0.06345934 -1.0655391 -0.5314654 0.2273635
-1.4348869 -0.9523664 -0.3661193 0.5198744 1.244092 -0.80167127 1.5471275 1.1773903
0.39254126 1.1852343 -0.39414194 -0.13770068 -0.30362085 -0.30113274 0.5614662 -0.19542573
0.98731947 0.769789 -1.2884753 -0.113311686 0.97906774 0.8383715 0.014835996 -0.9887254
-1.4109206 0.24803893 0.6573498 -0.43342435 -1.2090745 -0.6592551 -0.39960054 -1.1257712
0.15623988 0.1381959 1.5277314 -1.5648676 -1.2642583 -1.1619647 1.1612432 0.1929606
-0.13651355 -0.5546539 0.83940065 -0.041465122 0.6841877 1.1888726 1.3229623 0.18925148
0.72364086 0.13114463 0.69651127 1.193531 -0.16738044 -0.47229943 0.85097975 0.60015714
0.8586634 -0.833248 -1.0743217 -2.6436508 -0.23342028 0.40337282 -0.0007696941 2.190789
0.47230625 1.1380203 0.10076358 -0.53999114 1.6815926 1.689952 -0.060117293 -0.25033873
0.038557418 0.44411084 1.8742523 0.072543494 1.3962572 -0.96454483 -0.42585224 -0.057316404
0.079006344 0.26216558 -1.2241513 -0.26806635 1.5500574 0.3512993 -0.85178006 -1.6214502
-0.08923673 0.7891054 -0.65998703 -0.89300007 -0.34519586 -1.8400629 0.4378242 -0.5987035
0.53827596 0.29765543 0.5994194 0.5137684 -2.4967546 0.9602456 0.761982 -0.7308099
0.43705168 0.3213845 0.36408833 -0.33300284 0.38804942 0.46606115 -2.1131282 -0.12890689
2.2759497 0.17589916 0.06846213 0.10142561 0.30806878 -0.32877994 1.4924107 -0.7273321
-0.37036568 0.89064467 0.32749784 -0.5578203 1.5092494 -1.702915 0.3353404 0.8593655
0.5624788 -0.19383036 0.9832158 -0.73368347 -1.0625074 -0.7343746 -0.31743506 -2.2004385
-1.2126119 2.1123626 0.12199865 -1.1474463 -0.28711465 0.016151808 2.3362918 -0.057011567
0.80678356 -0.522803 -0.6997862 2.2651186 0.96695757 -1.6443644 -0.78240466 -0.27019528
-0.6577865 0.05367818 1.5707897 -0.68117577 -0.77860576 0.9877357 0.33304158 -0.6520828
-1.4193486 1.90768 0.22936419 1.8523268 -0.16917749 -0.728562 0.89713794 -0.3173487
-0.11625628 0.53357875 1.1575366 0.35587054 0.1092454 0.0049170223 -0.9457074 1.2294644
-0.47994617 -0.26115474 2.2234862 0.4287023 -1.3704373 -0.41792282 -1.7365619 -0.6888865
-1.9656448 0.58609724 0.6275666 -0.15588331 -0.6360905 0.43718466 0.05472932 -0.52063346
1.6899197 0.3061415 -1.6154784 -0.46706444 -1.3956844 1.9399829 0.5966542 1.8227043
-1.0388838 0.99169606 -2.7697077 -0.36303774 0.017987918 -0.12466117 -0.7074004 -0.33746776

attn.in_proj_weight f4 [300, 100]
00000000: 2847 80bd f020 0fbe 5d8c 023e ed84 fbbd
00000010: 6518 dfbd 91fa 5c3b 8770 0bbe f68a 9cbd
00000020: fbb5 623d b477 cc3c fe1a 3abd 0d77 56bb
00000030: 5925 c73c a77b 09be 0217 20be b6c7 4c3e
00000040: 3855 04be b868 dfbd 8543 debd e9de 323e
00000050: 7fc2 1abd 67af 86bd c8f3 783d c157 e53a
00000060: 25fe cf3d 5947 efbd 917e 84bd 842a c7bd
00000070: e0b9 f8bc 8be4 b9bc 6bf2 7e3d 4868 89bd
00000080: fad8 323e 19d9 9f3d 6758 a43d 1da6 17be
00000090: eb8f 41bc 0ead c5bb 06cd 85bd e2ce b63d
000000a0: 990b bcbd 67db 323d 4d59 bb3c 5c33 8bbd
000000b0: c600 683d 5eb6 fbbd e096 363e ea1f 6fbc
000000c0: e64b 92bd daa9 40bd faba 1b3d f5b5 3f3d
000000d0: 94c2 113e fe1b b33d 268f d23d f379 2dbe
000000e0: 04d7 a03c d925 7abc c44d 44bd c5d8 adbd
000000f0: 96ae 79bd 4e23 9b3d cbea adbb 39d2 eebc
00000100: 7852 353c c6b4 dbbc 6f0c ed3d 6cb1 13be
00000110: 329c 80bd 699e fbbd 44ee 20be aa66 b4bd
00000120: 4784 54bc a33f 03be b171 a9bd 1d19 fbbc
00000130: 3f60 f73d 30f9 133e 4de9 a9bd f82c 223e
00000140: a668 d83d a6be 82bc 6552 c3bd 26ab e7bd
00000150: 0a28 ea3d 1d05 ab3d bf77 f4bc 29e5 163c
00000160: 7fb2 a7bd a75a 4bbd 9bc3 a83d 5e61 733b
00000170: e30e 8ebd 4095 b73c 48c1 15be 09e9 4f3c
00000180: 7ac4 79bd 9b56 d43c f6a6 c83d c12b 933d
00000190: c7fe 0b3e 08ef 05be 6ac9 14bd 7bba 343e
000001a0: e4ff 3d3d 39f6 ac3d 1342 573d 3098 4cbd
000001b0: 86a2 1fbe c1a8 afbd c0b4 c03d 28f4 6e3d
000001c0: 2ffc 81bd 8d5e fd3c f468 db3c ddc1 c5bc
000001d0: b176 7e3a 845b f7bd 1acf 2e3d 052e b9bc
000001e0: 9841 8f3d 6008 a4bd e735 75bd 1de6 a4bc
000001f0: 98f1 a93c 7cae 303e 2810 a5bc d5e2 afbd
00000200: 5d2f 8cbd dd3d f33c 728a 903d 284e 5d3d
00000210: 6ea2 cdba bdcb 163e 996b 8abd 628c f93c
00000220: ff10 a73b b0f3 4c3c 702a ee3d 632c b03c
00000230: 3b72 56bc 045c 78bd 65c0 9d3c 7011 f93d
00000240: 8a44 d13d 3581 5dbd 4ebe a6bd 4d40 0a3b
00000250: 38ae a2bc aed0 013c ea0f c13d e70a 603d
00000260: 39b8 a9bd 290b b0bd 3e79 78bd 8868 fa3d
00000270: faf0 503d 93d4 b1bc f558 e43d 86b3 e3bc
00000280: bc65 86bd d673 0fbe 5d47 1d3d bc25 0dbe
00000290: c392 dfbd f4e9 78bd fd53 09bd b8db 62bd
000002a0: 8100 e33d 2360 1f3d dda6 453d 976d 063e
000002b0: 90f5 3e3d 574a b53d 3b05 183e 6f0d 89bd
000002c0: 1133 bfbc c38f 253e c38b 583d 7215 28bd
000002d0: 8591 703d 2bc8 d7bd c944 9fbc 082f 9bbd
000002e0: fd9f fd3c 7964 97bc 4305 2bbd 7e50 b53b
000002f0: 49ed f53d 8626 99bd b356 8cbd 03b7 e43d
00000300: 77e9 15bd b1f6 c0bc bf7d 4dbd 807b a63d
00000310: 47d1 b33d a059 54bb b398 a4bd 7a60 24be
00000320: 9cc7 f2bc 2786 c8bd bc9b 623d b709 5ebc
00000330: d27d c53c a136 25be a5cb 9cbc cb1a 0abe
00000340: 34f5 1a3e 59fb 143e 740f ec3b e2f8 003e
00000350: a5ef 9cbd a7a5 c13c cfc9 e63c 0983 c4bd
00000360: d353 a2bd 8429 5bbd d30b c8bd daf5 adbd
00000370: 2fd8 60bd 7a4e 3d3d a598 eebd 1e98 303d
00000380: 4770 663d 8e7e 97bd ae08 693d b116 8a3d
00000390: d9d4 06be 2ca3 00be 4666 f63c 1c6e 73bd
000003a0: 970a da3d 7769 81bd 1a2a 1fbe 8496 a9bd
000003b0: bc6f 3b3e 5263 30be e7b4 9abd 379e f3bd
000003c0: 25b7 fc3c c60e 99bd 6e9d 51bd c343 2f3d
000003d0: 2920 9a3a 9687 f93d 6b71 243d 1883 ed3c
000003e0: 1e98 c0bd d58e 383d 274a 41bc f26e 04bd
000003f0: 22cb b9bd a05f 14bc 4bfd cb3d 0053 143d
-0.06263572 -0.13977408 0.12748857 -0.12281213 -0.10893325 0.0033718685 -0.13617145 -0.07643692
0.05534933 0.024959423 -0.045435898 -0.0032724768 0.024309801 -0.13426076 -0.15633777 0.19998059
-0.12923133 -0.109086454 -0.10852722 0.17467846 -0.037783142 -0.06576424 0.060779363 0.0017497466
0.10155896 -0.1168353 -0.06469453 -0.09724906 -0.03036207 -0.022691986 0.062242907 -0.06709343
0.17465582 0.0780508 0.08024674 -0.14809461 -0.011814098 -0.0060325926 -0.06533246 0.089261785
-0.091818996 0.04366627 0.02286973 -0.067969054 0.056641363 -0.12290643 0.17830992 -0.014595011
-0.07143383 -0.047036983 0.03802011 0.046804387 0.14234382 0.087455735 0.1028121 -0.16941051
0.019633777 -0.015267813 -0.047925726 -0.08488611 -0.060957514 0.07575093 -0.0053075305 -0.029152976
0.011067025 -0.026819598 0.11574637 -0.1442315 -0.06279792 -0.12286074 -0.15715891 -0.08808644
-0.0129709905 -0.12817244 -0.08273638 -0.030651623 0.12078904 0.14450526 -0.08296452 0.15837467
0.10566835 -0.015960049 -0.095372 -0.11311941 0.11433418 0.08350585 -0.029842256 0.0092099095
-0.08188342 -0.049647 0.08240434 0.0037136893 -0.06936433 0.022410035 -0.14624512 0.012689837
-0.06097839 0.025920203 0.0979747 0.0718608 0.13671409 -0.13079464 -0.036324896 0.17649262
0.046386614 0.08445401 0.052553248 -0.049949825 -0.15589342 -0.08577109 0.09409475 0.058338314
-0.06346928 0.030928874 0.026783444 -0.024140293 0.00097070175 -0.12078002 0.042677976 -0.022604952
0.06994933 -0.0800941 -0.05986586 -0.020129258 0.020745084 0.1725406 -0.020149305 -0.08588187
-0.06844971 0.029692585 0.07057656 0.054029614 -0.0015688667 0.14726157 -0.06758804 0.030462448
0.0050984616 0.0125092715 0.11629188 0.02150554 -0.013088758 -0.060634628 0.01925678 0.12161529
0.10218151 -0.0540783 -0.081417665 0.0021095455 -0.019858465 0.007923288 0.094268635 0.054697897
-0.08287091 -0.08595879 -0.0606625 0.12226969 0.051011063 -0.021707809 0.1114978 -0.027795564
-0.06562373 -0.14009032 0.038398135 -0.13783926 -0.109166645 -0.06076999 -0.033527363 -0.05538532
0.110840805 0.038910042 0.048254836 0.13127743 0.046620905 0.0885207 0.14845745 -0.066920154
-0.02333978 0.16168122 0.052867662 -0.041036077 0.05873253 -0.10536226 -0.019441979 -0.0757733
0.030960077 -0.018480526 -0.041753065 0.005533277 0.12008149 -0.07478051 -0.06852474 0.11167719
-0.036599603 -0.023555132 -0.05016875 0.081290245 0.08780151 -0.0032402053 -0.080369376 -0.16052428
-0.029636197 -0.097912125 0.0553243 -0.013552121 0.024107847 -0.1613412 -0.019140074 -0.13486783
0.151326 0.14549007 0.0072039906 0.12594941 -0.07662896 0.02363856 0.028172402 -0.095953055
-0.079261445 -0.05350639 -0.0976788 -0.08494158 -0.05489367 0.04621742 -0.116502084 0.04311382
0.05625942 -0.07397185 0.056893043 0.06742609 -0.13167132 -0.12562245 0.030078065 -0.05943118
0.10646551 -0.06318944 -0.15543404 -0.08280662 0.18304342 -0.17225388 -0.07554036 -0.118954115
0.030849049 -0.07473521 -0.051175527 0.042789232 0.0011758852 0.12184064 0.040147226 0.028993174
-0.09404014 0.04505809 -0.011797464 -0.03233237 -0.09071948 -0.009056002 0.09960421 0.036211967

attn.in_proj_bias f4 [300]
00000000: d12d a73c 7afd 3b3b 42b6 aa3d 6757 683d
00000010: c7e6 d9bc dbeb 92bc 1317 9ebd 9cc4 303d
00000020: 8e23 b13d 6218 f0bc 1ebb a3bd fff3 f53c
00000030: 2da4 01bd 212e c33d 1d3c ed39 709a 8fbd
00000040: bf50 5bbc 5531 abbd 2760 ae3d 5421 b2bc
00000050: 57d2 533d e1e6 9a3d b411 36bd 1748 90bb
00000060: c98b 38bd 4411 503c a253 d13c efe6 afbc
00000070: 364a dfbd 069f 61bd 1d56 853d 4221 18bc
00000080: 17b8 21bc 8e11 9e3c db13 52bb db2e 1e3b
00000090: 7742 0ebd ef0c e33c 9e48 713d fae4 253d
000000a0: 2342 383d 6cda 91bc 9739 303d 0b0c 24bd
000000b0: e029 e13c b533 7f3d 6420 81bb 6ac0 1dbc
000000c0: 57c3 b4bc 2428 0cbd 07f6 45bc e5b6 8dbd
000000d0: 654b 49bd e60f e8bc bc4d b53c f7fb 103d
000000e0: 3c8d e337 c0b4 7dbb 682e 1b3d ad78 68ba
000000f0: 1225 bd3b 2464 56bc d6be 4f3d 3100 813c
00000100: b70b b9bd 823d 50bc 5e74 6abc ddb0 91bb
00000110: 48e8 99bb e397 a6ba 423c c4bd e62f d23b
00000120: 83ca 48bd ec40 543d 7b87 303d f45d 033d
00000130: 7506 143d fe7f 08be 0236 833d eaa0 49bb
00000140: 0d7b 6c3d 4359 12bd 1b71 853d 375e 68bc
00000150: 9ca0 4d3d febc aabc 5745 df3c e0a6 3cbd
00000160: 06d6 9f3d 5394 5c3d 59c3 17bc 10fe 5c3d
00000170: 1ecd f63c 95f8 2a3d 2ee7 01bd 5c76 3a3c
00000180: ee39 2abd deea 3b3c c8bb 4e3c a25f dabd
00000190: e7ad 1e37 ec0c f537 ed0f 0137 1515 5a37
000001a0: 81f4 82b7 be75 a7b6 5f0d acb7 777e 7438
000001b0: 62ea 9337 666a 1738 065e 2238 2b82 2fb7
000001c0: 1c6c a238 b19f c637 6761 39b8 e5ab 77b8
000001d0: fa7e 0e36 6f18 c537 e08b ad38 b4a6 2db8
000001e0: 4fd0 e437 3a5f 5a37 e165 4ab7 3016 eeb6
000001f0: a10b b0b7 c1db dbb7 5b20 3736 99e3 79b5
00000200: d8d7 a8b6 f720 d237 33e1 d237 fbb9 98b6
00000210: 8322 0538 4227 6837 8935 aeb7 ae1d 4138
00000220: 8c79 8838 1314 d136 ee98 09b6 c834 1438
00000230: 5e47 40b8 7b9e 48b8 7d84 8c37 65f8 9c37
00000240: 829c bb36 89c1 5fb6 805d 6237 2ed3 d536
00000250: 939e dbb7 924d bdb7 f75b e4b7 b87f a7b5
00000260: 5aa2 80b6 8dd1 cb37 750b c538 f2e0 afb7
00000270: 24fa 04b8 3c19 2b36 1d4d c037 49d0 64b5
00000280: c955 1e38 a30a adb7 cd1e 76b8 a84b ebb7
00000290: a603 5c38 0c9d 9838 0f81 b538 0d9a a538
000002a0: a959 2a38 2361 fe37 11d6 0038 e9da 8b37
000002b0: 163d 4b35 26ee 66b6 3a81 beb7 dfc8 e437
000002c0: 1175 c5b7 b668 5db7 387f a937 018b d237
000002d0: ecd2 a536 6a6c 89b7 56ef 2138 8f4e 2238
000002e0: 2702 38b7 2571 d437 5900 b337 6ac3 3a38
000002f0: 5375 1db8 f304 a736 2042 2ab8 411f 9bb2
00000300: 4b53 ed37 f7cf dcb7 ede7 89b7 5c38 9cb5
00000310: fd96 f737 6cbc 42b8 71bf f9b7 d9be 7b38
00000320: e4e6 2b3c 91e8 8ebc da30 21bc 6cb5 e13b
00000330: 23d0 853c 4eaf ae3b 0281 e4bb 666c f2bb
00000340: 452e 38bd ace2 413c 171e 87bc 9713 a9bc
00000350: fccd 46bc 4f72 5abb 1703 353c b1d2 a3ba
00000360: 1291 f9bb 2121 cc3c 2abb 6dbc 1060 d7bc
00000370: d01d 9d3c 4ba3 79bd b86d 023c 1bff 86bc
00000380: 2734 5f3c 999c 773c 59e3 23bc e175 093a
00000390: 5f20 a9bc eec5 173c 817c bc3b 10d4 383c
000003a0: 1b3b b8bc 5fab fcbc 921f 133c 4f99 06bd
000003b0: 5ef4 adbc 84ff ff3b 8b4f 7cbb 8a46 1dbb
000003c0: 0a48 e63c a711 10bc 3704 08bb a615 08bc
000003d0: 2da9 fa3a a50f 98bb cbfa 9abb 1d13 7537
000003e0: 47bb 9b39 98a6 5d3d 0c8f d0bb 79f0 0c3c
000003f0: 2589 543c c1aa ae3b eac0 b6b9 20f9 a63c
0.02040759 0.002868502 0.08335544 0.05672398 -0.026599301 -0.01793473 -0.07719245 0.04315625
0.0864936 -0.029308502 -0.07994674 0.030023573 -0.03165071 0.09530283 0.0004524895 -0.070118785
-0.013385951 -0.08359019 0.08514433 -0.021744408 0.051714268 0.07563568 -0.044450477 -0.004403125
-0.045055185 0.012699429 0.025552575 -0.021472422 -0.109028265 -0.055083297 0.065105654 -0.009285273
-0.009870551 0.01929548 -0.0032055292 0.0024136815 -0.034731355 0.027716128 0.058907144 0.040501572
0.044984948 -0.017804347 0.043023672 -0.040050548 0.027485788 0.06230517 -0.003940629 -0.009628395
-0.022065802 -0.03421797 -0.012082583 -0.0691965 -0.049144167 -0.028327893 0.022131793 0.035396542
2.7126276e-05 -0.0038712472 0.037886053 -0.000886808 0.0057722414 -0.013085399 0.050719105 0.015747162
-0.090354376 -0.012709977 -0.014309971 -0.0044461326 -0.0046968795 -0.0012710061 -0.09581806 0.0064144013
-0.049021255 0.051819727 0.043097954 0.032072023 0.03613897 -0.13330075 0.064067855 -0.0030766078
0.057734538 -0.035729658 0.06515714 -0.014182619 0.050201997 -0.020842072 0.027254744 -0.046057582
0.078044936 0.05385239 -0.009262883 0.05395323 0.030127104 0.041740973 -0.03171461 0.011380758
-0.041559152 0.011469571 0.012618013 -0.10662772 9.458024e-06 2.9212293e-05 7.692707e-06 1.2998721e-05
-1.5611064e-05 -4.990695e-06 -2.0510224e-05 5.8291913e-05 1.7632909e-05 3.6100297e-05 3.8711376e-05 -1.046112e-05
7.744899e-05 2.3677801e-05 -4.419815e-05 -5.904948e-05 2.123356e-06 2.3495608e-05 8.2753366e-05 -4.140167e-05
2.727672e-05 1.3015984e-05 -1.2063859e-05 -7.0955357e-06 -2.098625e-05 -2.6209165e-05 2.7287958e-06 -9.3090927e-07
-5.0319177e-06 2.5049301e-05 2.5138817e-05 -4.551604e-06 3.1741813e-05 1.3837418e-05 -2.0767346e-05 4.6042427e-05
6.507625e-05 6.2310223e-06 -2.0503608e-06 3.5335106e-05 -4.5842833e-05 -4.7831312e-05 1.6750995e-05 1.8712317e-05
5.591254e-06 -3.3342242e-06 1.3492419e-05 6.372479e-06 -2.6180676e-05 -2.2566677e-05 -2.7222542e-05 -1.2479641e-06
-3.8335975e-06 2.4297065e-05 9.395826e-05 -2.0966374e-05 -3.1704214e-05 2.5495674e-06 2.2924092e-05 -8.5239714e-07
3.775003e-05 -2.062816e-05 -5.8679656e-05 -2.8049413e-05 5.2455485e-05 7.277177e-05 8.6547916e-05 7.896507e-05
4.061466e-05 3.0324392e-05 3.0716943e-05 1.667203e-05 7.5712285e-07 -3.4411291e-06 -2.270994e-05 2.7273256e-05
-2.3538743e-05 -1.3197006e-05 2.020561e-05 2.509868e-05 4.9419377e-06 -1.6382157e-05 3.860829e-05 3.8696973e-05
-1.0967756e-05 2.5325056e-05 2.1338625e-05 4.452785e-05 -3.7540984e-05 4.977564e-06 -4.0592742e-05 -1.8058588e-08
2.8291388e-05 -2.6322885e-05 -1.6439672e-05 -1.1639308e-06 2.9515004e-05 -4.6428686e-05 -2.977226e-05 6.0020804e-05
0.01049206 -0.01744488 -0.009838307 0.0068880823 0.016334599 0.0053309565 -0.0069733867 -0.007398176
-0.044966 0.011833828 -0.01649384 -0.020639224 -0.012134071 -0.0033332293 0.0110481 -0.0012498704
-0.0076161707 0.02491814 -0.014509955 -0.026290923 0.019179255 -0.060946744 0.007960729 -0.016479066
0.013623274 0.015113019 -0.010002934 0.00052437006 -0.020645319 0.009263499 0.0057521467 0.011281028
-0.022489121 -0.030843435 0.008979695 -0.03286105 -0.021234687 0.0078124423 -0.003849956 -0.0023998343
0.028110523 -0.008793271 -0.0020754465 -0.008305943 0.0019123905 -0.004640537 -0.004729604 1.4607588e-05
0.00029703436 0.054113954 -0.0063647088 0.008602255 0.012972151 0.005330414 -0.00034857477 0.020382464

attn.out_proj.weight f4 [100, 100]
00000000: 0e8e 3a3d 9385 5b39 e2fe c03d fa5a 79bd
00000010: c491 793d 9c5a 62bc 95a0 12bc 5625 673d
00000020: bad4 a2bd e687 e5bc 1d2d 163d 85d0 18bd
00000030: 58ef bcbc 4414 1b3e be32 1dbe f0fb 5a3b
00000040: f9b2 763d 2e23 bdbd f567 2a3e 0a0a 82bb
00000050: 059f 13bd 384e 753d 3f87 1abd ece8 ea3d
00000060: 1106 8f3c 4af6 1dbd cafe 963c 05fd e1bd
00000070: dce0 84bd 9570 e8bd e68a 92bd 803d e3bc
00000080: f8ad 5bbd 5404 023e 0d50 ebbc a518 aa3c
00000090: 0311 bd3d 4917 acbd e452 82bd b4de 653d
000000a0: ff3b cabc 4a71 d23d 709c a8bd c722 cfbc
000000b0: 1055 94bc 2a0a e23d c6e9 063e c55a 513d
000000c0: a3a7 36bd 9394 273d 03e9 483c e0d5 743c
000000d0: 0770 db3d 63f4 af3d ab22 243d c5f7 363c
000000e0: b32e 1cbc 7de2 df3d a19d 20be c99c 62bc
000000f0: e0b5 84bd 2529 60bc 4a5f 813c c353 cabd
00000100: 7bbc e0bd bf09 bbbc 1fc5 d23d 1176 b33d
00000110: bbc8 bfbd fd44 45bd afd0 81bd 16cb d4bd
00000120: 6267 be3d ceaa 97bd d0b1 31bd 022b 3bbd
00000130: 74dc ff3d 8f6f 133d 600c 433d 8f66 babd
00000140: 4479 ac3c ddd7 4cbd b05e d63d 1234 c23c
00000150: 670a 41bd a316 903d e39f 65bd 1493 21bc
00000160: 05e8 733c bc4e cebd e7c6 e8ba ee18 22bd
00000170: 6a12 8ebc bf59 14bd ef50 003d 000e 26bd
00000180: 2eae c6bd f5a7 1b3d 088b 77bd 3374 87bd
00000190: 06bf ffbc a00d c2bd 3608 a4bc 0555 023c
000001a0: 9ade 93bd 3b85 3f3b 54f4 8b3d 404b 47bd
000001b0: dde4 b7bc c858 b03d 981c 0cbe 67bf c23d
000001c0: 26ea e9bc f85d 003c c637 bbbb fc10 09bd
000001d0: c3d7 a73d 06d3 afbd e075 8dbd 0e8b 2abe
000001e0: 854f ef3c fc02 63bd d452 89bc a77c 993d
000001f0: 423b 1e3e a843 8f3d a7ec 00be a3de 5ebd
00000200: 50d9 73bd 316d 98bd a9aa d4bd f99d 743d
00000210: 64a9 bdbd 55d0 6d3d 6816 9fbc f196 91bd
00000220: 5da2 83bd ab7c 983c afeb 313d 2713 2abd
00000230: 001a e63d 3bb1 7bbd 5fb0 4abd b324 95bd
00000240: 84b3 843b 8621 15bd 2d23 bbbd 92db a0bd
00000250: 2d2c 9b3d 85b9 58bc 7ba9 92bc b5b6 05bd
00000260: 5156 55bd 611a 38bd ff4d db3c 6d21 783d
00000270: 2fa0 a43d b46d 33bd cc1a 363d a634 85bd
00000280: 1504 543d 918e 65be 6212 9d3c ee0c 82ba
00000290: 67b6 d1bb 7f01 28bd 6cad 10be 2fed 89bd
000002a0: 5458 ecbd 82a8 7e3d ce58 feba 9c2c 1abd
000002b0: ad6e a6bd 0479 223e ce84 ca3c e3ae e5bd
000002c0: e0b2 d1bd abf7 443e 3961 30be cd3d efbc
000002d0: 5ae1 d4bc 12d5 ba3d 1233 af3d 6030 fb3c
000002e0: 788a d83d 33ff 323d f7ec c03d 2a57 c43d
000002f0: e0bc a8bc a3d3 09bc 26a1 8f3c bc77 da3b
00000300: 3bb0 983d aab0 b53c e6d0 43bd 5e89 503d
00000310: 6f7d 8eb9 68b6 2a3d 954f 46bd db26 35bd
00000320: 884c c4bd 712c 003e 7597 ab3d b074 b93d
00000330: 465f 65bb 3c26 f1bd 0182 d33c 8f5f 2f3d
00000340: 71e6 933d 59df ed3b 9064 243d a4fe 2abc
00000350: 4f2b 96bd f326 203e b233 bebd d919 9d3d
00000360: fc97 33bd f849 17be 7f04 b2bc 2d0e a03d
00000370: 3450 2e3d 7c53 093d 53a9 9cbd b6c7 2abc
00000380: 6aa5 efbd 0c21 98bd 327d 83bd 78db c0bd
00000390: 98ce 56bd 0eaa 7e3b 4bea 94bd 9e61 08be
000003a0: 109f e63c 8ee1 683d 21ee 70bd a021 683d
000003b0: 3a73 1fbd fdb7 0ebe 05a2 8f3c d16f 543d
000003c0: 65d1 94bd 2b63 cf3d 6147 6e3d 22bf e83d
000003d0: 3fb8 143c 2137 503d 0de3 4dbd 5033 263d
000003e0: b8b4 9f3d d20a 8e3d 46a0 e0bd e5af 90bd
000003f0: a0a8 dbbc a03d 153d 2ecb 463d 2e43 e5bd
0.04554563 0.00020935228 0.09423615 -0.060877778 0.06093003 -0.013815548 -0.008949419 0.05643209
-0.079507306 -0.028018903 0.036664117 -0.037308235 -0.023063347 0.1514445 -0.15351388 0.0033414327
0.060229275 -0.092352256 0.16641219 -0.003968482 -0.036040325 0.05988905 -0.037726637 0.114702076
0.017458947 -0.038564958 0.01843204 -0.11034588 -0.06488201 -0.11349598 -0.07155399 -0.027739286
-0.053632706 0.12696964 -0.028724695 0.020763705 0.0923176 -0.08402879 -0.063634664 0.05612059
-0.024686811 0.102755144 -0.08232963 -0.025285138 -0.018106967 0.11037095 0.13175115 0.051111955
-0.044593465 0.040913176 0.012262586 0.01494357 0.10714727 0.08591535 0.040072124 0.011167471
-0.009532618 0.10931871 -0.1568513 -0.013831326 -0.064800024 -0.013681685 0.015792508 -0.098792575
-0.1097345 -0.022831796 0.10291504 0.08762754 -0.09364458 -0.048161495 -0.06338631 -0.10390298
0.092970625 -0.07405625 -0.043382466 -0.045695312 0.1249322 0.035995062 0.047619224 -0.09101593
0.021053918 -0.05001055 0.10467279 0.02370647 -0.04712906 0.070355676 -0.056060683 -0.009861726
0.014886861 -0.10073611 -0.0017759473 -0.039574556 -0.017342765 -0.0362184 0.031327184 -0.040540695
-0.09701191 0.038001973 -0.060435325 -0.0661396 -0.031219017 -0.09475255 -0.020023447 0.007954841
-0.07220192 0.0029223699 0.06833711 -0.04865575 -0.022447998 0.08610684 -0.13682783 0.09509163
-0.028554033 0.007834904 -0.005713436 -0.033463463 0.0819545 -0.085851714 -0.069072485 -0.16654608
0.029212723 -0.055422768 -0.016763128 0.07494479 0.15452293 0.06995326 -0.12590276 -0.05441154
-0.059533417 -0.074427016 -0.10384113 0.059720967 -0.09260824 0.05806001 -0.019419864 -0.07108868
-0.06427453 0.018614134 0.043437656 -0.04152217 0.11235428 -0.061448317 -0.049484607 -0.072823904
0.0040497202 -0.036408924 -0.091375686 -0.0785438 0.07576785 -0.013227825 -0.01790308 -0.032644946
-0.05208427 -0.044947032 0.02677059 0.060578752 0.08038365 -0.043805793 0.04445915 -0.065041825
0.051761705 -0.22417666 0.019173805 -0.0009922066 -0.006399918 -0.04101705 -0.14128655 -0.06734692
-0.11540285 0.06217242 -0.0019405128 -0.0376402 -0.081265785 0.15866476 0.02472153 -0.112149976
-0.10239196 0.19235103 -0.17224588 -0.029204274 -0.025986362 0.09122671 0.08554663 0.030662715
0.10573286 0.04370041 0.094201975 0.09586938 -0.020597875 -0.0084122745 0.017532896 0.0066671055
0.07455488 0.022178967 -0.047806643 0.050912254 -0.00027177806 0.041677862 -0.04841574 -0.04422651
-0.0958491 0.12516953 0.083784975 0.090554595 -0.0034999414 -0.11774871 0.025818827 0.04281574
0.072216876 0.007259291 0.040134966 -0.010436688 -0.07332479 0.15639858 -0.09287204 0.07670946
-0.043846115 -0.1477431 -0.02173066 0.07815204 0.042556956 0.033526883 -0.076494835 -0.010423591
-0.11701472 -0.07428178 -0.064203635 -0.0941686 -0.052443117 0.0038858685 -0.0727125 -0.13318488
0.028152019 0.05685573 -0.058820847 0.056672692 -0.038928248 -0.13937373 0.017533312 0.05186445
-0.07266501 0.10126337 0.05817354 0.11364581 0.009077131 0.050833825 -0.05026536 0.04057628
0.07798141 0.069356576 -0.1096807 -0.07064799 -0.026813805 0.036435723 0.04853361 -0.11194454

attn.out_proj.bias f4 [100]
00000000: 8875 09bc d9d1 0e3d aadc 0ebd 3a39 133c
00000010: 335e 083c d86c 18bc 1b8e 8c3c 438f 84bc
00000020: ccb4 00bd f57a 803c 83ff 74bb 3154 e23b
00000030: 7f73 70bc 5f8a 033d 2277 103c 2446 6cbc
00000040: b671 973c a9cd 1bbc d220 7d3c 17c9 ea3c
00000050: 3eb1 b23b 7beb d13a b0a8 d0bc 2c27 c2bb
00000060: 8a1f 643c 3187 0a3c edf1 303c 2c6c 3a3b
00000070: 5f97 913c 5151 88bc 89de adbb e745 89bc
00000080: fa24 f33b d9f8 dab9 b0c4 72bc 9325 e83c
00000090: e7f4 ba3b 4776 e9bb 6b02 1c3c ac60 c43a
000000a0: ed97 633c 9116 4e3c c9d8 b7ba 52d8 a83b
000000b0: b18e acba 7779 ab3c d837 04bc 3c7f 4b3d
000000c0: 5e27 863c 8dcc e8bc c353 36bb a549 11bc
000000d0: b4dc 6a3b b7fd fab9 5638 06bc b488 e1bb
000000e0: bfb7 023c 8b78 833c 7d61 8cbb 72f1 843c
000000f0: e548 873b 9f3c 2d3c bceb 06bc 0a8a dfba
00000100: 65bd 283c 0841 b6bc 926d a83b 4709 0bbc
00000110: 433b 123c 73fb a93c d13b 9e39 3514 6c3c
00000120: b953 f9bb 3f22 3abb 4403 28bd 894e 3c3a
00000130: fa11 1f3d e53b f3bb dd26 8dbc 925f 713c
00000140: 5def 9139 c8be febc 9242 a13c cf76 2e3b
00000150: 8055 9bbb 4d1d 98bc d8a1 e63b fe43 94bb
00000160: b8cc 313c 66fa 1aba b3e1 e43a 886c 40bb
00000170: 4288 6bbc 8bed 983a 4db4 85bb e45f d4bb
00000180: 2aed 95bb fa17 9fbc 42be 52bc d35a bcbb
-0.008389838 0.034868095 -0.03487841 0.008985812 0.00832324 -0.009303294 0.017157605 -0.016181594
-0.03142242 0.01568363 -0.0037383742 0.006907009 -0.014675974 0.032114383 0.008817466 -0.01442102
0.018486839 -0.009509482 0.0154497195 0.02866034 0.005453258 0.0016015613 -0.025471061 -0.00592508
0.013923535 0.008455084 0.010799867 0.0028445823 0.017772375 -0.016640337 -0.0053060693 -0.016756965
0.0074201794 -0.00041765606 -0.014817402 0.02833823 0.005705464 -0.0071246955 0.009522061 0.0014982424
0.013891202 0.012578622 -0.0014026399 0.0051527405 -0.0013165084 0.020931942 -0.008069955 0.049681887
0.016376194 -0.02841785 -0.0027820922 -0.008867656 0.0035837116 -0.00047872748 -0.0081921425 -0.0068827514
0.007978379 0.01604869 -0.0042840824 0.016228411 0.0041285628 0.010573535 -0.008234914 -0.0017054689
0.010299061 -0.022247806 0.005140015 -0.008486099 0.008925262 0.020749783 0.00030180675 0.014409115
-0.0076088575 -0.002840176 -0.04101874 0.00071833335 0.038835503 -0.0074229115 -0.017230446 0.014732258
0.00027834895 -0.031096831 0.019685064 0.0026621108 -0.004740417 -0.01856866 0.0070383362 -0.004524707
0.010852031 -0.0005911946 0.0017462283 -0.0029361565 -0.014375748 0.0011667473 -0.0040803314 -0.0064811576
-0.0045753913 -0.019420613 -0.012862744 -0.005748132

attn_layer_norm.weight f4 [100]
00000000: 48bc 823f 959c 843f 8c56 813f 4877 7c3f
00000010: 5194 803f c188 843f 309e 773f 4b55 7e3f
00000020: 1dbe 833f af6a 793f b3dc 793f 5111 813f
00000030: da34 823f 7501 853f 6501 843f f55d 823f
00000040: 64e5 813f 7527 7b3f d109 823f 54e8 7a3f
00000050: 28ed 813f ede4 803f 99db 7d3f fa12 7a3f
00000060: 3392 7c3f a46c 7e3f 2d6b 773f 866d 803f
00000070: 7a73 833f f67c 783f 3d63 793f 2ba2 873f
00000080: d727 863f 66d2 803f e582 7d3f b169 803f
00000090: d1df 7e3f feec 823f 3c97 7a3f 93f6 813f
000000a0: 1531 833f 4790 823f 8875 813f 230a 853f
000000b0: 3c70 763f cef3 813f 0170 7d3f 2297 863f
000000c0: 1d65 7e3f d992 823f 72f1 7d3f 7977 833f
000000d0: 110f 793f a7a9 7c3f 93b3 843f 2479 7b3f
000000e0: 6b64 813f ab61 823f 850b 793f b1be 823f
000000f0: 3bc3 823f eb4a 733f 6a65 6f3f d46a 853f
00000100: b044 813f de07 823f 221b 803f 07a1 853f
00000110: 209d 7e3f d50b 7a3f 2f83 7a3f 3249 7d3f
00000120: 11a4 813f 303f 803f b754 7d3f d26d 863f
00000130: fdb2 813f 7226 7b3f bbf0 813f 8eca 7f3f
00000140: 5174 893f c0c8 823f 4c9f 833f 698f 7e3f
00000150: 79fc 833f 4251 7b3f e144 813f 0c49 833f
00000160: 3d6b 7b3f 8cf4 823f c606 7d3f 9f96 7a3f
00000170: f7dd 7a3f 39e8 793f 1046 7f3f 184c 783f
00000180: 78bd 803f 6662 7f3f 02b4 833f b685 813f
1.0213709 1.0360285 1.0104537 0.9861951 1.0045263 1.0354234 0.9672575 0.99348897
1.0292393 0.9742841 0.97602385 1.008341 1.0172379 1.039107 1.0312926 1.0184923
1.014813 0.9810708 1.0159246 0.98010755 1.0150499 1.0069863 0.99163204 0.97685206
0.9866058 0.9938452 0.9664791 1.0033424 1.0269616 0.97065675 0.9741705 1.0596365
1.0480908 1.0064209 0.99027854 1.0032254 0.99560267 1.0228574 0.97887015 1.0153373
1.0249354 1.020028 1.0113993 1.0393718 0.96265006 1.0152528 0.9899903 1.0514872
0.99373037 1.0201064 0.9919654 1.0270835 0.97288615 0.9869637 1.0367302 0.9823172
1.010877 1.0186056 0.972832 1.0214444 1.021583 0.9503619 0.9351412 1.0423226
1.0099087 1.0158651 1.000828 1.0439767 0.99458504 0.97674304 0.9785642 0.9893981
1.0128194 1.0019283 0.9895739 1.0502264 1.0132748 0.9810554 1.015159 0.9991845
1.0738622 1.0217514 1.0282989 0.99437577 1.0311424 0.98170865 1.0099145 1.0256667
0.9821051 1.023088 0.9883846 0.9788608 0.9799494 0.9761997 0.9971628 0.9699111
1.0057821 0.9975952 1.0289309 1.011893

attn_layer_norm.bias f4 [100]
00000000: fa1d a6bc 2212 2e3d aae0 36bd ecea 33ba
00000010: 4e02 15ba 8182 bcbb c11e 283c 2f41 62bc
00000020: 64ce dcbc 1ff7 603c 5708 ddbb cc97 b03b
00000030: 139f 87bc bb8a 283d 2bbb 543c 6286 fcbb
00000040: 4768 953c 2b3c 23bc fe03 983c 2acd 0f3d
00000050: e794 cc3c 5921 35bb 00fc e5bc b98a f3bb
00000060: 3797 3c3c 1eca 413c 62a1 313c 6a36 f83b
00000070: cc95 663c 3cc2 95bc df5a 53bb 4f29 d3bc
00000080: 2f65 7a3c 2dba 5fbc 6dcd 40bc 2d39 fb3c
00000090: 475d 703b bf9a 53bc 74a9 ff3b 37f4 34bc
000000a0: 4871 f1ba 5cd0 e33c 52e3 8ebb 07bb c73a
000000b0: db5b 31bb c125 873c 3032 41bc 71b6 503d
000000c0: 47f8 a03c 69e1 e5bc 75c4 1d3c 737e b0bc
000000d0: 44b8 223a 3514 f03a 61db 26bc 7fcb 1abc
000000e0: 5a2e 20bb cda2 223c 41be 75bb 9776 803c
000000f0: 3f9f c8bb ed20 183c dfb5 31bc ae55 a03b
00000100: 6e22 2c3c f496 c0bc 99b9 713c f1bf 7dbb
00000110: 9414 2e3c 0100 c33c b8bc b6bb 7a2f 3d3c
00000120: 52f3 27bb 97c8 05bb 58aa 26bd 8277 25bc
00000130: 042b 223d 6bfd d5bb 98db d0bc 3c80 723c
00000140: 9508 03bc dddd 0fbd 26ec 063c be3b 933b
00000150: eead 13b8 bc40 8ebc 3476 363c ec84 10bb
00000160: 9734 6db9 e00c a7ba 5d4f 033b 0a82 d4ba
00000170: ddeb 8cbc 2164 aa3b 7ef2 05bc 03e1 e23a
00000180: cac1 f2bb 1ce1 dbbc 6e80 1bbc 09a6 46bc
-0.020277966 0.04249776 -0.04464785 -0.0006863314 -0.00056842424 -0.005752862 0.010261239 -0.013809486
-0.026953883 0.013730793 -0.006745379 0.0053891893 -0.016555345 0.04114793 0.012984077 -0.0077064494
0.0182382 -0.009963076 0.018556591 0.03510777 0.024973346 -0.0027638285 -0.028074265 -0.0074323085
0.011510662 0.011827974 0.010841699 0.007574846 0.0140738 -0.018281095 -0.0032250208 -0.025776533
0.015282913 -0.013655228 -0.011767727 0.030666912 0.0036676691 -0.012915312 0.007802183 -0.0110445535
-0.0018420601 0.027809314 -0.004360595 0.0015238234 -0.0027062807 0.016497495 -0.011791751 0.05095524
0.019649638 -0.028061586 0.009629359 -0.02154467 0.0006207267 0.0018316569 -0.01018414 -0.009447931
-0.002444169 0.00992651 -0.0037497433 0.015681548 -0.0061224992 0.009285194 -0.010846584 0.0048930263
0.010506256 -0.02350948 0.014753723 -0.0038719142 0.010625023 0.023803713 -0.0055766962 0.011546964
-0.0025627208 -0.002041375 -0.040689796 -0.010099294 0.039591804 -0.006530454 -0.025495335 0.014801081
-0.007997652 -0.035123695 0.008235013 0.004493206 -3.5209516e-05 -0.017364852 0.01113658 -0.0022051884
-0.00022621673 -0.0012744926 0.0020036318 -0.0016213071 -0.017202312 0.0051999246 -0.00817549 0.001730949
-0.0074083554 -0.026840739 -0.009491069 -0.012124547
