DeepModels/ckpts_precomputed/sakt/ASSIST2015/model.ckpt (torch, 409465 bytes, 16 tensors)

P f4 [100, 100]
000000 73 dc 6e 3e e2 3c 29 be 5f f0 66 be b7 47 45 3d
       0.23326282 -0.16527131 -0.22552632 0.048164096
000010 9e 5e c3 3e 61 79 96 3e d2 3f 95 3e 03 94 8e 3d
       0.38158125 0.2938948 0.29150254 0.06961825
000020 b3 3b 28 3e 85 47 c1 3e 64 43 bf bd 0e 1f d2 bd
       0.16429023 0.37749878 -0.093390256 -0.102598295
000030 be 2c 17 3e a2 47 ad 3c 5b 31 3a be 97 5b 90 bd
       0.14763162 0.021152321 -0.1818289 -0.070487194
000040 c8 2e 01 3e 6e 21 b2 bd 7f c6 20 be b2 a9 28 3e
       0.12615502 -0.086977825 -0.1570072 0.16470984
000050 27 e3 0c 3d ca 80 0f bd 91 d1 9e bd 2f c9 7b 3d
       0.034396317 -0.035034932 -0.07754815 0.06147116
000060 36 3f 01 bd 5b a8 84 bd 2c 58 00 bf bc 68 50 be
       -0.031554423 -0.06477424 -0.5013454 -0.20352453
000070 44 4b f3 bc a6 02 14 be d5 eb 4b 3e 5b 6c bd be
       -0.029698975 -0.14454135 0.19914182 -0.3699673
000080 c2 b2 a0 3d 50 67 3b bd 58 e8 99 3c 86 b9 27 3e
       0.07846595 -0.045752823 0.018787548 0.16379365
000090 b0 41 03 3e 84 f2 53 3e ff e3 da be c4 2b 98 bd
       0.12818027 0.20697981 -0.42752072 -0.07430223
0000a0 72 4f d9 3e f4 90 96 3e af b5 4e 3e e6 19 ad 3e
       0.42443424 0.29407465 0.20186494 0.3380882
0000b0 bc fa 33 be d0 14 f8 3e dd cb 56 bd b7 96 96 3d
       -0.17576116 0.4845338 -0.052440513 0.07352965
0000c0 02 8a 10 bf 96 24 81 be 65 40 78 be 2a 5f 87 be
       -0.56460583 -0.25223225 -0.24243315 -0.26439792
0000d0 e2 fa 37 3b 4b a3 91 3e 71 da 92 3c 13 99 6c 3e
       0.0028073122 0.28444895 0.017926427 0.23105268
0000e0 62 57 12 3e 33 fd ff be c6 a1 a1 bd fd 5b 1b be
       0.14291146 -0.49997863 -0.07892184 -0.1517181
0000f0 a2 55 16 3f 6c 02 8d be f6 c9 6f 3e 86 64 ff 3d
       0.58724415 -0.2754091 0.23416886 0.12470345
000100 5f 2e 1a 3c 24 c6 f2 3d 6a 0a 94 3d 60 28 34 3e
       0.00941047 0.118541986 0.07228549 0.17593527
000110 87 ee c2 3d ed 4e 8a 3e d2 41 bb bd 4b e8 7c 3e
       0.09518152 0.2701334 -0.091434136 0.24697988
000120 9c ed 43 be 4f 5c e4 3d 06 ff 06 3f ff 71 19 bd
       -0.1913361 0.11150419 0.52732885 -0.03746223
000130 5d f6 43 bd fc a0 c0 3e 83 f4 b7 bd 48 9c fa 3e
       -0.047842372 0.3762282 -0.08982184 0.48947358
000140 30 85 96 be 4b b9 bb 3e 2f a1 67 be 49 f1 ae be
       -0.2939849 0.36664805 -0.2262008 -0.3416846
000150 79 3e 0a be 8e 9e b4 3c 67 b5 8f bd fd 21 b3 be
       -0.13500394 0.022048261 -0.070170216 -0.34986869
000160 5e 2d 1d be 9c ac 86 be c4 52 d8 3e 58 90 ae 3d
       -0.15349337 -0.26303566 0.42250645 0.08523625
000170 8b 4e de 3e c4 8f 2e be 2e 37 ca 3d 66 d7 ae bd
       0.434193 -0.1704703 0.09873806 -0.08537178
000180 2d 89 69 bd 0f b9 79 3e 0b 7b 4f bd 0c 07 89 3e
       -0.057015587 0.24387 -0.050654452 0.2676319
000190 35 ae 40 3e 4a 21 97 3d 7b 78 ab be 64 f1 35 3e
       0.18816455 0.07379396 -0.33490357 0.17767864
0001a0 f7 e0 c1 3e 7b 76 44 3e a0 e9 90 3e 4a bf 91 be
       0.37866947 0.19185822 0.28303242 -0.28466254
0001b0 91 d4 ac 3d 30 31 7a 3c 17 97 82 3a c9 2f cd bc
       0.08438981 0.015270516 0.0009963241 -0.0250472
0001c0 f8 4b 8c 3e c9 b1 11 bd 48 2a 8a 3d 11 19 e3 bd
       0.2740171 -0.03556994 0.06746346 -0.110887654
0001d0 76 5f 94 3c dd 87 fe bd 53 0e 0e 3e 69 4a d0 bd
       0.018111926 -0.124282576 0.13872652 -0.101704426
0001e0 54 9b 74 bd 18 3c 6c be 66 5e 1e be 6d d5 ef 3d
       -0.059718445 -0.23069799 -0.15465698 0.117106296
0001f0 7a 25 3b be cf a6 3c be 29 15 b9 be 1d 62 94 bd
       -0.18276015 -0.18423007 -0.36148956 -0.07245276
000200 86 a3 cd 3c 1d 72 a8 be e8 b3 1f 3e 4e fb ed bd
       0.025102388 -0.32899562 0.15595973 -0.11620198
000210 fc ce ff bd f0 4a bb be 2d 59 4c be d2 10 6d 3e
       -0.12490651 -0.3658061 -0.19955893 0.23150948
000220 a6 64 ac be c5 54 84 3e 3d a8 a5 be 76 b4 64 be
       -0.3367054 0.25845924 -0.32354918 -0.22334465
000230 2d f8 ea 3d 2d 74 66 3e 12 36 be 3e 25 14 87 3c
       0.11473117 0.22505255 0.37150627 0.016489098
000240 d6 d0 96 be 05 7a f7 3c 2a 75 97 bc a6 84 37 3e
       -0.29456204 0.03020955 -0.018488485 0.17921695
000250 ea 93 26 be ed 9b a3 be 0c ff d7 3c 57 c4 c7 bd
       -0.16267362 -0.319549 0.026366733 -0.09754246
000260 b4 42 8d bc df c8 0a 3e a4 7d 80 bd ec 5f 66 3e
       -0.01724372 0.13553189 -0.06273964 0.22497529
000270 84 dd 23 bc 70 ca 81 be 3d b6 fc 3b e8 26 e9 bd
       -0.010001544 -0.2534976 0.007712154 -0.11384374
000280 6d 33 33 3d 41 94 06 3c cc 6a c4 bc ff 79 94 be
       0.043750215 0.008214057 -0.023976706 -0.28999326
000290 73 c8 4b be 8f 4c 3e 3d aa 3f 36 be 3d 37 bb 3d
       -0.19900684 0.04645973 -0.17797723 0.09141395
0002a0 1b e4 c6 3e d8 4a 8f bd 17 38 b8 bd 06 6b 36 be
       0.38845906 -0.06996697 -0.08995073 -0.17814264
0002b0 80 29 9a 3b 98 97 1d be fb 3f d9 bb 9e 9d 7a bd
       0.004704654 -0.1538986 -0.0066299415 -0.06118547
0002c0 a4 e7 1d 3e b6 aa 09 3d 92 f5 60 bd d6 3a e3 bd
       0.15420395 0.03361007 -0.054921694 -0.110952064
0002d0 a5 ec 2f bd 6c c6 19 bd 45 fe 1f bd 22 5e b4 be
       -0.04295029 -0.037542745 -0.03906085 -0.35228068
0002e0 86 83 e9 3d f2 e3 12 be 88 83 61 bc df 8f 12 bd
       0.11402039 -0.14344767 -0.01376427 -0.035781737
0002f0 02 e1 48 3e 61 ca 1c 3e f7 01 1a 3e 54 70 24 be
       0.19617084 0.15311576 0.15039812 -0.16058475
000300 31 d9 96 3d 4b d4 2b be e8 1c 33 bd f8 96 ac bb
       0.07365645 -0.16780202 -0.04372874 -0.0052670203
000310 af 33 72 3c f1 39 06 3d 21 59 9d bc 4d bf 1e 3e
       0.01478283 0.0327701 -0.019207539 0.15502663
000320 0e 30 3d 3e f9 13 c4 bc 59 f1 0b be 4c 64 60 be
       0.18475363 -0.023935305 -0.13666286 -0.2191326
000330 c5 77 b5 3d 53 e7 1e be b7 52 6a 3e 08 7f c4 3c
       0.08860735 -0.1551793 0.22883116 0.023986354
000340 49 8e 00 3e c6 a1 3c 3e b3 69 9f be 86 2a ca 3d
       0.12554277 0.18421087 -0.3113533 0.09871392
000350 fc be b8 bd a9 d3 ef bd ac d0 2e 3d ab ff 0e 3e
       -0.090208024 -0.11710293 0.042679474 0.13964717
000360 7b 81 16 bc 1b 70 8b bb db 1f d9 3e b8 dc c4 3c
       -0.009186144 -0.0042553074 0.42407116 0.024031028
000370 f1 9d f4 3c ff 8f eb 3d 14 2d 82 bb 9f a2 82 be
       0.029860469 0.115020745 -0.003972659 -0.25514695
000380 01 3b 3e be f4 45 70 3c 8b 17 81 3c f0 2d 58 be
       -0.18577196 0.014665116 0.015758296 -0.21111274
000390 2c e6 00 be fd 6c a4 be 9a d9 c4 bd a7 30 e1 3d
       -0.12587804 -0.321144 -0.09611817 0.10995608
0003a0 7e 88 71 bd bb 53 29 be fa c0 b9 be e4 f8 90 3e
       -0.05896806 -0.16535847 -0.36280042 0.28314888
0003b0 86 2c 2f 3e 29 08 7c 3e b1 bb 22 be 9b 01 90 3e
       0.17106828 0.24612488 -0.15891911 0.28126225
0003c0 68 12 1a bd 34 4f b4 bc cb 32 2a 3e 7e e9 9a 3e
       -0.03761521 -0.022010423 0.16620938 0.30256265
0003d0 33 4a 25 be 3d cf 67 3d 7a 49 02 bd 57 51 f0 bd
       -0.16141586 0.056594122 -0.031808354 -0.11734264
0003e0 8f eb 71 bd 3f 0c 67 be 50 bc 35 be 72 64 8a be
       -0.059062537 -0.22563265 -0.17747617 -0.2702976
0003f0 eb ee c3 bd 76 ed 7e 3e 18 4f 13 bd b5 fa 4d 3e
       -0.09567054 0.24895272 -0.0359641 0.20115168

M.weight f4 [200, 100]
000000 6d 76 be 3f 9e ca 2d be 9a a0 32 bf 2f 42 9a 3c
       1.4879891 -0.16971824 -0.6977631 0.018830387
000010 eb 5f 56 3e d0 71 9e bd ba 99 ea 3e 7d 7e 7c be
       0.20935027 -0.07736552 0.4582041 -0.24657626
000020 0f a9 33 3f 8c 4d 39 3f 82 c2 3d be ea 29 9c 3f
       0.7017984 0.7238395 -0.1853123 1.2200291
000030 68 59 b4 3d 83 33 8f 3f f6 4c 62 be 38 96 74 3f
       0.088061154 1.1187595 -0.22099671 0.95541716
000040 47 e3 db bd 98 3f 05 bf b7 d9 95 be 25 cc db be
       -0.10736709 -0.5205016 -0.29267666 -0.42929187
000050 12 0a b2 3d a8 dd 8e bc ca 71 59 be d6 c4 2a bf
       0.08693327 -0.017439678 -0.21234813 -0.667066
000060 52 e2 73 be 72 39 7e bf 7a 14 22 3f 16 96 d5 3e
       -0.23816803 -0.99306405 0.63312495 0.4171607
000070 d4 bb b9 3f 40 46 a8 bf f7 53 8e bf 91 29 b3 3f
       1.4510446 -1.3146439 -1.1119374 1.399706
000080 58 d2 75 3e 71 d2 af bd 40 43 1d 3f 5a 14 00 bf
       0.24006021 -0.085850604 0.6143074 -0.50031054
000090 02 da f7 be d6 6e 85 3e 94 e5 7c 3e 62 a0 69 3f
       -0.48408514 0.26061124 0.24696952 0.9126035
0000a0 97 f4 bc bf 86 8f a1 3e d2 f8 28 3f a8 4f c0 be
       -1.4762143 0.31554812 0.6600467 -0.37560773
0000b0 18 86 f2 be 7c 34 12 3f 10 36 42 bf 1d dd 50 3e
       -0.4736793 0.57111335 -0.7586374 0.20396848
0000c0 68 6f 81 bf f0 7e 88 3f bf 64 0e 3d 9a 63 ea 3f
       -1.0112123 1.0663738 0.034764048 1.8311646
0000d0 8e 11 2f bf 47 2b 48 3e c0 de c5 3e de d0 02 be
       -0.6838616 0.19547759 0.38646507 -0.12774989
0000e0 26 ba 80 3f 98 60 27 c0 a3 04 82 3f 03 36 91 3f
       1.0056808 -2.6152706 1.0157665 1.1344608
0000f0 8c 6d 4b 3e cf 63 4f c0 82 0b bc 3f 2b 61 a0 3e
       0.19866008 -3.2404668 1.4691012 0.31324133
000100 52 79 fc 3f 72 99 94 bd 15 e5 02 bd 3e 8b ab be
       1.9724524 -0.0725583 -0.03195675 -0.3350467
000110 ee 28 08 c0 3f 41 48 bf 6d 7a 30 bf 63 02 95 be
       -2.1274981 -0.7822456 -0.68936807 -0.29103383
000120 02 45 20 bf 40 3d 3f 3c ec b5 70 bd 7d c6 b6 3f
       -0.626053 0.011672318 -0.058767244 1.4279324
000130 cf 08 1d bf aa 09 46 3f 20 38 8f 3f 5f 0d 5b bf
       -0.61341566 0.77358496 1.1189003 -0.8556728
000140 25 a8 2f 3f b4 62 37 bf 09 22 6e 3f ae 5c 1e 3f
       0.68615943 -0.71634984 0.93020684 0.6186017
000150 63 f0 ea 3e 9b 47 f5 3e d0 ab 84 3e ad 50 03 be
       0.45886526 0.47906193 0.25912333 -0.12823744
000160 78 f1 73 be c0 e4 1b 3f 1d 0f 4c bf ae 9b 6d bd
       -0.23822582 0.6089592 -0.7971056 -0.058009796
000170 6c 32 2b 3d 54 2b 89 3f c0 73 44 3f ee 39 c9 3e
       0.041796133 1.0716348 0.7673912 0.3930201
000180 a5 31 05 40 cd a3 67 3f f5 a9 19 c0 58 e8 0b c0
       2.081155 0.90484315 -2.4009984 -2.1860561
000190 72 92 03 3f 2d 89 a3 3f a6 1e af 3e 5e 2d b8 bf
       0.5139533 1.2776238 0.3420307 -1.4388845
0001a0 d2 82 0f 3e 14 62 c9 be 9c 41 97 bf 6c 2f b4 bf
       0.14014748 -0.3933264 -1.1816897 -1.4076972
0001b0 dd 5a ec 3e 80 a2 10 be ba 59 15 bf 63 73 d7 3e
       0.46163073 -0.14124489 -0.58340037 0.4208022
0001c0 38 de cc 3f a4 6c e8 3f 33 ca e5 be a4 0a 44 3f
       1.6005316 1.8158154 -0.44880828 0.76578736
0001d0 2f c2 ab 3f db 78 b6 bf b2 c6 76 be 80 e2 32 3e
       1.3418635 -1.4255632 -0.24099234 0.17469215
0001e0 db d9 17 bf 1b d8 b7 bf e9 3b 74 bf d2 6a 00 40
       -0.59316796 -1.4362825 -0.95403916 2.0065198
0001f0 2d 48 23 be 68 55 a9 3d c6 21 9e bf 44 24 5c bf
       -0.15945502 0.08268243 -1.2354057 -0.85992837
000200 0c ec 11 bf 6a df bf bf bf ba 6e 3f f4 ac d3 3e
       -0.57000804 -1.4990056 0.932537 0.4134289
000210 6b 31 13 3f fe c8 31 bf 80 c6 90 bf 37 f7 5d bf
       0.5749728 -0.69447315 -1.1310577 -0.86705345
000220 0d 6b 08 c0 83 3c d6 3f e6 ee 5c 3f a5 ea 06 bf
       -2.1315339 1.6737217 0.8630203 -0.5270179
000230 9c 6d 29 be 11 1a e6 3c 10 00 14 bd 48 cb 30 bf
       -0.16545719 0.028088601 -0.036132872 -0.6906018
000240 79 98 11 bf 9d f7 4a bf 62 1a a0 bd 41 6f 94 bd
       -0.5687328 -0.7928408 -0.07817532 -0.072477825
000250 96 a3 06 bf c5 3f 83 3f 90 8e 90 3e 5c fd 49 be
       -0.5259336 1.0253836 0.28233767 -0.19725555
000260 1a 47 05 3f e6 56 ed 3e 4a a4 dd bf 26 ef d0 be
       0.5206162 0.4635536 -1.7315762 -0.40807456
000270 cf f7 16 3e 56 27 02 40 95 36 ee 3e 2e 41 fa 3d
       0.14742969 2.0336509 0.46526018 0.12219463
000280 d7 d5 f3 be 1d 36 1f bf af 03 96 3e fe 60 7f 3f
       -0.47624084 -0.62191945 0.29299685 0.99757373
000290 cc 35 2f bd 88 4c 2f bf 4d 73 62 bf 38 ac 21 bf
       -0.042775914 -0.6847615 -0.88457185 -0.6315341
0002a0 01 97 a8 be 5b d7 9a 3d 33 2c a1 3f 6c a4 1e 3f
       -0.32927707 0.07560607 1.2591614 0.6196964
0002b0 9f 83 77 be 13 62 df be b5 ff 27 3f 99 5d bb bf
       -0.24171303 -0.43629512 0.6562455 -1.4637939
0002c0 75 c7 2c 40 4f 13 d6 be 33 17 bc 3f 74 91 38 3f
       2.699674 -0.41811606 1.469458 0.72096944
0002d0 a7 bb b2 3d f4 a3 fe bd e6 f1 ac 3f fc 5b 91 be
       0.08727198 -0.12433615 1.3511322 -0.2839049
0002e0 33 ca b6 bd 25 2d e4 be ce e7 d4 3d 25 24 8c bf
       -0.08925285 -0.44565693 0.10395776 -1.094853
0002f0 37 94 03 3f 8f d4 9e 3e a8 ae 96 bf f2 02 f7 3e
       0.5139803 0.31021544 -1.1772051 0.48244435
000300 2c 7d fc 3e e3 47 e4 3f 59 02 38 3d d7 2d 80 bd
       0.4931425 1.7834438 0.044924114 -0.06258743
000310 b5 c6 1c bf 4d 20 81 3f 25 ee 95 bf 2d 3d 94 bf
       -0.612407 1.0087982 -1.1713301 -1.1581169
000320 50 05 2d 3f 53 36 8a 3f e4 dc e2 bf 45 70 9a 3f
       0.6758623 1.0797828 -1.772366 1.2065512
000330 d8 f0 00 bf 5e ee cc 3f e9 2f a3 3e f2 60 c5 3e
       -0.503675 1.6010244 0.3187249 0.38550526
000340 2e f6 74 3e 59 56 8e be 94 8d ef be 64 27 17 40
       0.23922035 -0.27800253 -0.46787703 2.3617792
000350 3a 24 44 3f 1f 8c 38 bf fc 30 00 c0 83 dc a1 bf
       0.7661778 -0.7208881 -2.0029898 -1.264542
000360 f1 24 2b bf 94 ae d3 bf d1 72 c8 3f 8e 35 2a 3e
       -0.66853243 -1.6537652 1.5660039 0.16621992
000370 03 7b ca 3e 77 75 b5 be 08 4c 7c 3f e3 30 06 c0
       0.39546975 -0.3544118 0.98553514 -2.0967338
000380 42 8e 50 be e5 6a 1f c0 74 76 b0 bf bd f4 af 3e
       -0.20366767 -2.4908993 -1.3786149 0.34366408
000390 2d cb b5 bf 48 ae 3c c0 e7 f0 1a c0 66 8c 14 bf
       -1.4202629 -2.9481373 -2.4209535 -0.5802673
0003a0 27 cf 53 bf 58 71 06 3f a7 24 07 40 a7 3b 5d 3f
       -0.82737964 0.525167 2.111612 0.8641915
0003b0 0c b7 25 3f cc 5b ed 3e 7e ce 2f bf d5 1c 9c 3f
       0.6473243 0.46359098 -0.6867446 1.2196299
0003c0 18 93 8f 3f 37 eb e5 bd c6 54 06 3f 4d d9 68 bf
       1.1216764 -0.11226504 0.52473104 -0.90956575
0003d0 d3 8a bc 3f 66 9b 7e bf 5a f4 4e 3f b7 ab 06 3f
       1.4729866 -0.9945587 0.808416 0.52605766
0003e0 fa 42 9e 3f 8d 60 74 be 6b 24 94 bc f9 ef cf bf
       1.236419 -0.23864956 -0.018083772 -1.6245109
0003f0 ec 84 10 3f a5 8e bc bf ce a6 c6 3f 21 4c ca bf
       0.5645282 -1.4731032 1.5519655 -1.5804483

E.weight f4 [100, 100]
000000 47 0d b2 3e c6 4b 90 3f 11 c1 d4 3f bc c0 d6 3e
       0.34775755 1.1273124 1.6621419 0.4194392
000010 10 5d 63 3f 9f 63 ae be 43 88 24 bf 42 67 51 bf
       0.8881388 -0.3406038 -0.6427042 -0.81798184
000020 3d df a1 be 41 9f 82 be 74 52 23 3f 9c 7a 0d 3f
       -0.3161563 -0.25512126 0.6379769 0.5526521
000030 ee 4f 89 bf e8 50 87 3e ed cf be bf 4a a2 bf bc
       -1.0727518 0.26428914 -1.4907204 -0.023392815
000040 12 55 97 bf c8 e8 81 3d 6e 82 fc 3f 93 b3 89 bf
       -1.1822836 0.063432276 1.9727304 -1.0757927
000050 d8 e4 d8 3f bf d3 51 3e d5 fa 0f c0 31 ba c3 3e
       1.6944838 0.20490931 -2.2496846 0.3822799
000060 90 3f 04 bf 82 78 8a 3f 59 7c 8c 3f c8 21 c4 bf
       -0.5165949 1.0818026 1.0975448 -1.5322809
000070 90 4b 69 be 8e 18 bf bf d2 bd b6 be ed 44 65 3f
       -0.22782731 -1.4929368 -0.35691696 0.895583
000080 0d d5 2e bf 66 b7 23 c0 e4 c7 3a bf a0 31 73 bc
       -0.6829384 -2.5580688 -0.7296126 -0.0148433745
000090 ae b1 3f 3f f1 04 eb bf fe c2 f7 3e cc 7a e0 be
       0.7488049 -1.8360883 0.48390955 -0.43843687
0000a0 59 e9 94 3e 25 57 56 bf cd 1f 35 c0 8e cf 90 be
       0.2908428 -0.8372672 -2.830066 -0.28283352
0000b0 23 5a 20 3e b9 a3 17 3e 9c e9 11 be 97 99 1b bf
       0.15659384 0.14808549 -0.14249271 -0.60781235
0000c0 2e 3f 1e be 0c f3 14 bf ae da 1a 3f 5a d2 d6 be
       -0.15453789 -0.5818336 0.6048993 -0.4195736
0000d0 c6 88 91 3f af 29 dd bf c4 ef fc 3f 26 6d 0b 40
       1.1369865 -1.7278346 1.9760671 2.178537
0000e0 e5 d6 b5 3f 68 0e 78 bf d2 41 de be 99 86 3c 3f
       1.4206206 -0.9689698 -0.43409592 0.7364288
0000f0 9e f5 e6 3f d0 cd 92 be c2 2a 9b be 36 1d d1 be
       1.8043706 -0.28672647 -0.3030606 -0.408426
000100 b9 0b a4 bd b0 25 dd 3c 35 cd a7 3f 11 b6 87 3f
       -0.080100484 0.02699551 1.3109499 1.0602437
000110 c1 0b 7d bf 45 d7 33 3f 3a 63 a8 be 4e 09 82 3f
       -0.9884606 0.7025035 -0.32888204 1.015909
000120 0d 5d 19 3f 24 12 99 be 81 12 ce bf 1f dd 08 bf
       0.5990761 -0.29896653 -1.6099397 -0.53462404
000130 70 a9 4b bf 7f 23 bc 3d da d4 b0 3f 07 98 a6 bf
       -0.79555416 0.09186458 1.3814957 -1.3015145
000140 63 9f 5c 3f ba 19 98 bf b9 e6 23 3f 52 72 0a bf
       0.86180705 -1.1882851 0.6402393 -0.5408069
000150 37 dc 2f c0 3a 22 1f 3f 6c d5 59 bf b9 8e c3 bf
       -2.7478158 0.621616 -0.8509128 -1.527793
000160 ff 59 02 be 7b 7b 6d bf d7 31 11 40 a9 a9 3a 40
       -0.12729643 -0.9276654 2.268667 2.9166052
000170 7d 02 d5 be 1c 71 81 3e 5a b0 7c bf 39 57 df 3f
       -0.4160346 0.25281608 -0.9870659 1.7448493
000180 f7 1d 28 bd 97 41 d7 bd 16 d6 97 bf bf ad d0 3d
       -0.0410442 -0.10510557 -1.1862209 0.101893894
000190 08 bf 80 be 82 64 98 3f e4 18 bd 3f 90 49 71 bf
       -0.25145745 1.1905673 1.4773221 -0.9425287
0001a0 63 f4 c6 be e0 bc 83 bf f8 76 13 bf b9 a9 a0 3f
       -0.38858327 -1.0292015 -0.57603407 1.2551795
0001b0 f3 0b 6f bf 51 de b1 3e e2 0d a2 3e a1 41 28 bf
       -0.9337761 0.34739926 0.31651217 -0.6572514
0001c0 81 18 87 3f 88 f4 c6 be f5 8a b9 be 3d fb 9a bf
       1.0554353 -0.38858438 -0.36238828 -1.2107922
0001d0 64 38 5a 3d a5 e4 80 3f 53 a1 15 3f 95 2a 9a 3d
       0.053276435 1.0069777 0.58449286 0.07527653
0001e0 50 7e 8f 3e ce b1 11 bf 10 3c c4 bf aa f2 a6 3f
       0.28026056 -0.56911933 -1.533083 1.3042805
0001f0 7e d2 81 3f 62 69 b4 3d ce 4b 2b 3f e0 89 93 bf
       1.0142362 0.08809163 0.66912544 -1.1526451
000200 05 84 8e be a2 4d 5d bf 41 68 0a bd 80 e2 97 3f
       -0.27835098 -0.86446583 -0.03379083 1.1865997
000210 48 56 ea 3f b2 a2 23 bf 9d e7 5f bd dc 1a 5a bf
       1.8307581 -0.6392013 -0.054664243 -0.85197234
000220 32 40 6e 3e d3 b8 23 3e 1b e9 41 bf ea 3c 0c 3e
       0.23266676 0.15988474 -0.75746316 0.13695112
000230 51 66 51 3f af 03 82 be 57 6c df 3f ef b0 d5 3f
       0.8179675 -0.25393435 1.7454938 1.6694621
000240 c9 20 18 be 40 58 d8 be a7 29 d8 be f1 d4 36 bf
       -0.14856257 -0.4225483 -0.42219278 -0.7141867
000250 26 be 1d be 0f c1 ec be 7a 4b b6 3f b4 8f 37 be
       -0.15404567 -0.46241042 1.4241784 -0.17925912
000260 9f b5 06 bf b5 be 82 be 2d d3 c3 3e 0d 7d 11 bf
       -0.5262088 -0.25536123 0.38247052 -0.5683144
000270 9e 8f 13 3f ff 47 0c bf d6 03 5e be c5 34 a3 3f
       0.5764102 -0.5479736 -0.21681151 1.2750479
000280 d5 d2 03 40 9c 39 7e bf c4 89 8c 3f 04 3a a7 be
       2.0597432 -0.99306655 1.0979543 -0.3266145
000290 92 ce a5 3f 77 55 67 3f fe 8b 7f bf 0e 0f f5 bf
       1.2953665 0.90364784 -0.99822986 -1.9145219
0002a0 9d cb 07 c0 44 a9 a5 3f c3 59 b9 be 78 81 75 3f
       -2.1218026 1.2942281 -0.36201295 0.9590068
0002b0 a8 c0 be bf 9e 01 a3 bf 57 bd 3e be 5a f2 55 3e
       -1.4902544 -1.2734869 -0.18626915 0.20893231
0002c0 a4 44 8c bf 58 01 eb 3e ed 5c 27 bf c1 1b e1 bd
       -1.0958447 0.45899463 -0.6537617 -0.10991622
0002d0 dd 26 21 3f 95 d5 04 c0 89 a7 62 bf 57 5d 9a bf
       0.62949926 -2.075536 -0.8853689 -1.2059735
0002e0 b0 fd 93 bf 59 49 86 bf f2 6e 71 3f ab 3d ec 3f
       -1.1561794 -1.0491134 0.94309914 1.845632
0002f0 3e 4c 3e be 50 0a 05 bf 02 e7 0b bf 54 b9 37 3f
       -0.18583772 -0.5196886 -0.54649365 0.71767163
000300 8d 3c 93 3e 3a dd c3 3e 32 cc c5 3f ff 36 08 bf
       0.28757134 0.3825472 1.545294 -0.5320892
000310 bc 2d 85 3f 94 88 dc be 6d a0 8b bf 2a 6c da 3e
       1.0404582 -0.4307295 -1.0908333 0.42660648
000320 9a a8 0c 40 d0 ef 16 3e 5a c3 94 bf 26 72 ac bf
       2.1977906 0.14739919 -1.1622117 -1.3472335
000330 b1 c6 bb 3f d5 50 de 3d 08 a7 a6 3e 1b 64 a6 bf
       1.4670011 0.10855261 0.3254931 -1.29993
000340 0e e0 a6 bf ca e3 15 be 7a c4 b5 3e 44 41 56 3f
       -1.3037126 -0.14637676 0.35501462 0.8369334
000350 d5 00 85 bf 60 08 f3 bf 82 75 90 be 64 1d 93 be
       -1.0390879 -1.8986931 -0.2821465 -0.2873336
000360 c5 f6 e5 3f e6 0a a6 3e 0d 1a ba be c0 3b 8c bf
       1.7965933 0.3243019 -0.36348 -1.0955734
000370 13 4c 10 3e 67 bd 97 bc 3b 88 5a be 20 da 74 3f
       0.1409152 -0.018522931 -0.2134103 0.9564533
000380 a9 d1 32 bf 95 a2 c3 be 8b 1e 70 3f 6d e0 4a bf
       -0.69851166 -0.38209978 0.93796605 -0.79248697
000390 ec a3 40 3f 46 2c 25 bf 1f b7 b5 3d 7f 54 f3 3f
       0.75250125 -0.6452068 0.08872818 1.9010161
0003a0 16 32 fa bf 10 4a 67 be 67 b1 82 bd 68 f1 89 3d
       -1.9546535 -0.22586846 -0.06381493 0.06735498
0003b0 37 64 cc bd 56 cc a9 bf 59 47 55 3f e9 be 8c bf
       -0.09980052 -1.3265483 0.8331199 -1.0995761
0003c0 69 53 28 40 92 4b d7 be f2 1f 64 3f 28 78 37 3e
       2.630091 -0.42049843 0.89111245 0.1791693
0003d0 fa 43 a7 3f b7 0f 4c 3f 55 d8 e9 3f 67 64 f1 bf
       1.306762 0.7971148 1.8269144 -1.8858765
0003e0 b2 a6 62 be fe 20 b1 3e f8 22 a1 bf 52 8f 94 bf
       -0.22133902 0.34595484 -1.2588797 -1.1606238
0003f0 aa 97 ac 3e 51 5d 47 3e e1 8c a6 bf 5d 22 72 ba
       0.3370946 0.19469191 -1.3011743 -0.0009236688

attn.in_proj_weight f4 [300, 100]
000000 e4 f3 88 3d 5a 3c 36 3e 66 b5 ab 3c 1b 65 3d 3d
       0.066871434 0.1779646 0.020960521 0.046239
000010 3d c9 26 3d b4 df 38 3d f7 b9 ae bd 2a d0 15 bd
       0.04071926 0.045135215 -0.08531564 -0.036575474
000020 cf 34 79 bd f2 97 ad 3d 5f 36 a8 bd 21 22 a7 3b
       -0.060841378 0.08476247 -0.082134955 0.005100504
000030 aa b7 07 be cc b9 d1 bd c7 3c ef 3d 2e ae cb 3d
       -0.13253656 -0.10240516 0.11681514 0.099453315
000040 23 43 8c bd ee 27 22 3d b1 5b 82 bd c8 dc 62 3d
       -0.06848743 0.03958886 -0.06365145 0.055386335
000050 1f c3 83 3d 55 08 94 3c e0 3a b7 3d 69 2d 66 3d
       0.06433701 0.01807038 0.089467764 0.05619565
000060 73 c5 28 3d db ed 72 bd f2 c7 62 3e de a3 8e 3c
       0.041203927 -0.059308868 0.22146586 0.017412122
000070 61 fa 04 3e c9 f1 41 3e 86 95 03 be 05 92 19 3e
       0.12986137 0.1893989 -0.12850007 0.14997108
000080 64 d3 6b bd d5 bf 35 3d 87 d3 a6 bd e6 43 42 3d
       -0.057574645 0.0443724 -0.081458144 0.047428034
000090 99 43 3b 3c 6a 2d 88 bc 2e 47 00 bc 9a 1c 08 be
       0.011429691 -0.016623218 -0.007829471 -0.1329216
0000a0 22 6a 26 be ee 4c c7 3d d7 64 a7 3d 39 e3 84 bd
       -0.16251424 0.0973147 0.081735305 -0.06488652
0000b0 fc fa 8b bd 88 09 56 3e 83 c0 05 3c 04 3a 1d be
       -0.06834981 0.20902073 0.008163574 -0.15354162
0000c0 85 f0 5f 3d 81 f7 4c bd 15 62 a3 3d 40 0d d7 3c
       0.054672737 -0.050040726 0.07977692 0.026251435
0000d0 c8 36 ea 3c eb 13 82 bd 44 1c 1d 3e a2 5a c1 bd
       0.028590575 -0.06351455 0.15342814 -0.09441115
0000e0 2e a7 33 3d 2e 6c c5 3d b3 a9 c4 bd 67 d8 c4 3c
       0.043860607 0.09639774 -0.0960268 0.02402897
0000f0 f5 26 16 3e f6 e0 aa 3d e6 f3 e4 bd dd 8d d2 bd
       0.14663298 0.08343689 -0.111793324 -0.102809645
000100 d4 5c 26 bc 53 14 36 bd 01 5e b0 3d 38 2e af 3c
       -0.010153968 -0.044452976 0.0861168 0.021384344
000110 53 f2 c2 bc 7f 1c fd ba 51 b0 c5 3c bc 76 e2 bd
       -0.02379719 -0.0019310861 0.024131926 -0.11057803
000120 8d da 39 3d 5c 59 7c bc 28 65 e0 3c d3 0a d1 3d
       0.045374442 -0.015402164 0.027391985 0.10207143
000130 7b 01 44 be 61 29 93 3d 8f 80 31 3e 1e 1a 58 3d
       -0.1914119 0.07185627 0.17334197 0.052759282
000140 92 0a eb bd 1f 7b 0c bd 86 a0 07 3e 84 59 d2 bd
       -0.114766255 -0.034297105 0.13244829 -0.1027098
000150 91 a6 39 bd e5 5e d6 bd 53 ad 18 3c 30 13 1d 3d
       -0.045324866 -0.104673184 0.009318667 0.038348377
000160 84 f3 11 bd 48 92 4e 3d 7c b6 95 bd 01 a3 9c bd
       -0.035632625 0.050432473 -0.07310197 -0.07648278
000170 5f 85 b8 3d ec 58 15 3d 01 9e a1 bc 64 02 b4 bd
       0.090098135 0.036461756 -0.019728662 -0.087895185
000180 38 fa 00 be c1 ae 72 3d 6c b0 2f be ff 8e 1e 3e
       -0.12595451 0.05924869 -0.17157143 0.15484236
000190 e7 1c 07 be 14 43 f3 3d b7 50 b5 bd 34 e3 97 3d
       -0.13194619 0.118780285 -0.08853286 0.074163824
0001a0 11 11 95 bd b5 ec 00 3e 07 4f 8e bd 4b 8f 88 3d
       -0.07278646 0.12590297 -0.06948667 0.06667956
0001b0 c4 2e 99 bd 55 a2 be 3d e5 84 fc 3c 50 ca 0d be
       -0.07479623 0.09308306 0.030825088 -0.13846707
0001c0 63 47 58 bc 89 8f f5 bd 0d 74 67 bd cb 11 a9 bd
       -0.013200614 -0.11990268 -0.05650716 -0.08255347
0001d0 4c d0 62 3d 96 e1 25 be 7e 1e d6 bd 88 3c 9a bd
       0.05537443 -0.16199335 -0.10455035 -0.07531077
0001e0 bd 70 10 be 04 57 ea bd 3a 99 bf bd a3 df 0a 3e
       -0.14105506 -0.11442378 -0.093553975 0.13561873
0001f0 b2 0c 53 bd 45 07 aa 3d 73 48 19 bc 30 f8 da 3d
       -0.05152578 0.08302168 -0.009355652 0.10691869
000200 45 3c e4 bc af cb 01 3c 4c cf 89 3c 5c 5d 0c 3d
       -0.02786077 0.007922097 0.01682248 0.034268722
000210 3c 5f 0c 3d 03 bb 88 3c c8 02 ed 3d 70 66 41 3d
       0.03427051 0.016690737 0.11572796 0.047216833
000220 8c 1c b1 3d 41 22 15 be d9 23 3a 3d bc 1e f3 3d
       0.08648023 -0.14563848 0.045444343 0.118710965
000230 31 08 3d be 4e 74 e4 bb 43 3d 8d 3c 78 71 c2 bc
       -0.18460156 -0.0069718724 0.017241126 -0.023735747
000240 95 6f a9 bd 46 6d cd 3d 37 57 2d 3d 63 c4 a4 bd
       -0.08273236 0.10030608 0.042319503 -0.0804527
000250 a8 2e 3f bd b1 5d 8c 3d 87 62 3e 3d b5 1a 19 3e
       -0.046675354 0.06853808 0.04648068 0.14951594
000260 df a9 bc 3c f7 da 89 bd 9b 82 47 bd df c3 35 bd
       0.02303022 -0.06731217 -0.04870854 -0.04437625
000270 66 e6 5a be 0a 02 54 bd a3 74 b4 bc 28 be 5e bd
       -0.21376953 -0.051759757 -0.022028273 -0.054380566
000280 13 26 e6 3d cc 22 bd 3d bb c6 56 3d df 8f a4 bb
       0.11237731 0.092351526 0.052435618 -0.0050220336
000290 53 22 58 bd d8 af 7d 3d c3 e8 43 bd 49 e6 15 be
       -0.05276711 0.061935276 -0.0478294 -0.14638628
0002a0 c3 30 de 3d f6 52 a1 3c 7a 9f 20 3d d1 fa 02 be
       0.10849144 0.01969288 0.03921459 -0.12790991
0002b0 8f f0 49 bb 40 a6 04 bd 45 ef da bd 12 41 90 bd
       -0.003081355 -0.03238511 -0.10690168 -0.07043661
0002c0 f5 22 ee 3d d2 48 44 bd e3 da cd 3d 5d 3e 23 be
       0.11627761 -0.04792101 0.10051515 -0.15941758
0002d0 9e 2c 01 be 53 e6 b8 bd 5b 23 0c bd 2c e5 11 3e
       -0.12614676 -0.09028306 -0.034213405 0.14247578
0002e0 0b 83 12 3e b9 01 84 be eb aa 8b bd 9b 6e 0e 3e
       0.14307801 -0.25782564 -0.068197094 0.1390938
0002f0 46 3d 6a bb 12 df e6 bd 50 65 03 3d 6a 08 ed 3c
       -0.0035742088 -0.11273016 0.03207904 0.028934676
000300 2c a1 28 3c 41 4f 80 bd 58 48 a7 3d a3 8d 06 be
       0.010292333 -0.062651165 0.08168095 -0.13139968
000310 52 a0 c1 bc 17 25 8a bc 19 99 d8 3c 30 20 31 3d
       -0.023636017 -0.016863389 0.02644019 0.043243587
000320 bc 55 d2 3c f3 9d 8f bd 8a b9 82 bd 8d 23 ef 3d
       0.025675647 -0.07012548 -0.06383045 0.11676703
000330 a2 b1 be 3d 5a f6 5b 3e eb 0d cc 3d 15 21 64 be
       0.093112245 0.21480694 0.09963592 -0.22278245
000340 95 96 17 3c 1f 25 20 3e 6a a4 cd bd 8f eb 2c bd
       0.00925221 0.1563916 -0.10041125 -0.042216834
000350 a4 b4 8e 3c 31 82 24 3e 70 7d 46 3d f4 2a b8 bc
       0.01742012 0.16065289 0.04845947 -0.02248142
000360 21 6f 8b bc 16 3e 5c bd 02 7d fa bc 25 af d3 3d
       -0.017020764 -0.053770147 -0.030577186 0.103361405
000370 a4 8b 9a 3d 3c 00 aa bd 2b cf 2b be 2a 06 f6 3d
       0.075461656 -0.08300826 -0.16778247 0.120128945
000380 3d fe 4e bc ac 75 26 3d 7e 5d bf 3d c2 61 59 bd
       -0.012633857 0.040639564 0.09344004 -0.053071745
000390 9b f6 59 be 91 4a cf 3d fe 04 e9 3d 55 f2 fd 3d
       -0.21285479 0.10121644 0.11377905 0.12399737
0003a0 f3 f7 a1 3d 0f e5 08 bc 87 a1 e1 bd d5 d2 44 bd
       0.07908621 -0.008355393 -0.11017137 -0.048052628
0003b0 45 14 59 bc 88 c5 b4 3d 18 e8 03 3d 06 99 bc 3c
       -0.013249462 0.088267386 0.032203764 0.023022186
0003c0 eb 40 83 bd 9e 52 2f 3d 6d 62 26 be 03 cc 2b 3d
       -0.064088665 0.0428034 -0.16248484 0.041942608
0003d0 b1 ae 88 3e ca e9 1b 3d 91 45 4c bc 57 aa 4a 3e
       0.2669578 0.038064755 -0.012467758 0.19791542
0003e0 d5 48 36 be 0d 73 a6 3d c0 d3 b6 bc 86 49 ac 3d
       -0.1780122 0.08127413 -0.022317767 0.08412461
0003f0 43 ac a3 3c 19 89 b1 3d 14 18 93 3c f4 b9 76 3d
       0.019979602 0.086687274 0.017955817 0.060235932

attn.in_proj_bias f4 [300]
000000 35 07 71 3d 9e fb 87 3b dd db df 3d 01 32 d9 bd
       0.058844764 0.004149868 0.109306075 -0.106052406
000010 76 25 b0 bc 8a 1f d3 bd f3 14 28 3c 3f 97 a8 bd
       -0.021502238 -0.1030875 0.010258901 -0.08231973
000020 fd 20 6f 3d 73 67 70 3d 7c 9d 35 be ca cb 1b be
       0.05838107 0.058692407 -0.17735857 -0.15214458
000030 a2 8b 67 3d 4f d9 dd 3d 93 6d 71 bb f6 47 08 bd
       0.05652965 0.10832464 -0.0036838993 -0.033271752
000040 a0 a1 a1 3c 14 d1 3e 3e 5a 4e b0 3d 20 65 8f bd
       0.01973039 0.18634444 0.086086944 -0.0700171
000050 a0 1d 6f bd fe 1f 5b bc 08 e8 99 3d 7d a9 e5 3d
       -0.058377862 -0.013374327 0.075149596 0.11213968
000060 9e 2d 8c bc b7 b4 ae 3c b9 db 7b bd 87 fa cd bd
       -0.017111596 0.021326406 -0.06148884 -0.1005755
000070 15 3a 21 be b2 57 07 3e df b1 14 3d 21 46 14 be
       -0.15744813 0.13217047 0.036302444 -0.14479877
000080 cd 8a e8 bb 63 86 33 3e 9e 0c 94 3d dc 08 5f 3c
       -0.0070966245 0.17531733 0.07228969 0.013612952
000090 96 e1 c8 3c a5 3c 83 bd 26 69 15 3d d4 fa 8b bd
       0.02452163 -0.064080514 0.03647723 -0.06834951
0000a0 91 67 47 3b 4f a9 a0 3c 62 38 2b 3d de 8b f8 3c
       0.003042672 0.019611983 0.041801818 0.030340131
0000b0 0a 94 a1 3d 2e 8a 09 be 97 bb 2e bd 7a 9e 1e be
       0.07889564 -0.13431618 -0.04265937 -0.15490142
0000c0 a7 bd 63 bd 21 8c c0 3d 5c 27 2e 3d 82 0e 98 bd
       -0.05560079 0.094017275 0.042518005 -0.07424642
0000d0 f1 f2 e9 bd 30 f5 e1 3b 50 7f 2b bd 79 18 b6 bd
       -0.114232905 0.0068956837 -0.04186946 -0.088913865
0000e0 b7 b3 d4 bc 96 05 91 3d 0b 34 a6 bd 7e ff 25 be
       -0.025964601 0.070811436 -0.08115395 -0.16210744
0000f0 3e 76 fe bd 40 d4 29 3e 79 f9 19 bd 67 b8 9f bd
       -0.12424897 0.16584873 -0.03759143 -0.07798844
000100 e2 d4 27 3e 57 d9 e8 bc ff 61 81 3d 27 7d 3b bd
       0.16389802 -0.028423948 0.063175194 -0.04577365
000110 5f 3a f7 3c b5 9d 09 be c1 6c b2 3c 9e 22 10 3c
       0.0301792 -0.13439067 0.021780374 0.008797316
000120 28 b8 2a bb 86 1b 1d bd 48 bd 5b 3d 0f d6 19 3e
       -0.0026049707 -0.038356327 0.05364731 0.15023063
000130 00 da 6b bc 4e 04 4b bb 89 ab 29 3b e6 32 3c 3d
       -0.014395237 -0.0030977908 0.0025889596 0.045946978
000140 5b 7f 87 bc b5 87 25 3d c0 31 24 bd 6f 20 cc bd
       -0.01654022 0.040412623 -0.040086508 -0.09967124
000150 ee 06 0e bd 78 e9 c8 bd 57 02 07 3e 3c f9 90 bd
       -0.034674577 -0.09810156 0.13184486 -0.07078788
000160 51 08 c1 bd 4f 26 52 3d d0 4b 57 3b 1c c7 fc 3d
       -0.09425414 0.051306065 0.0032851584 0.123426646
000170 77 15 f5 bd 9f 5c 3b be 75 19 9a 3d 51 c5 1b bd
       -0.11966985 -0.18297051 0.07524387 -0.038029972
000180 a6 ca 15 bd d7 80 31 3e 26 4a 52 3c 3a e4 5f 3d
       -0.036570214 0.17334305 0.012835061 0.054661013
000190 38 cb bc b8 c1 41 ad 36 3a cc 01 b8 c8 1c cf 38
       -9.002391e-05 5.1634565e-06 -3.0946198e-05 9.87589e-05
0001a0 df 50 5c b7 61 7e fa 38 0a aa 25 b8 4d c1 73 b7
       -1.3131851e-05 0.00011944469 -3.9497427e-05 -1.4528935e-05
0001b0 90 d1 77 38 62 0d e9 b7 31 07 c8 38 1c 1b f2 b7
       5.908456e-05 -2.7781996e-05 9.538083e-05 -2.8861272e-05
0001c0 80 a3 c3 b8 90 05 c4 b8 ae 87 1f 38 c3 b3 38 b8
       -9.328779e-05 -9.3470444e-05 3.8034916e-05 -4.4036435e-05
0001d0 e4 f2 71 b8 15 41 8a 38 ae a3 84 b8 df bf 30 38
       -5.7685087e-05 6.592475e-05 -6.324738e-05 4.2140364e-05
0001e0 c0 72 b5 38 8e b9 85 b7 72 44 36 38 e5 e9 1d 38
       8.6521264e-05 -1.5941241e-05 4.3455926e-05 3.7649548e-05
0001f0 36 79 ca b5 3c 22 e9 b7 66 9c 9f b8 d2 31 f3 b7
       -1.508545e-06 -2.7791706e-05 -7.610842e-05 -2.8991057e-05
000200 70 bb 05 b9 8c 56 89 37 e5 00 64 39 a2 c8 ce b8
       -0.00012753694 1.6371974e-05 0.00021744108 -9.860216e-05
000210 d4 3e e2 38 c3 ca f9 b7 2f bc dc 38 f5 a2 9b b7
       0.000107882224 -2.9777531e-05 0.000105254694 -1.8553323e-05
000220 ac 5e 67 b7 fd bc b1 37 cd e3 52 36 80 e8 a9 b8
       -1.37907155e-05 2.1188049e-05 3.1425036e-06 -8.1018545e-05
000230 d7 c7 bf b8 85 11 e0 b6 a8 fb 3d b8 69 87 b5 b8
       -9.144813e-05 -6.6777598e-06 -4.5295485e-05 -8.655975e-05
000240 26 05 45 b8 90 bb 7d b8 dd b5 e7 38 8c af 21 39
       -4.6973255e-05 -6.049458e-05 0.00011048813 0.00015419553
000250 94 1e 1a 38 44 66 15 b7 cc 06 af 37 67 3d 2d b7
       3.674494e-05 -8.904903e-06 2.086479e-05 -1.03259e-05
000260 0c 36 d3 b8 70 5d 37 36 a7 9b d2 b7 39 4f 89 38
       -0.00010071331 2.7323513e-06 -2.5106432e-05 6.5474254e-05
000270 63 f8 24 b8 29 44 dd b8 73 55 d6 b8 39 8b 06 39
       -3.9331975e-05 -0.00010550797 -0.00010220231 0.000128311
000280 a7 bc 02 39 3d 5f ae b8 dc d5 5a 37 4e 65 86 b8
       0.00012468045 -8.314706e-05 1.3043606e-05 -6.4084874e-05
000290 d0 eb b0 38 7a 35 d8 37 c7 3b 21 37 c3 9c cb b8
       8.4362575e-05 2.5774109e-05 9.610266e-06 -9.7089935e-05
0002a0 02 8d 38 38 f5 e4 38 39 04 c9 1a b9 2b 57 86 36
       4.4000342e-05 0.000176329 -0.00014761469 4.003659e-06
0002b0 6e 9c 6b b8 6e 56 cf 38 92 da 93 38 1d 00 05 b8
       -5.6174053e-05 9.886628e-05 7.050218e-05 -3.1709777e-05
0002c0 63 e6 a4 38 11 0f 0b b9 6b 5d 8e 38 0a 7f 7f 38
       7.863042e-05 -0.00013261686 6.788488e-05 6.0915052e-05
0002d0 9f 5f f7 b8 a0 d5 7f b8 b6 72 b2 37 9b 5b 17 b9
       -0.000117956886 -6.099569e-05 2.127267e-05 -0.00014434608
0002e0 7d 02 38 b8 c2 0c 6b b8 9a 3f 29 38 39 7a 0c 39
       -4.3871336e-05 -5.6040248e-05 4.0351973e-05 0.00013396972
0002f0 83 39 52 38 5b 84 b9 38 4a 18 33 b8 1c 46 82 b8
       5.0121464e-05 8.8461406e-05 -4.2699547e-05 -6.211942e-05
000300 c4 8c 0b 39 46 3c bc 37 b3 e3 f6 37 dc 29 ae b8
       0.00013308512 2.2439413e-05 2.9431516e-05 -8.3047635e-05
000310 6e 50 da b7 d6 6c 78 38 47 ec 27 b8 42 be ba b7
       -2.6025078e-05 5.922917e-05 -4.0035953e-05 -2.2261524e-05
000320 1b 3a e5 3b 54 99 b7 bb 1f e6 fb bc 98 68 1c 3a
       0.006995452 -0.005602995 -0.030749379 0.00059665134
000330 a5 1e 26 3c 1c 42 af 3d de f2 88 bd 7e ce 93 3b
       0.010139142 0.08557531 -0.06686948 0.0045107
000340 54 1c 9f bb 2d 62 98 3a 56 6f 9a ba ce b4 27 bd
       -0.004855672 0.0011625938 -0.0011782448 -0.040943913
000350 6b 6e ac bc e6 ef 7f 3d 42 f5 f6 bc ce 44 89 bc
       -0.021048745 0.062484644 -0.030146245 -0.016756441
000360 9a 49 f3 3b a1 6c 02 bd e6 65 14 bc ba 46 00 3d
       0.0074245455 -0.031841878 -0.009057498 0.03131745
000370 dd b5 e5 bb 5d 67 f8 bb 28 38 6f bd 54 bc 57 bc
       -0.007010205 -0.0075806812 -0.058403164 -0.0131674595
000380 39 53 eb bc 35 46 01 bd 27 cd 0f bc 38 a5 34 3d
       -0.028726207 -0.031561095 -0.0087769395 0.044102877
000390 a1 f7 01 bd a5 c2 1f bc e6 ee 4e 3b fc ef dd b9
       -0.031730298 -0.009750997 0.00315755 -0.00042331207
0003a0 98 60 0c bd 3b 3f da bb 30 e1 c2 3b 48 ce 02 bd
       -0.034271806 -0.0066603697 0.0059472546 -0.031935006
0003b0 06 80 d7 ba 71 fa d3 3c cf e1 61 bc 3b 34 59 bd
       -0.0016441352 0.025876256 -0.013786747 -0.053028326
0003c0 a1 94 6f bd 99 b9 70 3d ac 20 a6 bb 57 40 80 3c
       -0.058491353 0.05877075 -0.0050698128 0.01565568
0003d0 16 78 f5 bb 17 50 61 bc ad ca 6c 38 65 91 d7 bc
       -0.007491122 -0.013752005 5.645554e-05 -0.026314447
0003e0 da 6d 77 bd 1e d1 10 bc 99 7f 9f 3b 60 72 c8 bb
       -0.060407497 -0.00883892 0.0048675057 -0.00611715
0003f0 fc 6e f1 3c 3b a7 45 3c 4a 24 1c bd 62 21 8b bd
       0.029471867 0.012063797 -0.038120545 -0.06793477

attn.out_proj.weight f4 [100, 100]
000000 53 74 b5 bd 93 a8 81 bd f8 66 07 bd fa 59 e0 bd
       -0.08860078 -0.06330981 -0.033057183 -0.10954662
000010 68 0e e5 bc c1 01 b2 3d c7 20 c1 bd e5 ef 87 3c
       -0.027960971 0.08691741 -0.0943008 0.016593883
000020 10 61 03 be 14 7b 04 3d 89 e0 69 3d 28 dd 12 3e
       -0.12829995 0.03234394 0.0570989 0.14342177
000030 1d cf 8f bc 64 2b b9 bd c3 79 9a 3c b2 7b e7 bd
       -0.017554814 -0.09041479 0.018856889 -0.1130289
000040 b3 21 01 bc b2 7a cf bc ce 05 b1 bd bc f4 0e 3e
       -0.00788157 -0.02532706 -0.08643685 0.13960546
000050 9c ef ae 3d 24 7e d0 3d 1e 6b 2e be 44 c6 9c bc
       0.085417956 0.101803094 -0.1703305 -0.01913751
000060 ee e9 be 3d ad 3c 0e 3e fc 45 ef bc 53 ed ef 3d
       0.09321962 0.13890333 -0.029208176 0.11715188
000070 61 78 fc bc ad 2b 85 bd e2 4d cb 3b 5c a9 d1 3c
       -0.03081912 -0.06502471 0.0062043527 0.025593452
000080 9f 5e 1a be d7 c6 c7 3d 1b d1 a8 3c a4 91 7e 3d
       -0.15075158 0.097547226 0.020607522 0.062150612
000090 fb 33 a8 3c e4 d9 3b 3c 3f 2a 8e 3d 02 eb c9 3c
       0.020532599 0.011465523 0.069416516 0.024648193
0000a0 3e 98 78 3c 2e 05 22 ba 23 a8 ac 3d 61 cb 8f bd
       0.015173016 -0.00061805814 0.08430507 -0.07021213
0000b0 86 e3 0f bd 10 e5 fb ba 0d be 07 3d 0e 91 b6 3d
       -0.035129093 -0.0019218046 0.03314023 0.08914386
0000c0 07 49 c7 bb 84 c5 56 bd a8 24 20 be b2 3f c0 3c
       -0.0060817036 -0.05243446 -0.15638983 0.023467872
0000d0 f0 49 9e bd 69 fb 22 be 65 1b 2b bd 31 e8 a8 bd
       -0.07728946 -0.15916218 -0.041774172 -0.08247412
0000e0 10 a7 2c 3d 47 d0 34 3d 2d a4 95 bd 3e d8 0b be
       0.04215151 0.04414394 -0.07306705 -0.13656709
0000f0 07 eb 94 bd 68 6d 42 3e 57 10 19 3e aa 5f 70 3d
       -0.072713904 0.18987048 0.1494764 0.058684982
000100 61 b4 bf bd c2 a2 f4 bc e9 04 46 bc d5 0e c2 bd
       -0.093605764 -0.029862765 -0.012086132 -0.09475485
000110 e5 3e b7 bd 21 8d 9d 3d a3 2a 4d bd 28 2a 88 3d
       -0.08947543 0.07692934 -0.05008949 0.06648666
000120 9e e0 c7 bd 6b 4d 7e 3d f2 5d 6c 3c 41 0f c9 3c
       -0.09759639 0.06208555 0.014426695 0.024543406
000130 66 93 5c 3e ed 5f a4 3d 6d f7 8a 3d c4 73 70 3d
       0.21540603 0.08026109 0.06785474 0.058704153
000140 37 56 f9 bd e3 18 1a 3a 56 6e e0 bd aa c6 f7 bc
       -0.12174647 0.0005878342 -0.10958545 -0.030246098
000150 98 ab d6 bd 0f e8 03 3d a0 59 8a bc 0f f3 bd bb
       -0.10481948 0.03220373 -0.01688844 -0.005796797
000160 3f a1 ea bc 8a 1a dd 3c 32 ce fd 3d ac 18 23 bc
       -0.028641341 0.026990194 0.12392844 -0.009954613
000170 29 28 18 bd 71 09 9f bd f5 6f 80 bd 4a 51 2b 3e
       -0.037147675 -0.07765473 -0.06271354 0.16730228
000180 37 af 0d bc 69 74 c4 bd c0 37 0d bd 89 1a 1c be
       -0.0086477315 -0.09592516 -0.034476995 -0.15244497
000190 c6 59 af 3c 17 2a d2 3d bc 8c c7 bd 7e 03 7b 3d
       0.021405112 0.10261934 -0.0974364 0.061282627
0001a0 cc 1a 2f 3c ba 71 42 bd 0c 10 d0 3d c9 d0 91 3d
       0.010687541 -0.04747174 0.10159311 0.07119901
0001b0 c5 c6 11 be f0 4e 0b 3d 11 a3 c5 bd 8a 4f b3 bd
       -0.14235981 0.034010828 -0.09650243 -0.08755405
0001c0 e5 90 78 bd 37 4b 16 bd f9 71 3d 3d 46 2c 89 3d
       -0.060685057 -0.036692824 0.04625127 0.066978976
0001d0 7e a8 90 3d b1 70 b6 3d 0c 51 b1 bd e3 fb bf bd
       0.07063387 0.08908213 -0.086580366 -0.093742155
0001e0 f2 58 f2 3d 4e 76 32 3d 6e 33 99 b9 5c 43 c9 3d
       0.11833371 0.043569855 -0.00029220752 0.09827301
0001f0 51 55 20 3d db 92 18 3d 6a 63 10 3e 23 74 01 bd
       0.039143864 0.037249427 0.14100423 -0.031604897
000200 03 9d cd bd fb 3a ce bd cf c4 bf 3d 40 d5 0b 3d
       -0.10039713 -0.100698434 0.0936371 0.034138918
000210 00 95 ca 3b 48 0f 8f 3c 37 9d d2 3d e4 5e a8 3d
       0.006182313 0.017463341 0.102838926 0.08221224
000220 b7 19 1a 3d b5 a5 9e 3c 0d c5 ca 3d 48 19 d6 3c
       0.03762218 0.019366125 0.09900866 0.026135102
000230 71 eb a3 bc c4 66 00 bd ff c8 f8 bb e1 e5 68 bd
       -0.020009728 -0.031348005 -0.00759232 -0.056859855
000240 f3 eb 03 3d 3b 14 d1 bc 6b 73 a8 3d 03 77 8f 3d
       0.03220744 -0.025522342 0.08225139 0.070051216
000250 c6 b2 6f bc c8 15 07 3e af 90 1a 3d a7 58 ce 3c
       -0.014630025 0.13191903 0.037735637 0.025188757
000260 cf bd f9 3b f5 a4 cb 3d 70 3b cb 3d 13 90 fe 3c
       0.007621504 0.099435724 0.09923446 0.03107456
000270 ea fb 4e 3d 68 b5 7e 3c a7 d7 c2 bd bc 0b 57 bd
       0.050533213 0.01554618 -0.09513789 -0.052501425
000280 79 6d 9f 3d 4c 80 a3 bd 57 b5 92 3c 21 93 4d bd
       0.07784552 -0.07983455 0.017908735 -0.05018914
000290 99 c0 2c 3d 2a ff ef 3d ac c4 a1 bd 94 58 a3 3d
       0.042175863 0.117185906 -0.0789884 0.07975879
0002a0 cf 5d ea 3d 5b 18 0c bc 64 ac 2a bd a9 7b 84 3d
       0.11443674 -0.008550729 -0.04166831 0.06468899
0002b0 56 a9 8f 3d a9 76 a9 3c 0e 84 24 3e 7b 57 89 bd
       0.0701472 0.020686464 0.16066 -0.06706139
0002c0 30 41 7e 3d ad 4b f4 bd 8a 08 b0 bd b7 18 9a bc
       0.062073886 -0.119284965 -0.08595379 -0.018810613
0002d0 1e 2b bc 3c b2 8c 78 bc 2d 51 92 bd 7a 08 4e bd
       0.022969779 -0.015170263 -0.07144389 -0.050301053
0002e0 45 4a 2e 3c 26 ad 75 3d 85 fd 07 3d 43 d7 71 bd
       0.010637824 0.05997958 0.03320076 -0.05904318
0002f0 97 25 dc bd b8 e4 8c bd 3a 13 b6 3c 7f 78 0e bc
       -0.10749357 -0.06879562 0.022225965 -0.008695721
000300 b3 34 f6 bb 36 e5 6b bd 7e 94 b4 bd 5b 82 86 bd
       -0.0075136065 -0.05759164 -0.08817385 -0.06567832
000310 ef 2e 6d bd bb d4 a4 bd 6c be 88 bd 92 b7 3a 3d
       -0.057906087 -0.080483876 -0.06676945 0.045585223
000320 85 c9 51 bd 04 9e bb bb eb 83 7f 3c 27 6a 0f 3e
       -0.051217575 -0.005725624 0.015595417 0.14005338
000330 60 ac 8a 3c ed 71 e6 3d 0f e6 ca bd d0 2e 07 3e
       0.016927898 0.11252198 -0.099071614 0.13201451
000340 7e a7 72 3d 16 f6 5e bd ae 99 e5 bd f4 e0 6a 3d
       0.059241764 -0.054433905 -0.11210953 0.05734344
000350 f0 2c 3f bd e4 c8 c7 3d ca 18 de bd ab d7 e7 bc
       -0.046673715 0.09755114 -0.10844572 -0.02830108
000360 f3 3a 62 3d 16 87 b3 3c 33 99 59 3b 80 a2 98 3d
       0.055232 0.021915 0.0033202886 0.074528694
000370 ba 65 ac 3d cf 8b bf 3b f3 ca 6c 3d f2 b2 93 bd
       0.0841784 0.005845524 0.057810735 -0.072118655
000380 9a 23 e6 bd d6 12 a4 bd c4 b5 f4 3b 19 ef dd bc
       -0.11237259 -0.08011405 0.007467957 -0.02709155
000390 f2 47 ca bc d1 6e 26 bc f4 b7 f6 bd d6 09 1e 3c
       -0.02469251 -0.010158257 -0.12046805 0.0096459
0003a0 f1 ae ad bd d9 75 57 3d 48 db 7d 3c 71 a0 49 bd
       -0.08480633 0.052602623 0.015494175 -0.049225274
0003b0 5c 30 90 bd 42 89 26 bd 06 65 6c 3c 8d cc e0 3b
       -0.07040474 -0.040658243 0.014428383 0.006860322
0003c0 6b 15 06 3d d5 d3 94 3c e9 7a cb 3d 9d 3a 08 bd
       0.03273527 0.018167416 0.099355526 -0.033259023
0003d0 49 3e 7a bd bd 11 23 3d 2f 7f 2e be 68 fe 1d 3d
       -0.061094556 0.03981184 -0.17040704 0.0385727
0003e0 8b d9 60 3c c5 4b 8e 3d 1c 18 28 3e 67 20 9a 3d
       0.013723741 0.06948046 0.16415447 0.075257115
0003f0 bc 63 cc 3d 52 6b 51 3d 5f 2a 37 be 10 55 e1 bd
       0.0997996 0.05112774 -0.17887257 -0.110025525

attn.out_proj.bias f4 [100]
000000 d5 01 db 3b 42 9b 41 3c 7d 02 a4 3b 8c f7 e6 bc
       0.006683568 0.0118168015 0.0050051794 -0.028194211
000010 01 07 3d bd 98 03 3d bd d3 0f dc bc af 5b d1 bc
       -0.046149258 -0.046146005 -0.026863014 -0.025556413
000020 3f 04 a2 bc 6c e2 0d bc ce 78 96 bb 95 b0 8e 39
       -0.019777415 -0.00865994 -0.0045920378 0.00027215914
000030 21 bc 31 3d e7 97 5e bd be fa 8e 39 f8 37 98 bc
       0.043392304 -0.054344084 0.00027271168 -0.018581375
000040 13 84 0f 3d 07 6c 47 bd a6 6f 53 3c d0 b4 7d 3c
       0.035038065 -0.048687007 0.012905037 0.015485004
000050 3d 11 50 3c d5 9d 4a 3d cc 08 6f bc b9 10 9c 3c
       0.012699422 0.049466927 -0.0145895 0.019050943
000060 5b c3 be bd 4d a1 a0 3c c7 52 28 3e d5 72 e0 3a
       -0.09314605 0.019608164 0.16437827 0.0017124066
000070 ae bb 8f 3a c0 ea 4e 3d 77 52 14 bc b1 ab 1e bd
       0.0010965967 0.050516844 -0.009052864 -0.038737956
000080 c5 22 ef 3c 33 14 25 3b 59 e5 91 bd 7c f7 25 3d
       0.029191384 0.0025189042 -0.07123823 0.040519223
000090 75 84 a5 bd d9 4e d6 3b 2e 42 b5 bb 92 d9 cd b9
       -0.08081905 0.006540161 -0.005531571 -0.0003926275
0000a0 ce ef b2 bb 22 f8 4e 39 20 b9 d5 bc b6 66 6e bd
       -0.005460716 0.00019738128 -0.026089251 -0.05820342
0000b0 a8 a0 92 3b 44 d1 e8 bb 89 d4 d0 bc 60 14 c0 bc
       0.004474718 -0.0071050245 -0.02549197 -0.023447216
0000c0 20 bd 90 bd 94 b7 29 3d 55 0f 29 bb 60 64 a8 3b
       -0.07067323 0.04143484 -0.0025796492 0.0051389188
0000d0 c7 56 b2 3a bb ac 5a 3d 19 72 b7 bc 61 6c 35 bb
       0.0013606184 0.053387385 -0.022393273 -0.0027683007
0000e0 4c 40 49 3d 7e 39 b1 bb d4 db bf 3b f1 70 99 3c
       0.049133584 -0.005408465 0.005855063 0.018730612
0000f0 33 3c 8c bc 06 1a 80 3c 22 bf 96 3d 32 67 0c bd
       -0.017118549 0.015637409 0.073606744 -0.034278102
000100 8c 6b ad bc 58 b7 06 bd 38 b7 42 bc 22 5a d1 3b
       -0.021169446 -0.032889694 -0.011884503 0.0063889185
000110 53 a8 20 3c 3c 5f 3a 3d de 34 86 3c a6 0d 22 bd
       0.009805757 0.04550098 0.01638263 -0.039563797
000120 35 f9 5a 3c b2 59 e5 3c e3 98 74 3c c6 0d 1b 3c
       0.01336508 0.027996872 0.014929029 0.009463733
000130 32 e9 97 3b b1 3d cf bb 07 9d 92 3c 5b 8c 90 3b
       0.0046359533 -0.006324493 0.017897142 0.004411263
000140 c7 5d f1 bc 08 6c 14 bc 42 39 1d 3d ff 4d 95 3c
       -0.029463662 -0.00905896 0.038384683 0.018225668
000150 f1 23 6f bc e5 19 34 bc 5b 2c 0a 3d 9a 8c 85 3b
       -0.014595971 -0.010992502 0.033733707 0.004075599
000160 81 ea 96 b9 f8 a5 d3 3c 92 29 16 bc 04 7a c1 3c
       -0.00028784949 0.025835976 -0.009165185 0.023617752
000170 cc 1e 31 3c 8a aa c1 bc 24 2b 71 bc 4c 5b dd 3c
       0.010810565 -0.02364089 -0.014719758 0.027021073
000180 3e e3 2e 3d b1 ef 8a bc 2c 69 b6 bd 24 91 da 3c
       0.042697184 -0.016959997 -0.08906779 0.026680537

attn_layer_norm.weight f4 [100]
000000 0a 69 84 3f 5c cf 7b 3f fa 09 80 3f ff 1e 7d 3f
       1.0344555 0.9836328 1.0003045 0.9887542
000010 be ef 86 3f 1e d8 81 3f db c4 83 3f f6 92 7d 3f
       1.0541914 1.0144079 1.029445 0.9905237
000020 21 e6 7d 3f 1e 07 79 3f 4c 8f 8b 3f 1d b2 83 3f
       0.99179274 0.97276485 1.0903106 1.0288731
000030 30 4a 81 3f af 3a 88 3f 55 26 83 3f 0e 9f 7d 3f
       1.0100765 1.0642909 1.0246073 0.99070823
000040 02 65 76 3f 83 04 89 3f b6 97 80 3f 07 71 7f 3f
       0.96247876 1.0704502 1.0046299 0.9978184
000050 5d 0e 84 3f ab b8 82 3f 85 d2 76 3f e0 22 78 3f
       1.0316883 1.0212606 0.9641498 0.96928215
000060 a8 f4 86 3f 20 76 82 3f 34 1a 8e 3f e1 b9 7b 3f
       1.0543413 1.0192299 1.1101747 0.98330504
000070 11 70 74 3f ba a9 75 3f 17 0e 83 3f bc 9a 88 3f
       0.954835 0.9596211 1.0238675 1.0672221
000080 eb 4f 87 3f 6c 3a 81 3f 9a fa 74 3f 7b 50 83 3f
       1.0571264 1.0095954 0.9569489 1.0258936
000090 35 46 91 3f 13 ee 81 3f ca 61 86 3f fc d9 8e 3f
       1.134955 1.015078 1.0498593 1.1160274
0000a0 17 01 77 3f c9 72 7d 3f b0 7f 73 3f 5c 61 88 3f
       0.9648604 0.99003273 0.9511671 1.0654712
0000b0 4e 5f 88 3f 51 57 7d 3f d7 1e 80 3f 5b 2d 85 3f
       1.0654085 0.9896136 1.0009412 1.0404466
0000c0 26 8e 81 3f ea 95 81 3f 77 0e 7e 3f fe 81 7e 3f
       1.0121505 1.0123875 0.9924082 0.994171
0000d0 58 d2 80 3f 39 c8 7f 3f 1f 99 77 3f 46 f2 7d 3f
       1.0064192 0.9991489 0.9671802 0.99197805
0000e0 dd 7f 8a 3f 58 eb 76 3f 04 01 7e 3f 58 65 79 3f
       1.0820271 0.96452856 0.992203 0.97420263
0000f0 8d 48 87 3f 24 24 77 3f b7 47 81 3f b3 33 86 3f
       1.0569016 0.9653952 1.0100011 1.0484527
000100 76 69 87 3f 49 b0 7a 3f ac 5d 7d 3f 68 f9 78 3f
       1.0579059 0.9792524 0.98971057 0.97255564
000110 b7 2b 78 3f 3e e3 80 3f 4f e0 7d 3f 91 79 7f 3f
       0.96941704 1.0069349 0.9917039 0.9979487
000120 9c 81 83 3f fb a6 71 3f f1 1d 70 3f 03 d7 58 3f
       1.0273929 0.94395417 0.93795687 0.8470308
000130 48 e6 82 3f db 6c 77 3f fb ac 7d 3f 47 61 7e 3f
       1.0226526 0.96650475 0.9909207 0.99367183
000140 17 49 81 3f f8 e4 80 3f 7f fd 78 3f d9 b2 80 3f
       1.010043 1.0069876 0.97261804 1.005458
000150 31 26 85 3f cb 21 7e 3f b0 e1 83 3f c1 93 80 3f
       1.040228 0.99270314 1.0303249 1.0045091
000160 72 71 7a 3f ce 67 72 3f 3a c9 7c 3f 24 17 6b 3f
       0.97829354 0.94689643 0.9874455 0.91832185
000170 1e 0c 88 3f 87 46 70 3f 6b 37 7a 3f 81 7f 80 3f
       1.0628698 0.93857616 0.9774081 1.0038911
000180 d8 0c 6a 3f 79 27 79 3f 35 8e 83 3f 0b cc 77 3f
       0.9142585 0.97325855 1.0277773 0.9679572

attn_layer_norm.bias f4 [100]
000000 08 fa 5b 3c 8d c9 d3 3c b4 c2 0a bb 3c 47 37 bd
       0.013426311 0.025852943 -0.002117318 -0.04474567
000010 79 45 7e bd fa 48 a1 bd 43 fa 82 bd 19 68 1c bd
       -0.062077973 -0.07875247 -0.0639539 -0.038185213
000020 de 99 23 bd 5c ec f9 ba 80 7f 5b 3b 20 53 9e 3c
       -0.03994166 -0.0019067633 0.0033492744 0.019326746
000030 58 2e 67 3d 5b ef b9 bd 22 4e 46 3b 03 f7 db bc
       0.05644068 -0.090788566 0.0030258973 -0.026851183
000040 f4 cb 79 3d 5d a7 b0 bd 94 cc b3 3c fc ea a3 3c
       0.06098552 -0.08625672 0.021948136 0.02000951
000050 16 28 a5 3c 20 75 97 3d b4 a3 f2 bc 26 58 9c 3c
       0.020160716 0.07395387 -0.029619075 0.019085001
000060 78 37 17 be ab 47 7b 3c 30 25 58 3e 6b 30 19 bd
       -0.14767253 0.015336911 0.21107936 -0.03739969
000070 86 6c f1 bb 87 9e ba 3d b6 8c 76 bc 25 c9 83 bd
       -0.0073676733 0.09112268 -0.015048197 -0.0643485
000080 54 4e f9 3c ef d1 a5 bb 63 71 a6 bd 2d 7d 77 3d
       0.030432858 -0.0050604264 -0.081270956 0.06042211
000090 e1 fb 1d be 05 14 a8 3c b8 7a 81 bd 4b 11 8b bc
       -0.15428115 0.020517359 -0.06322235 -0.01697602
0000a0 51 a7 94 bc dc 53 16 3c 9f dd 46 bd 6f 7b b9 bd
       -0.018146189 0.009175267 -0.048551198 -0.09056746
0000b0 36 8a 1d 3c 17 ce c1 bb 58 83 1d bd 7d 8e d5 bc
       0.009615472 -0.0059144604 -0.038455337 -0.02606892
0000c0 fb 1b 97 bd 3c 3b 69 3d d8 5e 06 3b 10 12 06 bb
       -0.07378384 0.056941256 0.0020503309 -0.0020457543
0000d0 6f a9 16 3a 32 79 a7 3d 78 2f 07 bd be 21 9d 3b
       0.00057472935 0.08177413 -0.033004254 0.004795282
0000e0 df 85 7b 3d 27 f2 bb bc 0a 5e b8 3b bc 73 f5 3c
       0.061406966 -0.022942616 0.0056264447 0.029962413
0000f0 cb 10 a0 bc d0 1f 83 3c ec f2 a8 3d ba 7f 2a bd
       -0.019539258 0.01600638 0.08249459 -0.041625716
000100 e6 96 25 bd a9 7c 2d bd ed 94 ba bc f8 43 8d 3b
       -0.04042711 -0.042355213 -0.022776091 0.004311081
000110 07 1d 53 3c a5 ca 80 3d 7b e1 2e 3d b0 a3 3e bd
       0.012885339 0.062886514 0.042695504 -0.046542823
000120 0a 25 dd 3c 2f 1a 20 3d 2d f1 a1 3c 8c 8f ce 3c
       0.0269952 0.03908747 0.019768322 0.025214933
000130 5d 31 5f 3b 35 e4 b4 bc 9e 74 d6 3c 48 ba 7a bb
       0.0034056522 -0.022081474 0.026178654 -0.0038258005
000140 50 4e 33 bd e9 a4 62 bc f8 4b 48 3d 5e 87 ba 3c
       -0.043775856 -0.013833263 0.048900574 0.022769626
000150 27 59 eb 3a 30 3c d4 bc 4a b6 ab 3d 0c 69 88 bb
       0.0017955647 -0.025907606 0.08384378 -0.004162913
000160 ef 41 b1 bb 03 43 c8 3c f8 82 0c bc 20 a3 de 3c
       -0.005409471 0.024446016 -0.008576147 0.027177393
000170 e8 83 fc bb 30 33 10 bd 02 1d d1 bc f1 2d 29 3d
       -0.007706154 -0.035205066 -0.025526527 0.04130358
000180 b6 a6 9a 3d 3a a0 be bc e5 a4 ce bd 36 6f 22 3d
       0.07551329 -0.023269761 -0.10090045 0.03965684
