DeepModels/ckpts_precomputed/dkt/ASSIST2015/model.ckpt (torch, 446126 bytes, 7 tensors)

interaction_emb.weight f4 [200, 100]
000000 c2 a0 17 3f 59 d8 49 bf 24 71 37 3f c2 1b f2 bf
       0.5922967 -0.78845745 0.71657014 -1.8914721
000010 72 80 ea be 66 dc c4 bf 7f 8b cc be 57 5a b5 3f
       -0.4580112 -1.537976 -0.39950177 1.4168195
000020 77 1d 82 be 5e bb 87 bf 2d 9d 30 3f 1c 61 b6 3c
       -0.25413105 -1.0604055 0.6898983 0.022263102
000030 e1 74 30 bf 7c 4a 69 3e b2 2a 14 bf 4e 9b 93 bf
       -0.68928343 0.2278232 -0.5787765 -1.153177
000040 f3 6c 8f bf 92 6d 27 be b0 56 10 bf 2e 80 ec be
       -1.1205124 -0.16350392 -0.56382275 -0.46191543
000050 fc 3e 0e 3f f3 c2 00 bf b3 7f 3e bf 02 20 34 3e
       0.55564857 -0.5029747 -0.74413604 0.17590335
000060 9b b0 32 3f 76 4a 30 bf 16 36 f1 bf ab 0c df bd
       0.6980073 -0.6886362 -1.8844631 -0.10891088
000070 43 9f 13 be 50 77 86 39 53 a9 95 3f 38 0f 3d bf
       -0.14416222 0.00025647366 1.1692299 -0.73851347
000080 5e b3 fa 3e e2 4d 12 bf 2d 89 80 bf fb 37 a9 3e
       0.4896497 -0.5715009 -1.0041863 0.33050522
000090 1e ee 01 3f 0a 4e a8 be 57 83 b1 bf db c9 69 bd
       0.50753963 -0.3287204 -1.3868207 -0.05707727
0000a0 3a a9 92 bf 97 a8 82 bf 13 76 7e bf 6c 7c c5 3f
       -1.1457894 -1.02077 -0.99398917 1.5428596
0000b0 5e db 51 bf 9e d2 1d 3f 33 31 41 bd c5 f0 fa bf
       -0.8197535 0.616495 -0.04716606 -1.9604727
0000c0 ad 35 2b 3e 44 a6 4f 3e fc 98 60 be 55 fb 47 3f
       0.16719694 0.20278269 -0.21933359 0.7811788
0000d0 c7 a0 76 bf b8 42 df bf c7 10 ab 3f 58 5b a5 bf
       -0.96339077 -1.7442236 1.3364495 -1.2918501
0000e0 cd 1c b9 be 23 c8 a8 bf 3d 56 c8 bc d1 75 2e c0
       -0.36154786 -1.3186077 -0.024455184 -2.725941
0000f0 65 1f 0d bf 17 d7 f9 bd 37 be 03 40 15 d7 05 bf
       -0.5512603 -0.12199228 2.0584848 -0.52281314
000100 21 41 cf 3f 33 b4 bc bf 95 1a cb be cd 8e 04 3f
       1.6191751 -1.4742492 -0.39668718 0.51780397
000110 ff c0 f6 3e ff 21 cf bf f9 ca 7d 3f 04 e3 29 3f
       0.4819412 -1.618225 0.99137837 0.66362023
000120 41 55 08 be 10 40 63 3f 28 3c c5 3e 47 f0 17 40
       -0.13313772 0.88769627 0.38522458 2.3740404
000130 bb f2 40 3d b2 ad 4d 3f ce 81 89 be 38 ca 94 bf
       0.047106486 0.80343163 -0.26856846 -1.1624212
000140 3f 62 59 be 83 4e 94 3f 4c c6 22 3f 0f 83 e7 3e
       -0.21228884 1.158646 0.63583827 0.45217177
000150 80 ed 11 bf 5c 36 b2 3e 8a e8 b8 3e af ae ed bf
       -0.5700302 0.34807098 0.36114913 -1.8568934
000160 3e d0 3b 3e 2b 87 63 bf 9a 66 0f be dd 24 1d bf
       0.18341157 -0.88878125 -0.14003983 -0.61384374
000170 9c 06 86 3f 3d 4f d1 3f 0b a5 59 bf 7f cf a7 be
       1.0470767 1.6352307 -0.8501746 -0.32775494
000180 92 b2 3a 3f 4e 6e d8 3d 1b b5 a9 3f 9e 91 b8 3d
       0.72928727 0.10567914 1.3258394 0.09012149
000190 51 31 a3 bd 81 02 58 3e 89 5b e5 bf a8 ab 9c 3f
       -0.07968391 0.21094705 -1.7918559 1.2239885
0001a0 b3 60 37 3d b9 cd 05 bf d8 f7 3a 3f 7d 8a a6 3e
       0.044769954 -0.5226703 0.7303443 0.32527533
0001b0 7b 3e 32 bf 4d 30 0d 3f bd 33 f5 be 83 d1 96 bf
       -0.6962659 0.55151826 -0.47891036 -1.1782688
0001c0 a4 82 42 bf ea 5d 3a 3f 77 be c4 3d fa e3 02 3e
       -0.7598059 0.7279955 0.09606641 0.12782279
0001d0 4f 81 5f bf 79 5b 56 3f 82 29 e1 be fb 44 40 be
       -0.87306684 0.83733326 -0.4397698 -0.18776314
0001e0 bf 69 8c 3f 63 6a a0 bf d9 54 a1 bf 6a 83 91 3f
       1.0969771 -1.2532467 -1.2604018 1.1368229
0001f0 c6 84 0a 3f 29 17 d4 be 73 e3 ea bf 40 86 fb 3f
       0.54108846 -0.4142392 -1.8350662 1.9650345
000200 d6 58 85 bf 7c ca c6 3f 5b d0 e7 3d e1 0e f2 be
       -1.0417736 1.5530543 0.113190375 -0.47276977
000210 b5 f1 84 bf b1 31 c1 bf 4b cd 5e 3e dc 51 91 be
       -1.0386263 -1.509329 0.21758 -0.28382766
000220 3b 62 6b be 31 d5 52 3f 2d b7 20 40 a6 c0 88 bd
       -0.2298669 0.82356554 2.5111802 -0.0667737
000230 62 41 8b 3f 88 24 59 bf 34 6b 32 3f 6e 73 ad bf
       1.0879328 -0.8482137 0.6969483 -1.3550851
000240 01 7d bd 3f 8a 14 16 be fa 3a 05 be d1 a8 a3 3f
       1.4803773 -0.14656273 -0.13010779 1.2785894
000250 ec e5 b8 bf e4 e9 d7 3f 1a 39 21 3f a9 7f a3 bf
       -1.4445167 1.6868253 0.62977755 -1.2773334
000260 22 53 a8 3f ef d9 0e bf ba 74 52 3e 7e 4b 30 bf
       1.315037 -0.5580129 0.2055234 -0.6886519
000270 3b 56 bd bd 30 77 47 be 13 fc f2 3e 09 8d 99 3f
       -0.09244963 -0.1947906 0.47457942 1.1996166
000280 49 f9 da bf c1 ab 78 3f de f9 83 3d 03 a9 ff 3f
       -1.7107326 0.97137076 0.06444143 1.9973453
000290 71 f1 ad 3f 37 0c 64 3f b8 35 7c be 66 1e 1a 3e
       1.3589307 0.8908114 -0.24629867 0.15050659
0002a0 e1 76 32 be 16 7b 9b 3e 70 36 ee be 56 21 4d bf
       -0.17428161 0.30367345 -0.46525908 -0.8012899
0002b0 4f 39 3f 3f 23 40 64 3d b9 82 a3 3e 4b 58 91 3f
       0.7469682 0.055725228 0.3193567 1.135507
0002c0 2d fd ba bf 69 2b 75 3f fd aa ec bf 0f 56 d1 3e
       -1.4608513 0.95769364 -1.8489681 0.4088597
0002d0 af f1 bd 3d 23 05 c4 be 35 93 47 3f 9f 07 d9 bf
       0.09274613 -0.3828517 0.77958995 -1.6955451
0002e0 b3 6f 8c bd 10 2a de bf 69 ee ec 3d f9 82 16 bf
       -0.068572424 -1.7356586 0.11568911 -0.587936
0002f0 de c1 d6 3e f6 b4 ed 3e ab dc bc 3f f3 d3 99 3f
       0.41944784 0.46427125 1.4754843 1.2017807
000300 39 17 23 bf 65 6b 6f 3f c4 c2 14 3f dc 69 0d c0
       -0.6370731 0.93523246 0.5810969 -2.2095861
000310 53 76 d5 3f e1 27 be be 68 10 59 3f 04 45 c4 bf
       1.6676735 -0.371398 0.8479066 -1.5333562
000320 35 3a 9b 3c c1 d8 f0 be eb 92 aa 3e c6 f7 87 3e
       0.018948654 -0.4704037 0.33315215 0.26556224
000330 a7 78 8a bf 05 76 67 bf 7f 9f 7f bf 4e f2 cf 3e
       -1.081807 -0.9041446 -0.99852747 0.4061455
000340 1e 66 06 3f d1 46 83 3f 2a 51 18 3e 88 37 10 bf
       0.5249957 1.0255986 0.14874712 -0.56334734
000350 69 1f 20 3d 33 99 0a 3f ba dc cb bf da 6d 72 3f
       0.039092455 0.54140013 -1.5926735 0.9469887
000360 c7 f5 9a bf c8 65 be 3f 54 0a 87 3f 0a ed 78 3f
       -1.2106255 1.4874811 1.0550027 0.9723669
000370 bf ef c6 bf 93 f7 ba 3e 07 fd 4e 3e 45 23 70 be
       -1.5541915 0.3651701 0.2021371 -0.23450954
000380 11 c3 99 3f c9 5c f0 3e 42 00 8e 3e 47 26 61 3f
       1.2012655 0.4694579 0.27734572 0.8794903
000390 bb cf 52 bf 0c f6 bc 3e 68 1d 7d bf 6b 9f cd be
       -0.8234822 0.3690647 -0.98872995 -0.4016069
0003a0 c1 fd f7 be 9a 05 4f 3f c5 f5 4a bf 1a fb cf 3f
       -0.48435786 0.8086792 -0.79281265 1.6248505
0003b0 30 ee 35 3f 23 ec 82 3e 44 5d fe 3f 9c 96 21 3e
       0.7106657 0.25570783 1.9872212 0.15780109
0003c0 bc 44 e1 bf 26 32 b0 bf 66 37 9f bf 50 36 8a bc
       -1.7599101 -1.3765304 -1.2438781 -0.016871601
0003d0 6c 95 a5 3f 73 c6 9d 3e f3 94 33 be f5 bb 19 bf
       1.2936225 0.30815467 -0.17537288 -0.60052425
0003e0 b8 0c 10 c0 c0 21 9b 3f 85 ec 97 bf 77 dd c1 bd
       -2.2507763 1.2119675 -1.1869055 -0.09466069
0003f0 19 4e b2 3f 16 8e 5f 3d 76 74 66 3f a5 ab de 3e
       1.3930084 0.054578863 0.90021455 0.4349033

lstm_layer.weight_ih_l0 f4 [400, 100]
000000 7a a6 e9 bb 6b bd 3e 3d 5e e1 01 bd 69 f7 dd bd
       -0.0071304413 0.04656736 -0.031709068 -0.10838205
000010 78 48 01 be 37 6e a9 3d 56 c9 e7 3c 63 9d f3 3c
       -0.12625301 0.08272975 0.028294247 0.029738134
000020 d2 9d b2 bd f5 dc 95 3b 39 c8 3c 3c 25 36 53 bd
       -0.08721508 0.0045734593 0.011522346 -0.051565308
000030 a9 12 88 3c 3e 81 93 bc 31 d5 57 3c 9f 55 15 bd
       0.01661046 -0.018005963 0.013173387 -0.036458608
000040 20 b5 78 bd 24 e2 6b bc 20 84 03 bc 92 bb e6 3c
       -0.06071961 -0.014397178 -0.0080271065 0.028165612
000050 b3 9a 57 3d 5f 7c 8a 3d b3 16 bd 3c a1 4a e1 3b
       0.052637767 0.06762003 0.023082113 0.0068753515
000060 14 da 16 bc 65 3d 21 3d 66 22 49 3d 38 43 94 bc
       -0.009207267 0.03936519 0.04910507 -0.018098459
000070 f8 3a 62 3d 54 0c c3 bc 90 d9 a0 3d e7 55 4e 3d
       0.05523202 -0.02380959 0.07853997 0.05037489
000080 fd 72 d4 3d 67 f2 14 3e ee cd 59 bd 65 66 d0 3d
       0.10373495 0.14545594 -0.053174905 0.1017578
000090 ec ca d1 bc 82 41 06 3e 2e 22 1d be da dd c6 bd
       -0.025609456 0.13110927 -0.1534507 -0.097102836
0000a0 20 82 be 3c 85 da a7 3d a7 29 dc 3c b9 e7 f8 3d
       0.023255408 0.08195976 0.02687533 0.121535726
0000b0 7e 5b 37 bd 7f 34 92 3c 93 90 c3 3d 25 4d ed 3c
       -0.044764988 0.017847298 0.0954906 0.02896745
0000c0 19 06 a1 bd b8 e9 df bd c8 83 71 3d e7 ec 94 3d
       -0.07862491 -0.1093325 0.058963567 0.07271748
0000d0 45 55 35 3d 2b 8b 0b 3d 8a 0b 2d 3d 7d ae 94 bd
       0.044270772 0.034068268 0.042247333 -0.072598435
0000e0 2a 45 13 3d be c2 b1 bd 6b 1b 30 3c 5a 8b d1 3c
       0.035954632 -0.08679722 0.010748724 0.025579143
0000f0 a1 c1 00 be 51 30 52 bd 23 d5 d4 bd 0e 9a 2e bd
       -0.12573864 -0.05131561 -0.10392215 -0.042627387
000100 5c 6b 16 3d bf ab 41 3d a8 a2 ba 3d ce e7 e1 3c
       0.03672348 0.04728293 0.091130555 0.027576353
000110 0a b2 a8 3c 10 ba 15 bd 2f 55 1d 3d 18 3a 81 bd
       0.020592708 -0.036554396 0.038411316 -0.06309909
000120 56 f4 a9 3d ef ac c5 bd 90 cf 1b bd 2d ca cf 3d
       0.082985565 -0.09652125 -0.038039744 0.10145984
000130 b9 3d 02 be f0 46 89 bd a4 df 56 3b b8 41 97 bc
       -0.12718858 -0.067029834 0.0032787109 -0.018463954
000140 32 a9 25 3d 5c 66 66 bd 5a be 50 3d fc 49 71 bd
       0.04044456 -0.05624996 0.050962783 -0.058908448
000150 ab 41 b1 3d 17 56 16 3e c9 98 17 3d b6 63 45 3d
       0.08655103 0.14681278 0.03701094 0.048190795
000160 41 e2 5b bc 7f 7c ab bc cf 64 26 3c 68 e3 c3 bd
       -0.013420642 -0.020933388 0.010155871 -0.09564859
000170 11 11 22 3d 9c a4 9d 3d 42 73 68 bc b1 84 3c 3d
       0.039567057 0.07697412 -0.014187636 0.046024982
000180 1c c7 36 3d 59 ed 4d bd 22 d0 1a bd 67 6b 96 bd
       0.04462348 -0.05027518 -0.037796147 -0.07344704
000190 43 5f 49 3d 20 a1 3f bd fb 62 26 3c df c2 b5 3c
       0.049163114 -0.04678452 0.010155435 0.022187648
0001a0 db cb b4 bc d2 d0 b2 bd 9b cf 1e bd 58 2b 42 3b
       -0.022069862 -0.087312356 -0.038772207 0.0029627886
0001b0 70 07 c3 bd aa 9b 06 3e 8c 11 ad bd d9 65 b7 bd
       -0.09522903 0.13145319 -0.084506124 -0.08954973
0001c0 73 cd e9 3d d0 da fe 3c b7 5c 12 be 58 67 b5 bd
       0.114161395 0.031110197 -0.1429318 -0.08857602
0001d0 31 72 08 3d 44 c9 6e bd 9f 1a 8a 3c 0d 8c 6a bd
       0.033312026 -0.05829741 0.016858397 -0.05726247
0001e0 8c 45 e5 3d 4f 6e f9 3b cf 70 de 3d 8f f8 c9 bc
       0.11194906 0.0076120268 0.1086136 -0.024654655
0001f0 37 d7 19 bd bc cf 28 3d 3f 31 2d 3c 17 d9 b6 3d
       -0.03755876 0.041213736 0.010570823 0.08928125
000200 6a a2 88 3d 1a 20 e8 bd f6 68 b7 3d 0d 1a a9 3a
       0.06671603 -0.11334248 0.089555666 0.001290144
000210 93 31 d4 3d e4 6a ea bc bd f4 d6 bc 36 7e e6 bc
       0.10361018 -0.028615423 -0.026239747 -0.028136354
000220 b2 52 83 bc 7f 48 64 bd d4 33 25 bd 82 f0 17 3a
       -0.016030643 -0.0557332 -0.04033263 0.00057960313
000230 49 f4 89 b9 e4 64 81 bd 94 ce 71 bd e7 66 ea 3c
       -0.00026312683 -0.063180715 -0.0590349 0.02861352
000240 7e 2d 93 bd a3 09 84 bb 0f f3 23 bd 5b ed 9f 3b
       -0.07186411 -0.004029469 -0.04002672 0.00488059
000250 47 fb 88 bd df bb 50 bd 5f 26 09 bd 3e 6f 41 bb
       -0.06688552 -0.050960418 -0.03348386 -0.0029515768
000260 1d 75 ff bc 2f d3 69 bd d0 d4 2a 3d 45 ee 0f 3e
       -0.031183774 -0.057086166 0.04170686 0.14055736
000270 54 52 11 bd ee 09 dd bd 09 74 b9 3d f8 ca c9 3c
       -0.035478905 -0.107929096 0.09055335 0.024632916
000280 d9 31 2d bd 0b 1a 0c 3d 73 87 87 3c cc 84 38 3d
       -0.042283867 0.034204524 0.01654408 0.04504852
000290 82 9b a7 3c 15 27 9f 3c 25 80 91 3d a7 67 2d bd
       0.020459894 0.019427815 0.0710452 -0.04233518
0002a0 a9 aa b4 bc 53 5e c5 bc bf 7a 56 bd 93 5b 84 3d
       -0.022054033 -0.024092829 -0.052363154 0.06462779
0002b0 c6 6d fa 3b 5a 10 34 3d c7 f3 80 bb 58 b0 93 3c
       0.0076424805 0.043960907 -0.0039353105 0.018028423
0002c0 ca 03 ff 3a 76 8f 9a 3d a2 e8 33 bd 53 91 50 bd
       0.0019456085 0.07546894 -0.043923028 -0.050919842
0002d0 d3 e2 0a 3d df fc 50 bd 3a 6a cb bc e9 6c 14 3d
       0.033907723 -0.051022407 -0.024830926 0.036236677
0002e0 10 c5 d0 3c 21 17 f2 3c dd f3 99 bb 80 e5 68 3d
       0.025484592 0.029552044 -0.00469826 0.056859493
0002f0 f7 97 84 bd 80 8b 73 37 57 ab 7d bd 8f 85 ed 3d
       -0.064742975 1.4516409e-05 -0.06193098 0.1159774
000300 48 0b 2e 3d 24 dd d5 bd 5f ab 06 be 92 b1 11 bd
       0.042491227 -0.1044257 -0.1315131 -0.035569735
000310 a2 78 5b bd 64 f5 86 3d 2f e0 58 be fa 69 8b bd
       -0.05358184 0.06589773 -0.21179269 -0.06807323
000320 7a 67 de bd ef 99 75 3d e2 48 ce bb 8a 94 38 be
       -0.1085958 0.059961256 -0.0062953094 -0.18025413
000330 c8 8d 5d 3c 66 5b 3e be 92 d2 1c bd 8b b2 ac 3c
       0.013522573 -0.18589553 -0.038286753 0.02108123
000340 95 62 7d bd 74 af 72 3d 6f c7 ed bd 60 de 0b be
       -0.061861593 0.059249356 -0.116103046 -0.13659048
000350 70 b4 bb 3d a1 d1 a9 3d 98 98 06 3d 25 c6 d7 bd
       0.09165275 0.08291937 0.03286037 -0.1053584
000360 b6 78 d0 3d 09 b2 c2 3d 36 81 a9 bd 8a 2c ce 3d
       0.10179274 0.09506614 -0.08276598 0.10067089
000370 54 a1 30 bd 62 1d aa 3b 0a a8 8d bd 33 be 8b 3d
       -0.043122604 0.005191491 -0.069168165 0.06823387
000380 62 4c fe bd e8 16 a3 bd 24 7a 81 bd 0d 3e f6 3d
       -0.124169126 -0.079633534 -0.063221246 0.12023554
000390 fd e5 33 bd da 50 ab 3c 2c 91 6e 3d d1 38 e0 bd
       -0.043920506 0.020912576 0.058243915 -0.10948337
0003a0 b7 47 ec bd e2 ed ca 3c d4 69 dd bc 0e a1 09 3d
       -0.11537116 0.024771634 -0.027028002 0.03360086
0003b0 99 78 68 bc 97 f7 72 39 37 4b 7e 3d da 5f 83 bc
       -0.014188909 0.00023171153 0.06208345 -0.016036917
0003c0 c4 51 ac bd bb 6b 05 3d f9 af 72 3d 97 c7 3f 3d
       -0.08414033 0.032573443 0.05924985 0.046821203
0003d0 ad 20 e9 bd 12 ed 0d 3e 84 6e 9c 3d 7a 39 cc 3d
       -0.113831855 0.13859966 0.07638267 0.099719
0003e0 62 40 1f 3d ea 0a f4 bb 34 32 03 be 33 39 99 3d
       0.03887976 -0.00744759 -0.1281212 0.07481613
0003f0 f1 f3 3c bd 42 ad 06 bd e6 85 07 3e 92 31 89 3d
       -0.04613108 -0.032880075 0.13234672 0.06698908

lstm_layer.weight_hh_l0 f4 [400, 100]
000000 09 2f 4b bb ad d3 91 bc 57 eb 60 bd d9 27 0b 3e
       -0.0031003377 -0.01780113 -0.054911938 0.1358942
000010 b6 f7 13 3c 2d 5d 93 3d bf 0f a0 bd 13 f6 b8 3b
       0.009031227 0.07195506 -0.07815503 0.0056445687
000020 3e 53 97 3d d4 6c 6c bd 17 7f d6 3c 79 85 ca bd
       0.07388924 -0.057720974 0.026183648 -0.09888739
000030 95 2e e9 bb 7f ad d8 bc 75 18 5c bc 67 cb 29 3e
       -0.0071161487 -0.026449917 -0.013433565 0.16581498
000040 96 43 8b 3d 60 07 33 bd 8d f6 b3 bd 0c e3 04 3d
       0.068 -0.043708205 -0.0878726 0.03244309
000050 be a1 7f 3c 63 2b c0 3d 5d 8e 25 3d a5 94 c6 bd
       0.015602527 0.09383275 0.04041897 -0.096963204
000060 78 23 bd 3d 00 da 80 3b ae 90 18 3c e9 b4 f7 3c
       0.09235281 0.0039322376 0.009311838 0.030237632
000070 1e 07 9f bd a9 e1 7b 3d a0 0d 2d be 91 06 83 3d
       -0.07765029 0.061494503 -0.16899729 0.06397737
000080 23 09 7d bc 6e 90 7c bd 32 28 8d 3d cd 2a 96 3d
       -0.015444073 -0.061661176 0.06892432 0.07332382
000090 8a 7d 68 3c 76 fd 7f bc 62 9e 63 bd 45 5b 19 bb
       0.014190087 -0.015624395 -0.055570967 -0.0023400348
0000a0 6d b2 29 bd b1 8e ac bd bc 8a a2 3d 9b fb df bc
       -0.041429926 -0.08425654 0.07936618 -0.027341655
0000b0 89 f0 de 3d 2a 3f 6e bd 00 ad d4 3b a9 e5 82 3d
       0.10885722 -0.058165707 0.00649035 0.063914604
0000c0 75 d9 7e bc d3 e9 80 3b dc 0c 22 bd 50 f9 70 3d
       -0.0155547755 0.003934124 -0.039563045 0.058831513
0000d0 d0 43 be 3d 41 4b 39 3c 34 43 65 3b fb de 15 bd
       0.09290278 0.011309446 0.0034982683 -0.036589604
0000e0 7c e6 95 bd 13 14 85 3c dc 0b 3f 3c ea 16 b5 bd
       -0.07319352 0.016244924 0.011660542 -0.08842261
0000f0 50 98 95 3d da 1c 79 bd ac cd bc bd 11 70 50 3d
       0.07304442 -0.06081853 -0.09218916 0.050888125
000100 41 b4 80 3d a5 dd 88 3c bd a0 3d 3d d2 29 18 bd
       0.06284381 0.01670725 0.04629587 -0.037149258
000110 d2 7d a9 3c d1 b8 90 bd 52 34 8d bd 9f 8f c0 ba
       0.020689879 -0.07066501 -0.06894745 -0.001469124
000120 f2 b5 10 bd 23 82 94 bc e9 2d a9 3d 37 86 97 bd
       -0.035329767 -0.01812846 0.0826071 -0.07398646
000130 d0 05 97 bd 01 9b 84 bd c4 8d de 3d 0d 18 b4 bd
       -0.073741555 -0.06474877 0.108668834 -0.0879365
000140 29 4c e9 bd a7 f2 ba b9 3d 2c 4e bd 2d a5 0a bd
       -0.113914795 -0.00035657475 -0.050335158 -0.03384893
000150 32 b7 06 3e 35 7b a3 3d 58 b8 89 3b 51 1d cc 3d
       0.13155821 0.07982484 0.0042028837 0.09966529
000160 43 d3 61 3c b9 69 33 3e bb e6 f3 3c 11 9d 83 bd
       0.013783279 0.17520799 0.029773107 -0.064264424
000170 62 65 2d 3d a8 af d7 3d 53 e5 04 3d 03 3a e7 bc
       0.042333014 0.10531551 0.032445263 -0.028225904
000180 08 6d 13 3e 4d 89 c3 bd 7c b5 e8 bd ff ff 01 bd
       0.14397061 -0.095476724 -0.113627404 -0.031738278
000190 53 38 57 bc 3a 29 95 3d 85 7a 84 3d e3 74 4c 3d
       -0.013135987 0.07283254 0.06468681 0.04991616
0001a0 ad 7e ac 3d b5 a9 45 bd c6 63 85 bd 9a b3 d0 bd
       0.08422599 -0.04825755 -0.06513171 -0.10190506
0001b0 84 71 6e 3d ca 4a 92 3c 08 39 85 3d 11 09 fe bc
       0.058213726 0.017857928 0.065050185 -0.031010183
0001c0 4a 33 99 bd 81 e8 e6 bc 24 1d f2 3c b5 9c 14 3e
       -0.07480486 -0.028187038 0.029554911 0.14512904
0001d0 78 86 e9 bb 0b 8f ac bc 8e 26 24 3d 3c cf 89 bd
       -0.0071266256 -0.021064302 0.04007583 -0.0672898
0001e0 d8 03 90 bd 8a 4b d3 bd 12 5f b4 ba fb 21 7a 3d
       -0.07031983 -0.10317142 -0.0013761243 0.061067563
0001f0 44 e9 2a 3d a5 ff 8b bd f8 f7 3e be 76 83 0d be
       0.041726366 -0.0683587 -0.1864928 -0.1381968
000200 b9 98 81 3c 72 27 5a 3d 72 52 5e 3c 78 a0 a6 bd
       0.015819894 0.053260274 0.013569461 -0.08136076
000210 16 0d 33 bd d2 c6 f4 bd 00 19 6c 3d be 39 33 bd
       -0.04371365 -0.119519845 0.05764103 -0.04375624
000220 c5 06 1c 3c c8 77 dd bd 67 c2 5d bd b2 5e cf 3d
       0.009523098 -0.10813862 -0.054140475 0.101254836
000230 76 38 76 bd 85 88 f8 3d 87 f4 56 bd 56 91 04 be
       -0.06011244 0.12135414 -0.052479293 -0.12946066
000240 f2 6c d3 3c a3 72 f1 3d 55 35 0e bd 99 d8 c4 bd
       0.025808785 0.11789443 -0.03471883 -0.09611625
000250 1d 93 81 bd 7a 83 9b bc 68 15 af 39 1a c4 89 bd
       -0.06326888 -0.018983591 0.0003339455 -0.067268565
000260 7c 1c ef bd 3f f9 4a 3d 85 f3 d8 3c e6 49 08 3d
       -0.11675355 0.049554106 0.026483307 0.0332736
000270 64 ff 6f bd 64 e8 c8 3d d4 be 0d 3d c2 fb 34 bc
       -0.05859317 0.0980995 0.034605816 -0.011046352
000280 e6 90 18 bd 94 b1 99 3d 50 90 b5 3d f3 16 97 3c
       -0.03724756 0.075045735 0.08865416 0.01844356
000290 7d d7 13 be 8c e6 ff 3d f9 bb 82 bd 37 e2 80 3d
       -0.14437671 0.12495145 -0.06383509 0.06293147
0002a0 47 75 2a 3d d0 5c 05 3e db 4b d0 3b 0b 53 6f bd
       0.04161575 0.13023686 0.006356699 -0.058428805
0002b0 af 87 21 3c 1a b4 f2 3c 9c 01 f4 bc cb 85 0c 3e
       0.00985901 0.029626895 -0.029785924 0.13722913
0002c0 57 19 9b 3c 45 05 16 be ee e7 37 be 62 0b eb bd
       0.018932981 -0.14650448 -0.17959568 -0.114767805
0002d0 dd e1 2c be d9 86 4f 3d ac 3f bf b9 87 2c 24 bd
       -0.16883035 0.05066571 -0.00036477798 -0.040081527
0002e0 21 96 41 3d a3 ef 91 3d 5d ce a1 bb 93 2c c7 3b
       0.047262315 0.07125785 -0.0049379305 0.0060783117
0002f0 24 19 36 bd 28 5b ab 3d 5e e1 03 bd 7a 61 2c be
       -0.04445757 0.08366996 -0.03219735 -0.1683406
000300 a4 b2 3b bd cd 8e 9a 3d d3 3e b9 3d 69 9f f9 bd
       -0.04582466 0.07546768 0.09045186 -0.12188608
000310 4c 40 04 bc 6e e5 87 bc 0e 08 5c bd 6c 02 05 be
       -0.00807197 -0.016588893 -0.05371862 -0.12989205
000320 45 93 0d bd af 60 45 bd bf 68 9b 3d 5a 5d 36 3d
       -0.034564275 -0.048187908 0.07588338 0.04452262
000330 c8 d5 ce 3d 06 2b 90 3d 51 8b 65 bc 94 dd 84 3d
       0.10099369 0.07039456 -0.014010266 0.06487575
000340 7f b3 9e 3d 20 fc a7 bc d0 31 dc 3d b4 9b 84 3b
       0.0774908 -0.020505965 0.107516885 0.0040468816
000350 ef 39 02 3d c7 be 5e 3d f3 fb b5 3c ee 44 e3 bd
       0.03179353 0.05438116 0.022214865 -0.11097132
000360 74 ab 9c 3d 77 4c f0 bc 86 f8 bb 3b 50 23 8c bd
       0.076498896 -0.029333336 0.0057364134 -0.06842673
000370 9d de 03 bc 97 55 9f 3d 5d 3c 52 bd de c5 a0 bd
       -0.008048681 0.07779997 -0.0513271 -0.0785024
000380 0f a6 e5 bd 04 c2 2b bd 41 41 fc bd 20 ea 93 bd
       -0.11213314 -0.041933075 -0.12317134 -0.0722239
000390 5c 7a dd 3d 9f b6 9b bd c6 df 43 bd 65 07 b4 bd
       0.10814354 -0.076031916 -0.04782083 -0.08790473
0003a0 63 15 f0 3d 2d 36 b7 bc 87 8f e5 3c 3d c0 a8 3a
       0.11722829 -0.0223647 0.02802254 0.0012874674
0003b0 31 58 57 3b 58 09 1e 3e a2 b5 4f 3d 40 cb 80 3c
       0.0032858963 0.15433252 0.050710328 0.015721917
0003c0 66 a7 22 bd 4c 6c 5b 3e 40 b6 28 3c d5 ac fd bc
       -0.039710425 0.2142803 0.010297358 -0.030966202
0003d0 6e 3f bc ba 7a 77 52 bd 4f f3 bf 3d 1b 48 ea bd
       -0.0014362165 -0.051383473 0.09372579 -0.11439534
0003e0 ce c6 6d 3d 2a 1f e2 3d 63 69 9d 3b 4f a9 9b bd
       0.058050923 0.110411 0.004803823 -0.076006524
0003f0 7d 04 fe bb 21 8a 89 bd 8c b7 02 bd a8 9b c0 bc
       -0.007752 -0.06715799 -0.031913325 -0.023511723

lstm_layer.bias_ih_l0 f4 [400]
000000 be 6e 9b 3d c3 9e 9b 3c 4c df 1b 3b 99 ae 6c bd
       0.07589482 0.018996602 0.0023784218 -0.057783697
000010 f9 d2 81 bd a9 78 4f bc 53 4c ac 3d a4 de cb bd
       -0.06339068 -0.012663045 0.08412995 -0.09954575
000020 d6 50 ed 3d ec 8b d8 3b 4d a6 82 bb 33 24 a8 3d
       0.11587684 0.006608477 -0.0039871098 0.082100295
000030 ee 52 94 3d 40 45 4e 3b 25 4a ed 3d 42 87 97 bc
       0.0724238 0.0031474382 0.115864076 -0.018497113
000040 63 4e 01 3e 99 78 2e bd 1c 50 ec 3c 91 a6 20 bb
       0.12627558 -0.04259548 0.028846793 -0.0024513344
000050 93 93 b1 3d de 56 02 3c 49 6b ce 3d 06 34 ec 3d
       0.08670726 0.007955281 0.10079057 0.1153336
000060 47 6e 94 3d 0f 6b a3 3d 11 10 d5 3d b8 18 02 3d
       0.07247596 0.07979404 0.10403455 0.031761855
000070 4c db 9e bd 7f 83 c2 3b e5 9a a8 3d 3e 36 07 3e
       -0.07756671 0.0059360857 0.08232669 0.13204286
000080 1e 9b 8b bd 7c f9 17 3d 70 57 6e 3c 55 87 43 3c
       -0.06816696 0.03710316 0.014547214 0.011934121
000090 a2 22 65 3d 63 c2 53 3d c4 bf 48 3d f8 d0 af bd
       0.05594123 0.051699053 0.049011007 -0.085847795
0000a0 f7 eb de bc 23 20 ec 3d d0 51 e3 3d 8a 31 64 3d
       -0.027212126 0.11529567 0.11099589 0.055711307
0000b0 eb 6c ad 3d 59 b5 cc 3b 29 d8 fb 3d e2 12 92 3d
       0.0846804 0.0062472043 0.12297089 0.07132508
0000c0 1f 87 bc 3d 39 b8 6c bd fa a0 1d 3d ba 06 99 3d
       0.0920546 -0.057792876 0.038483597 0.07471986
0000d0 74 c6 09 3d 6c ef 39 3c c3 aa f6 3d f8 1d 2f 3d
       0.033636525 0.0113485865 0.12044289 0.04275319
0000e0 e2 33 56 3d c9 5f 82 bc 9e 96 db bc c9 e9 a4 3d
       0.052295573 -0.015914815 -0.026805218 0.080524035
0000f0 59 f4 50 3c 10 f4 cb 3b 48 94 2a bd a6 16 0e bd
       0.0127535695 0.006224163 -0.04164532 -0.034689568
000100 d5 3b 8e 3c 4e 23 19 3d 3a 33 03 bd a3 0a c5 3d
       0.017362515 0.037387185 -0.032031275 0.096211694
000110 6b 84 7a 3d 7d 07 81 3d 38 98 fd 3d 91 d1 fd 3d
       0.06116144 0.063002564 0.12382549 0.12393487
000120 02 f3 7a bd 5c e6 ef 3d df 84 f1 3c 11 9d 8d 3d
       -0.061266907 0.117138594 0.029482303 0.06914724
000130 4b 21 5b bd 88 b2 28 bd d6 8f 6a 3d 19 19 f9 bc
       -0.053498548 -0.041185886 0.05726608 -0.030407475
000140 40 34 14 3c c6 ba 10 3d 3e e6 c3 3d 3b e3 0a 3e
       0.0090456605 0.03533437 0.095653996 0.13563244
000150 ce 54 90 3c 97 58 f3 3d bf 7c 70 3c 27 60 e3 3c
       0.017618563 0.118821315 0.014678179 0.02775581
000160 7e 55 81 3d dd 01 af bc ba 94 f9 3c f6 ce c4 3d
       0.063151345 -0.021363193 0.030466426 0.09609787
000170 eb a8 2d bd 21 2c 6b 3d 95 f6 77 bd be 96 05 3e
       -0.04239742 0.05741513 -0.060537893 0.13045785
000180 11 a9 88 bd 4d aa a2 bd f9 12 8b bd 84 ba 49 3d
       -0.06672872 -0.079426385 -0.06790728 0.04925014
000190 08 3d 17 3e c4 a0 3a 3e 4b 90 80 3d 6e 38 33 3d
       0.14769375 0.1822539 0.06277522 0.043754987
0001a0 17 41 1c bd 84 86 8a 3d 22 2c 9a bc 1f 96 9e bd
       -0.038148012 0.06763938 -0.018819872 -0.07743477
0001b0 9f 2b cf 3c b5 3a 1f 3d 9b 65 1a 3e 2a 48 fc 3d
       0.025289355 0.038874347 0.15077822 0.12318452
0001c0 45 a1 c3 3d f5 02 54 3e 50 be 74 3b 29 cd 78 bd
       0.09552244 0.20704253 0.003734488 -0.06074253
0001d0 42 91 ed 3c b0 e9 cb bd e1 37 3c 3a e9 8e b1 3d
       0.028999928 -0.09956682 0.00071799575 0.08669836
0001e0 b5 e2 3a 3d 34 69 9e 3c 68 0c 29 bd 67 29 79 3d
       0.04562636 0.019337274 -0.041271597 0.0608305
0001f0 97 dd ef bb 9f c4 32 3e 17 b1 5d 3d 77 5c 22 3e
       -0.0073201167 0.17457817 0.054123964 0.15855585
000200 7f 1c 2f 3d 44 35 f2 3c b8 a7 2e 3c 76 2c 23 3e
       0.042751785 0.029566415 0.010660104 0.15934929
000210 b8 fd 45 3e d4 5c 87 3c 40 47 9f 3d 27 db 26 3d
       0.19335067 0.016523756 0.07777262 0.040736344
000220 28 5c a2 3b 24 5c 45 3c 29 f1 fd bb 2f 72 06 3e
       0.0049548335 0.012045894 -0.007749696 0.13129495
000230 74 6a ef 3c c2 a5 aa bc ef 03 a1 3d 71 fd 6e bc
       0.029225565 -0.020830993 0.078620784 -0.014586792
000240 39 18 b5 3c 0f bd 50 bc 4f 48 bc 3d 47 9b f8 3d
       0.022106277 -0.012740388 0.09193479 0.12138992
000250 37 c8 44 bb c3 d0 26 bd 58 0c af 3d 2f 3a 5d 3d
       -0.0030026564 -0.040726434 0.08547276 0.054010566
000260 d3 58 8e 3d 4a eb f1 3b f9 1c e1 3d 8c 69 97 3d
       0.069505356 0.007382785 0.10991854 0.07393178
000270 e8 b0 8a bd 04 e3 9e 3d 78 90 fc 3c cd 9a df bb
       -0.067720234 0.077581435 0.030830607 -0.0068238736
000280 21 d8 13 3c 2b e9 f0 3c 43 98 90 3d 8f 7c 13 3d
       0.009023697 0.029408058 0.070602916 0.03600746
000290 04 91 36 3e 98 53 fa 3d 70 b3 64 3d c9 ff 43 bd
       0.17828757 0.122229755 0.055835187 -0.047851358
0002a0 a8 b6 84 3d 60 d9 ec 3d de ef a6 3d b8 99 45 3d
       0.064801514 0.115648985 0.0815122 0.0482423
0002b0 07 bb bd 3d 6b 71 21 3e 52 05 1c 3e bf 35 a8 3c
       0.09264188 0.15765922 0.15236405 0.02053344
0002c0 2a 3a 93 bb f4 2e 4e 3b 60 9b b3 bc e6 3b fd 3d
       -0.0044930177 0.0031461092 -0.021924675 0.1236494
0002d0 0e 5b 44 3e af c1 38 3e 28 35 8e 3d 9a f4 0c 3c
       0.1917536 0.18042634 0.069437325 0.008603239
0002e0 32 e5 f3 bc 88 b3 84 bd 87 db ac bd 7a 85 98 3c
       -0.029772375 -0.06479555 -0.08440309 0.018618334
0002f0 97 a2 00 3e 1c b8 96 3d ee 66 0d bb f7 55 87 3d
       0.12562023 0.07359335 -0.0021576243 0.06608193
000300 a1 0c ec 3d 62 8f 07 bc fd 8f 09 3e a7 2c 67 bd
       0.11525846 -0.008273931 0.13433833 -0.05643907
000310 1a 89 58 3d e7 f7 ad bd 50 50 fc 3d 25 b8 86 3d
       0.052865125 -0.08494549 0.12320006 0.065780915
000320 6f cb 87 bd 65 98 ec bc b0 9a 19 3e 46 08 ec bd
       -0.06630599 -0.028881261 0.15000415 -0.115250155
000330 11 39 35 3d 56 b1 14 be 93 d8 e5 bb 7c b5 42 3d
       0.044243876 -0.14520773 -0.007014343 0.04753636
000340 fd 8c ee bd 48 b8 81 ba 9f 18 af bd 69 67 4b 3c
       -0.11647985 -0.0009896839 -0.08549618 0.012414792
000350 4e 18 d4 3c 9e 50 84 3c 46 88 10 3c 8e 65 fa bd
       0.025890496 0.016151723 0.008821553 -0.12226401
000360 ce 52 8a bd 1a 9d d6 bd f6 a8 06 be 6d e4 4e bd
       -0.06754075 -0.104791835 -0.13150391 -0.050510813
000370 9f f6 b2 3d c1 f3 2a 3d be 70 d4 3d 50 3f ff bb
       0.087384455 0.041736368 0.10373066 -0.00778953
000380 36 d9 7f 3b 7a 7a ca bd 82 b8 85 3c 62 79 02 3e
       0.003903938 -0.09886642 0.016323332 0.12741616
000390 a4 e1 84 bd 6e c8 73 bd c1 42 71 3d 9f 5b 9b bc
       -0.0648835 -0.059517317 0.058901552 -0.018964587
0003a0 11 79 8b 3b a7 ab 9f 3d e2 87 a3 bd cb 98 00 3e
       0.0042563756 0.07796412 -0.07984902 0.12558286
0003b0 62 29 0e 3d 13 de 24 bc bd ee ca 3c a2 9c db bb
       0.034707434 -0.010062712 0.024772042 -0.0067020217
0003c0 be 30 aa bc 16 67 99 bc cc 4a 70 3d b8 f2 83 bc
       -0.020775195 -0.018725913 0.05866508 -0.016106948
0003d0 e4 63 2f 3d fb 69 30 be e1 22 06 bc 4b 75 a1 ba
       0.042819872 -0.17227928 -0.008187027 -0.0012318281
0003e0 5a c4 81 bc 71 34 f4 3d e6 82 c7 bd b9 64 30 3d
       -0.015840698 0.11924065 -0.09741764 0.043064807
0003f0 9e 3c f0 3d 40 35 03 be 0c ec b5 bd ca 92 00 3e
       0.11730312 -0.12813282 -0.08882913 0.12555996

lstm_layer.bias_hh_l0 f4 [400]
000000 f3 20 18 3e a7 d0 f2 3d 59 31 d5 3b bf 15 9c 3d
       0.14856319 0.118562035 0.006506127 0.07621335
000010 76 2d 39 3d 77 a6 00 3e cb 45 05 3e c7 b4 c0 3d
       0.04520937 0.12563501 0.13014905 0.094094805
000020 75 a2 17 3e 07 b5 86 3c 3a f6 15 3e a4 69 e4 3c
       0.14808066 0.016443742 0.14644709 0.027882405
000030 7c 2c 83 bc f8 02 92 3d 7d 1c fe 3b a4 f8 41 3c
       -0.016012423 0.071294725 0.007754861 0.011839066
000040 c6 7c 6c bc 41 bf fe 3d c3 e0 20 3e c4 d0 1e bc
       -0.014434045 0.124388225 0.1571074 -0.009693328
000050 6e de 83 3b 20 65 ea 3d c5 93 6e bc b0 de 97 3d
       0.0040243184 0.11445069 -0.014561598 0.07415521
000060 b9 c3 81 bd 20 18 7c bd 97 1e 99 3d b8 10 f4 3d
       -0.06336159 -0.061546445 0.07476538 0.11917251
000070 70 03 25 bd e0 ff 09 3e 5a 2f 45 3d 58 08 0a 3e
       -0.04028648 0.13476515 0.04814086 0.13479745
000080 aa 3a 89 3d e2 eb 52 3d dc 72 cc 3d 87 9e a7 3d
       0.067006424 0.051494487 0.09982845 0.081845336
000090 50 08 99 3d 67 64 49 3d f4 45 3a 3d d0 8c 67 3b
       0.074722886 0.049168017 0.04547687 0.0035331734
0000a0 87 8a b3 3d 26 68 fa 3d cf 52 10 3d 5f e8 8f 3c
       0.08766656 0.12226896 0.035235222 0.017566858
0000b0 db e9 f3 3d cf f0 99 3d 75 a4 61 3d 67 8b de 3c
       0.11909839 0.07516634 0.05508848 0.027166082
0000c0 e8 ef a5 bd 3a 43 9e 3d 49 8b f2 3d 79 cb ec 3d
       -0.08102399 0.07727666 0.11842973 0.11562247
0000d0 5d 0b a1 3d 86 3b 35 3c c4 57 0d 3d 12 89 99 3d
       0.078634955 0.011061555 0.034507528 0.07496847
0000e0 5a 5a ad 3d e6 8f ce bc 17 90 08 3e b4 aa f9 3d
       0.08464499 -0.0252151 0.13336216 0.12190762
0000f0 d9 f1 d0 3c fb e4 82 bd 28 7b 34 3d b0 ab 41 3c
       0.025505947 -0.06391331 0.044062763 0.011820719
000100 2a 2c 25 bd cc 97 d7 3b 4b de 70 bd 58 af e9 3d
       -0.04032532 0.006579375 -0.058805745 0.11410397
000110 f1 33 2c 3d 31 2c fd 3d 84 24 06 3e cb c2 e3 bc
       0.042041723 0.123619445 0.13099867 -0.027802845
000120 91 6c 0b bd 7c 27 50 3b 39 6a 15 bd de b2 f2 bc
       -0.034039084 0.0031761816 -0.036478255 -0.029626306
000130 4d bc 87 bd 7b f0 c0 bb 6f 02 51 3d ce 9e f3 3d
       -0.066277124 -0.0058880425 0.05102771 0.11895524
000140 b9 34 85 3d e6 ea 6c 3d 9f b6 91 bc 2e 25 b3 3d
       0.06504197 0.057841204 -0.017787276 0.08747326
000150 d2 f2 04 3d 37 d7 59 3d 6e b7 88 3d d4 f6 dc 3d
       0.032458134 0.05318376 0.066756114 0.10789266
000160 5e e9 0a 3e 07 05 a6 bd a1 e5 11 3e 34 f0 96 3d
       0.13565585 -0.08106428 0.14247753 0.07370034
000170 a5 b7 f2 bc 4a 5a 83 3b b4 22 a9 3d ec af d1 3d
       -0.029628584 0.004008566 0.08258572 0.102386326
000180 06 fb 34 bd 40 ca 66 3d ea 57 ad 3a 23 76 a2 3d
       -0.044184707 0.056345224 0.0013225053 0.07932689
000190 2b 9a b7 3d 27 6e ab 3d 98 cc 1b 3e 3f 21 23 3d
       0.08964952 0.08370619 0.15214765 0.039826628
0001a0 66 3a 86 3d 14 04 92 3d 58 90 12 3d 74 ca a6 bd
       0.06554107 0.07129684 0.03578219 -0.081440836
0001b0 de 7a 5f 3d cd 3d ca 3d af da 43 3e 6b 8c 4a 3e
       0.054560535 0.09875069 0.1912639 0.19780128
0001c0 98 f8 e5 bb 0f 60 0f 3d 3e a3 38 3e 22 0b cd 3c
       -0.00701816 0.035003718 0.18031022 0.025029723
0001d0 87 53 08 3e 54 85 34 3d 5f 19 1c 3e c3 58 84 3d
       0.13313113 0.044072464 0.15244053 0.064622425
0001e0 5f c3 3a 3d f7 27 9a 3d 9a b5 e5 bc 5f 68 10 bd
       0.045596477 0.07527154 -0.028040696 -0.035255786
0001f0 75 f2 dd 3d 95 a8 44 3c 6a b3 0f 3e bd d1 96 3d
       0.10837261 0.012003084 0.14033285 0.07364223
000200 dc e1 9b 3d 45 97 10 3e c3 5e 21 3e 8e bf f6 3d
       0.07611439 0.14120205 0.15758805 0.12048255
000210 ef e4 46 3e 9a a3 54 3b a6 2a 58 bd 5b aa 53 bd
       0.19423269 0.0032446147 -0.052775048 -0.051676136
000220 0d 16 3e 3d 46 bb 9d 3d 37 31 d7 3b 9b a6 5f 3c
       0.046407748 0.07701735 0.006567146 0.013650562
000230 68 18 88 3d 04 88 0a bd 48 18 32 3e 08 a1 a9 bb
       0.0664528 -0.03382112 0.17392075 -0.005176667
000240 b6 99 4a ba 8b 63 19 bc 5a 90 31 3e 08 83 23 3e
       -0.0007728593 -0.009362112 0.17340222 0.15967953
000250 e1 d4 82 3c 68 b1 f8 3c 16 e9 89 3d 6d 17 a3 bd
       0.01597065 0.030358031 0.06733911 -0.079634525
000260 bd 55 7f bd 1c 33 07 3e 79 db fe 3d 64 55 16 3d
       -0.062337626 0.1320309 0.12444205 0.03670253
000270 40 4a 27 3d 20 e4 0f 3e b0 57 32 3e a4 e5 a0 3d
       0.040842295 0.14051867 0.17416263 0.078563005
000280 42 b6 ad ba c1 8c 06 3c 93 e2 15 3e dd 7d 6c 3d
       -0.001325317 0.008212269 0.14637212 0.05773722
000290 8a aa 1a 3d 71 e1 85 3d 8e 83 3c 3e fc fa de 3c
       0.037760295 0.0653714 0.18409559 0.027219288
0002a0 13 0b 0c 3e 65 05 e9 bb af 1d 81 3d e2 a4 35 bd
       0.136761 -0.007111239 0.0630449 -0.044346698
0002b0 a1 38 80 3e 97 24 25 3e d6 da 53 3d 34 6c f5 bc
       0.25043204 0.16127239 0.05172237 -0.029958822
0002c0 26 7c af bc 20 6d 1f 3d 32 64 c8 3d 82 03 01 3e
       -0.021421503 0.03892243 0.09784736 0.12598994
0002d0 ae 3f 0e 3e 6e 9d 2a 3d f0 25 88 bd ab 09 63 3c
       0.1389148 0.041654043 -0.06647861 0.0138572855
0002e0 e0 f1 d9 3d 4f a8 9c 3c 0a cd 0b bd 9c 36 9d 3d
       0.10641837 0.019123225 -0.034131087 0.076764315
0002f0 26 f2 91 bc bf 76 e7 3d 14 c3 cc 3c 44 80 e6 3d
       -0.01781566 0.11301946 0.024995364 0.112549335
000300 09 87 55 bd 93 97 af bb 03 bf 0a 3d b7 c8 43 3d
       -0.052130733 -0.005358645 0.03387357 0.04779884
000310 32 a3 91 3d 79 4f 9a bd e6 18 8b 3d 44 ff 0c 3e
       0.07111205 -0.075346895 0.067918584 0.13769251
000320 cd 07 9e 3c e4 39 e5 bd b3 1d 3e 3e ee 10 35 bd
       0.01929083 -0.111926824 0.18566017 -0.0442056
000330 0f b4 a5 bc 0a af b7 bd 51 73 fd bd f5 43 04 bb
       -0.02022746 -0.08968933 -0.123755105 -0.0020182107
000340 a8 48 2b 3d a0 08 d9 3d c5 bd 1e bd a1 b9 0c bd
       0.041817337 0.10597348 -0.038755197 -0.034356717
000350 0d 10 90 3d 31 3d 97 3d d1 1b 9a bd 05 01 ad bc
       0.070343114 0.07384718 -0.07524837 -0.02111865
000360 3a 76 c3 bd ce fc 96 bc 9f 21 b1 bd 05 a0 15 bd
       -0.09544034 -0.018431094 -0.08648991 -0.03652956
000370 78 17 28 bd 37 e0 2b bc 18 ca 26 3d 79 9f 89 bd
       -0.041038007 -0.010490469 0.040720075 -0.0671987
000380 10 2b 0d bd f9 e9 b1 bc 06 c0 21 bd 2f 14 58 3d
       -0.034464896 -0.021718012 -0.03948977 0.052753624
000390 19 52 64 bc 0a a9 00 be 9c bc 4f bc 48 65 e6 bd
       -0.013935589 -0.12564483 -0.012679245 -0.112497866
0003a0 40 2e b6 3d ad 36 20 3b da 75 90 bd 2d 71 41 3d
       0.0889554 0.0024446652 -0.070537284 0.047227073
0003b0 12 e7 c7 3c 0c cc 9d 3d a6 95 e8 bd f7 d5 85 ba
       0.024402175 0.077049345 -0.11356668 -0.0010210861
0003c0 e0 7e 1b be 5d cd 2d 3d c1 21 13 3c 35 18 22 3d
       -0.15185118 0.042432178 0.0089802155 0.039573867
0003d0 2d c9 ed bd 3d 64 2c be e9 d7 e0 b9 c9 aa 0a bc
       -0.11610637 -0.16835113 -0.00042885475 -0.00846357
0003e0 f7 93 5a bd 51 68 e4 3d 01 e6 36 3d e2 12 cb bc
       -0.053363767 0.11152709 0.044652943 -0.024789277
0003f0 1e 0a f1 3d 5b 5f b3 bb f8 55 10 be 12 7c de 3d
       0.11769508 -0.0054740137 -0.14095294 0.10863508

out_layer.weight f4 [100, 100]
000000 6a ea a1 bd c2 98 ea bb 69 58 22 bd af eb 64 bd
       -0.07906039 -0.0071593234 -0.039635096 -0.055888828
000010 7c 17 0f be 97 3e 87 3d 34 b9 f8 bd 26 3f 3e 3d
       -0.13973802 0.06603735 -0.121447 0.04644694
000020 1d 74 b7 3c 2d 90 38 3d 5a c0 a9 bc 7c b0 69 bd
       0.022394234 0.04505937 -0.020721603 -0.057053074
000030 c6 6f 6f 3d 10 73 9e 3d 56 94 20 bd d2 e6 ce bc
       0.058456205 0.0773679 -0.039203964 -0.025256548
000040 01 c7 e4 bd 33 56 04 bd f6 b3 1f 3d 42 ed 1b 3e
       -0.111707695 -0.03230877 0.038989983 0.15227225
000050 b6 1b 99 3d a1 b9 14 bc bf cd e4 3d b7 d0 8c bc
       0.074759886 -0.0090774605 0.111720555 -0.017189367
000060 47 a6 e7 bc 18 86 0a 3d 0e 09 8e 3c 29 39 06 be
       -0.02827753 0.033819288 0.017338302 -0.13107742
000070 14 8e 16 bd 9f 76 06 bd 0e e1 65 3c d8 a1 92 bd
       -0.03675659 -0.03282797 0.014030708 -0.071597755
000080 8a d8 8e bc 02 74 85 3c 8f 44 64 3c b8 7c 29 3d
       -0.017437238 0.016290668 0.013932361 0.041378707
000090 04 99 78 bd 97 dd b9 bc 43 70 68 bd 92 df 87 3c
       -0.060692802 -0.02268867 -0.056747686 0.016586099
0000a0 6b 16 3f 3d 40 71 89 3d d1 95 c5 bc 63 8a e9 bc
       0.04665224 0.06711054 -0.02411929 -0.02850837
0000b0 b1 41 1d be dd 61 92 3d 3c c1 c8 3d 65 f9 69 3c
       -0.1535709 0.07147572 0.098024815 0.014280652
0000c0 c5 15 81 bd b1 94 3d 3d 6d 63 92 bd 98 a4 74 3d
       -0.0630298 0.04628438 -0.0714787 0.05972728
0000d0 30 00 ca bc 12 0b 56 3d 5c 52 ca 3c 1f 83 51 3c
       -0.024658293 0.05225665 0.024697475 0.012787609
0000e0 01 7a 91 bb b4 14 03 3e dd fd ad 3d 88 dd 87 3d
       -0.004439593 0.12800866 0.08495686 0.066340506
0000f0 f6 ec 39 3d 75 e0 05 be 71 a6 c2 bd 31 c1 39 bc
       0.045392 -0.13073905 -0.095044024 -0.011337564
000100 71 f4 48 3d b8 d3 ab bd 3b 6d 7a bd b6 f5 5f 3d
       0.049061242 -0.083899915 -0.061139327 0.054677688
000110 d5 fa 16 3e b9 16 5d 3d 12 5a a4 bd 5c 6f 93 3c
       0.14744122 0.05397675 -0.08024992 0.017997436
000120 d8 ad 42 bd 51 96 66 3d c4 fa 29 bd 26 01 ab bd
       -0.04752907 0.056295697 -0.041498914 -0.083498284
000130 2e 37 12 3d 57 0b 9b 3d de a8 b8 3c 1b b8 e7 bc
       0.035697155 0.07570522 0.02254146 -0.02828603
000140 bd 8f 72 3d be b9 2a 3d a0 81 bc bd 2e 2e 36 bc
       0.05921911 0.041681044 -0.092044115 -0.0111194085
000150 17 1b 03 be 81 2f 23 be ee ec 82 bc 15 b6 d2 3d
       -0.12803303 -0.1593609 -0.015982118 0.10288636
000160 1a a5 86 bd e5 df c1 3b 15 1f 8c 3c 14 8b e9 3d
       -0.065744594 0.005916583 0.017104665 0.1140348
000170 c9 98 8e 3d 30 2d 29 bd a3 9e 4d bc 2a 38 ab bd
       0.06962735 -0.04130286 -0.012550029 -0.08360322
000180 4a 14 6e 3d 99 da bb bc b5 61 fe bc 0a ea 0d 3b
       0.058124818 -0.022931384 -0.03105245 0.002165439
000190 94 99 0f be e8 80 cc 3c 62 27 c0 bc dd 48 69 bc
       -0.14023429 0.024963811 -0.02345628 -0.014238563
0001a0 97 f4 90 bd 26 0e 90 3c c9 50 82 bd 10 a6 12 3d
       -0.07077902 0.017584872 -0.06363065 0.0358029
0001b0 3e 54 b4 3d da 3b c0 3c b7 ee aa bc 20 62 d4 3c
       0.088051304 0.02346604 -0.020865781 0.025925696
0001c0 e5 49 2d 3d f8 4d 78 3d f4 52 66 bd 34 f9 0e bc
       0.0423068 0.06062123 -0.056231454 -0.008726407
0001d0 5a 9c 84 bb 31 d6 09 be 86 c6 a3 3b 8a aa 42 3d
       -0.004046959 -0.13460614 0.004998031 0.04752592
0001e0 76 81 20 3d 3b 93 8c bc 63 1d 9c bd f0 c0 be bd
       0.039185964 -0.017160049 -0.076227926 -0.09314144
0001f0 50 8e de bc 26 dc 9c bd 4b 78 f8 3d bb 00 96 3d
       -0.02716747 -0.076591775 0.12132319 0.07324358
000200 5e d9 84 bd c4 e4 71 bb f3 1c 82 3d 51 0a 88 bd
       -0.06486772 -0.0036910037 0.06353178 -0.06642593
000210 33 9d ab 3d d9 12 81 bd 8c 11 cf bc 3e ca 14 3e
       0.08379593 -0.06302423 -0.025276922 0.14530274
000220 53 77 6f bd f0 84 b5 3d 3b 34 a4 bc 19 42 68 bd
       -0.058463406 0.088632464 -0.020044437 -0.05670366
000230 d2 f6 16 bc 1b 5f 2b 3e 5b 0e 59 bd 08 e7 1c 3d
       -0.00921412 0.16735499 -0.052992206 0.038306266
000240 3f d6 1d bd 64 38 a8 3d 0f cf 29 3d 32 ed e1 bc
       -0.0385344 0.08213881 0.041457232 -0.027578924
000250 f2 94 a5 3d 58 65 cc 3d a5 01 eb ba 2b a0 fe 3d
       0.0808505 0.09980267 -0.0017929567 0.12432893
000260 a7 9b 85 bc bd 53 97 bd 9a 93 a7 3c ef cd 17 3d
       -0.016309572 -0.07389019 0.020456124 0.037061628
000270 3e b8 a8 3d 90 93 c0 3d d8 d9 a8 3c 98 5c 8d bd
       0.082382664 0.09403145 0.020611688 -0.069024265
000280 5f 53 c4 bd b3 8a e1 3d 2a 85 0a be 19 33 89 bc
       -0.09586214 0.11012783 -0.1352736 -0.016747998
000290 b5 20 af bd 6d fd 44 bd d7 8d aa bd 0b bb d3 bd
       -0.0855116 -0.04809325 -0.08327835 -0.1033841
0002a0 ab 7c 02 3c 71 4d 84 bd 16 93 51 3d a9 dc 34 3d
       0.0079642935 -0.06460083 0.051165663 0.04415575
0002b0 66 ab 59 3d 7d 3a 24 3d 3a a2 2e bc cf 7b 1c bd
       0.053141974 0.04009484 -0.010658795 -0.03820401
0002c0 3e d1 61 3d 6c 37 fc bc 01 b5 ce bd 1c f5 56 bd
       0.05513119 -0.030788146 -0.100931175 -0.05247985
0002d0 27 0a ca bd d2 78 25 3e b1 cd b8 bd 74 10 93 bc
       -0.09865218 0.1615937 -0.090236075 -0.017952181
0002e0 df 18 60 3c a1 50 d6 bc cf fd a5 3d 52 f7 82 3d
       0.013677805 -0.026161494 0.08105051 0.06394829
0002f0 5d 21 8c bd ac 32 95 3d 5b c0 86 3d 63 f3 43 bd
       -0.06842301 0.072850555 0.06579658 -0.047839534
000300 8d 70 04 be dd 48 7c 3c f9 2e 21 bd 8a 49 4b bd
       -0.1293356 0.015398231 -0.039351437 -0.04963068
000310 d0 5c 06 bc 07 5e 8d 3d c9 02 d8 3b 0c 66 65 bc
       -0.008200839 0.069027 0.006592129 -0.014001381
000320 c7 f7 b8 3d e0 ac e8 3c 6e 38 93 bd ea b0 00 bd
       0.09031635 0.028402746 -0.071884975 -0.03141872
000330 3c 83 a0 3d 7c 98 8f 3d 62 59 79 3d 77 dc c0 3c
       0.07837531 0.07011506 0.060876258 0.023542626
000340 6c eb 4c bd 3b 0e a0 bd e9 0e ef bb b0 28 2d bd
       -0.050029203 -0.07815214 -0.0072954786 -0.04227513
000350 57 d7 c8 3c b7 32 f1 3d 15 07 85 bd 0c 90 21 bd
       0.024516745 0.11777251 -0.064954914 -0.039444014
000360 e8 03 60 bd bc 9a d8 39 a9 25 0a bd 20 51 45 3d
       -0.054691225 0.00041314017 -0.03372732 0.04817307
000370 68 2a d0 3d 8c 68 d2 bd f5 1c 4a bd f5 0d 09 3d
       0.10164338 -0.10273847 -0.04934402 0.033460576
000380 20 3d 16 3e 6b 48 30 bd 54 c2 d7 3d 66 30 df 3c
       0.14671755 -0.043037813 0.10535112 0.027244758
000390 6b ec 9b bc ad 57 bb bd 75 c3 5f 3d 8f a8 30 3d
       -0.019033631 -0.09147582 0.05462976 0.0431295
0003a0 3b a3 4b bd 00 af 58 bd 28 ce 26 bc b2 a0 1b bd
       -0.049716216 -0.052901268 -0.010180987 -0.037995048
0003b0 6a f7 cb 3d ce e4 d1 bb 67 5f d6 3c e9 98 f3 3d
       0.099593 -0.0064054495 0.026168538 0.118944
0003c0 96 83 15 3d fe cc a6 3d 8f ae 1c 3c 19 72 2d bc
       0.036502443 0.08144568 0.009563102 -0.010586285
0003d0 54 85 92 3d 3c 97 c4 3d f3 22 05 3d 13 54 31 3d
       0.071543366 0.09599158 0.032504033 0.04329307
0003e0 76 de a6 3c a3 40 62 bd 00 57 ca bd 00 05 95 3d
       0.02036975 -0.055237424 -0.09879875 0.07276344
0003f0 aa 50 83 bd 2f d6 6d bc 86 4d 6d 3d f1 c8 70 bb
       -0.0641187 -0.014516397 0.05793526 -0.0036740864

out_layer.bias f4 [100]
000000 ed cc 10 bd 38 a6 70 3d 8d 49 b8 bd 19 17 db 3d
       -0.035351682 0.05875227 -0.08998404 0.10697765
000010 bf 7a 0b 3d 10 fa c8 3d 0b 07 26 3d f8 ef 89 3d
       0.034052607 0.09813321 0.04053406 0.067352235
000020 ab d0 bb 3d 27 38 18 bd 79 27 af 3d 81 2b da bd
       0.0917066 -0.037162926 0.08552451 -0.10652829
000030 a8 45 1c 3d bd 21 31 3d ff a8 90 3d 0d e5 0b 3e
       0.038152367 0.043245066 0.070634834 0.13661595
000040 61 58 33 3d c6 6c 30 3d c1 36 5a 3d c7 88 03 bd
       0.043785457 0.043072484 0.053274874 -0.032112863
000050 50 17 90 3d 53 a3 dc 3d 0a 4a 1a 3e b2 47 b4 bc
       0.070356965 0.10773339 0.15067306 -0.022006843
000060 53 eb 52 3d ad ad 32 3d b2 6b 16 3e 38 55 8c 3d
       0.051493954 0.04362266 0.1468952 0.06852192
000070 35 5d 01 bd 50 3d b7 3b bc 6c 24 3d bb 70 00 bd
       -0.03158303 0.005592026 0.04014276 -0.03135751
000080 57 ed 32 3e 0d 95 01 3e 15 7a 70 3c 59 3a bc 3d
       0.1747335 0.12654515 0.014677544 0.091908164
000090 e5 ae 17 3c 28 be 9b bd a4 71 78 3d 68 c6 1c bd
       0.009258007 -0.07604629 0.06065525 -0.038275152
0000a0 f8 f4 02 3e 22 c6 e5 3c 20 92 04 3e f3 9a cc 3d
       0.1278876 0.028048579 0.12946367 0.09990492
0000b0 ab 2c b3 3c b7 5d 3b 3d 41 11 e6 3d 77 05 3e 3e
       0.021871885 0.04574367 0.1123376 0.18556772
0000c0 9c ea 05 3e 9a 39 85 3d ea 43 3a 3d 23 b0 a3 bc
       0.13077778 0.06505127 0.045474924 -0.01998145
0000d0 97 0d 96 bd a6 50 17 3e 14 46 14 3e b3 cb 07 3d
       -0.07326811 0.14776859 0.14479858 0.033153247
0000e0 8d e8 5a bd 3d ec 06 be 93 70 de 3d 9d c8 ad bc
       -0.053444434 -0.13176055 0.108613156 -0.021213824
0000f0 c8 f3 27 3c 03 4e 8c 3d 7a 95 a6 bd 32 75 cd 3b
       0.010250993 0.06850817 -0.08133979 0.0062700743
000100 81 6f 0b 3c 24 0d 74 3d 39 c8 01 bd 78 be 55 3d
       0.008510471 0.059582844 -0.031685088 0.0521836
000110 a7 fb 4f 3d 1e a1 ac 3c 41 8e ca 3d 82 c3 d3 3d
       0.050777104 0.02107292 0.09890414 0.103400245
000120 18 84 ff 3d a3 b5 cb 3d 7c 38 1d 3e 79 c2 ac bc
       0.12476367 0.09946754 0.15353578 -0.021088826
000130 62 02 76 bd b8 8b be 3d 32 de 31 3d 77 33 07 3e
       -0.060060866 0.09303993 0.043424793 0.13203226
000140 98 21 53 bd e8 1f 80 3c c1 0d a7 3d 78 72 94 3d
       -0.05154571 0.015640214 0.0815692 0.07248396
000150 7c 47 1c 3c 94 93 2b 3d 6d 61 01 3b 2f 62 05 3e
       0.009538528 0.04188879 0.0019741908 0.13025735
000160 36 73 30 3e 65 9e 33 bd 21 9e 83 bc fe 99 36 bc
       0.1723145 -0.04385223 -0.016066613 -0.011145113
000170 c5 a1 47 bd ba dc 35 3d a9 0f 36 3c fe a1 4d bd
       -0.04873826 0.044399954 0.011112132 -0.050203316
000180 dd 13 04 bd d1 31 50 3d e7 bd 8f bc e8 8f 1d bd
       -0.032245506 0.05082876 -0.017546607 -0.038467318
